models/dqn_cart_ep800.pth (torch, 406255 bytes, 8 tensors)

network.0.weight f4 [256, 4]
0	0x3eb56424	0.35427964
1	0xbea0b8ec	-0.31391084
2	0xbe933597	-0.28751823
3	0xbed9fbcd	-0.4257492
4	0x3e86335b	0.26211056
5	0x3ea764c3	0.32694063
6	0x3f133512	0.57502854
7	0x3ea25de3	0.31712255
8	0x3dcadb96	0.09905164
9	0xbd73e2cc	-0.059542462
10	0xbdb43615	-0.08799378
11	0x3ed9fb36	0.4257447
12	0xbef7a2b4	-0.4836632
13	0xbe824dd2	-0.25449997
14	0x3e3e944e	0.18611261
15	0xbcbf8c38	-0.023382291
16	0xbf18fd24	-0.5976126
17	0xbf14f7cd	-0.58190614
18	0x3ebcce25	0.36876026
19	0xbeffa14b	-0.49927744
20	0xbf07f8cd	-0.53114015
21	0x3f02c0b7	0.5107531
22	0xbeed5620	-0.4635477
23	0xbefa53b0	-0.48891973
24	0x3f0f7bd6	0.56048334
25	0xbc8deda7	-0.017325236
26	0xbe3cb4e2	-0.18428376
27	0x3e0f8911	0.1401713
28	0x3f1b6fb0	0.60717297
29	0x3d98f81b	0.07469197
30	0xbdd5a0ce	-0.10431062
31	0xba92c11a	-0.0011196465
32	0xbe3ef467	-0.1864792
33	0x3d880696	0.06641881
34	0xbe637f72	-0.22216585
35	0xbf22dee0	-0.6362133
36	0x3dcd3612	0.10020079
37	0xbf132107	-0.5747227
38	0xbe4ab888	-0.19796956
39	0x3e0b9b39	0.13633431
40	0x3eda37a0	0.42620564
41	0xbe06c9e1	-0.13162948
42	0xbe86c08b	-0.26318774
43	0x3eb8ca9a	0.36092073
44	0xbf3352dd	-0.70048314
45	0xbe87e73d	-0.26543608
46	0x3cd88de5	0.026434848
47	0x3e727b21	0.23679782
48	0xbf3490af	-0.7053327
49	0xbf0f7d06	-0.56050146
50	0x3d613c43	0.05498911
51	0x3eae1494	0.34000075
52	0xbf1b71ff	-0.6072082
53	0xbe9a7ff0	-0.30175734
54	0x3eb500e6	0.35352248
55	0xbcdb910e	-0.026802566
56	0x3eb39fbc	0.35082805
57	0x3f1a502f	0.602786
58	0xbee257ef	-0.44207713
59	0x3e8f73b8	0.28017974
60	0x3eeba716	0.46025914
61	0xbeda9216	-0.4268958
62	0x3cba4194	0.022736348
63	0x3eb6f537	0.3573396
64	0x3e46a8fc	0.194004
65	0xbe76cbee	-0.2410123
66	0xbe3e9a12	-0.1861346
67	0xbdc6dffb	-0.0971069
68	0xbc4dc848	-0.012559958
69	0xbec27b95	-0.3798491
70	0x3c83d860	0.016094387
71	0xbed1827f	-0.40919873
72	0x3e8bb1b9	0.2728403
73	0xbdf80bfc	-0.12111661
74	0xbea846d8	-0.3286655
75	0xbf0e2261	-0.5552121
76	0xbf23aa33	-0.6393158
77	0xbec13fbf	-0.37743947
78	0xbdd49634	-0.103802115
79	0xbee34c2d	-0.44394055
80	0xbe60df64	-0.21960217
81	0xbed160d7	-0.40894195
82	0xbe127f85	-0.14306457
83	0xbea1fbc6	-0.316374
84	0x3e8bf5fc	0.2733611
85	0xbef76f70	-0.48327208
86	0x3e49ffdb	0.19726507
87	0x3d4e7041	0.050400022
88	0xbeadde67	-0.33958742
89	0xbdd49162	-0.10379292
90	0xbf00dc06	-0.5033573
91	0x3ed1b4f2	0.40958363
92	0xbd5dfec1	-0.05419803
93	0x3ea9b915	0.3314902
94	0x3e5b0e9f	0.21392296
95	0x3ce6d3c2	0.028177146
96	0x3e42c75a	0.19021359
97	0xbed3facf	-0.4140229
98	0x3eb366d2	0.35039383
99	0xbf323ced	-0.69624215
100	0x3ec1dc9a	0.37863618
101	0xbed91934	-0.4240204
102	0x3efc7ee1	0.4931555
103	0xbda1be41	-0.07897616
104	0xbeab0dd0	-0.33408976
105	0xbcf2665a	-0.02958982
106	0xbe9c13ca	-0.30483848
107	0x3e2d0aaa	0.168986
108	0xbe8e7698	-0.27824855
109	0xbe9e4b7a	-0.3091696
110	0x3edacaf2	0.4273296
111	0xbeb37ca8	-0.35056043
112	0xbe263cb0	-0.16234088
113	0xbec4477e	-0.38335794
114	0xbc8341aa	-0.016022522
115	0x3e8e3454	0.27774298
116	0xbc9fb8b7	-0.019497259
117	0x3e965884	0.29364407
118	0xbde9ec30	-0.11422002
119	0x3e3e7035	0.18597491
120	0xbde26732	-0.11054839
121	0x3ea2197b	0.31660065
122	0x3dc2c91c	0.09511015
123	0xbf0130c1	-0.5046502
124	0x3dbd7428	0.09250671
125	0xbf11eaff	-0.569992
126	0x3f0dd14d	0.5539749
127	0x3e7bdb0e	0.24595281
128	0x3eb2e23d	0.3493823
129	0xbc5ea1d2	-0.013588386
130	0xbe7eee30	-0.24895549
131	0xbe4c017d	-0.19922443
132	0x3bda5652	0.006663122
133	0x3ed6068e	0.41801876
134	0x3ef419df	0.47675988
135	0x3f14b1b1	0.58083636
136	0xbf27a04f	-0.65478987
137	0xbd6092c9	-0.054827485
138	0xbe01f048	-0.12689316
139	0xbd26d849	-0.04073361
140	0xbda97af6	-0.08275406
141	0xbf2e9408	-0.6819463
142	0x3bbfd3d8	0.005854111
143	0xbd48ba3c	-0.049005732
144	0xbe997e64	-0.2997924
145	0xbf04e8e2	-0.5191785
146	0xbed4255e	-0.4143476
147	0x3eae3b9c	0.34029853
148	0x3f007c55	0.50189716
149	0x3eaebb05	0.3412706
150	0xbda2e8e7	-0.07954579
151	0xbf1b2f8e	-0.6061944
152	0xbee86f5b	-0.45397457
153	0xbd927bc9	-0.071525164
154	0xbec0d63d	-0.3766345
155	0xbe91fe8e	-0.28514522
156	0xbe61eab4	-0.22062188
157	0xbec79117	-0.38977882
158	0x3e072ac2	0.13199905
159	0x3e50a689	0.20376028
160	0xbf2a6891	-0.66565806
161	0xbb45844d	-0.0030138672
162	0x3baf0aa0	0.005341843
163	0xbc568313	-0.013092774
164	0x3ea9f441	0.33194163
165	0x3e43d8f8	0.19125736
166	0x3f006061	0.5014706
167	0x3d50eb06	0.051005386
168	0x3f666783	0.90001696
169	0x3c84feea	0.016234834
170	0xbe8b2e99	-0.2718399
171	0xbe38af86	-0.18035707
172	0xbed1469e	-0.4087419
173	0x3f1acf15	0.6047223
174	0xbee8c37c	-0.45461643
175	0xbba0e480	-0.004910052
176	0x3f12d4ca	0.5735594
177	0x3ea7117f	0.32630536
178	0xbec4b14f	-0.38416526
179	0xbc3ad952	-0.011404352
180	0x3e594ede	0.21221492
181	0x3d2d739b	0.042346578
182	0x3ef5f3c1	0.48037532
183	0x3f096571	0.5367041
184	0x3f15b4f4	0.5847924
185	0x3e6416ef	0.22274373
186	0x3e67c998	0.22635496
187	0x3e919b13	0.28438625
188	0xbea11fb2	-0.31469494
189	0xbf117234	-0.56814885
190	0x3d9d5295	0.07681767
191	0xbe9824a1	-0.29715446
192	0x3efe5a09	0.49678066
193	0x3ea38512	0.31937462
194	0xbdee8765	-0.11646918
195	0xbec3e411	-0.38259938
196	0x3eeb63c3	0.4597455
197	0xbdc719c6	-0.09721713
198	0xbe99699f	-0.29963395
199	0xbc5cdcd0	-0.01348038
200	0xbf0ae6d1	-0.5425845
201	0x3bcf0146	0.0063172905
202	0x3e985c56	0.29757947
203	0xbef474ab	-0.4774526
204	0xbdea37b1	-0.114364035
205	0x3d8766fc	0.066114396
206	0x3e67e55f	0.22646092
207	0xbde2714b	-0.11056765
208	0x3df5fbc8	0.12010914
209	0xbef7fa56	-0.4843318
210	0xbeb0de8f	-0.345448
211	0x3d44b0bc	0.04802011
212	0x3e7c83a5	0.24659593
213	0x3ea61fec	0.3244623
214	0x3f26d62f	0.6517057
215	0x3e969eb2	0.2941795
216	0x3f2486c8	0.6426816
217	0xbe19f69f	-0.15035485
218	0x3ec7abaf	0.38998172
219	0x3c434ebb	0.011920626
220	0xbdbb8a62	-0.09157254
221	0xbf0cc5a9	-0.54989105
222	0x3bde6c06	0.0067877797
223	0xbd3a2441	-0.04544473
224	0xbf109534	-0.56477666
225	0x3ed48488	0.41507363
226	0x3dac36f2	0.084089175
227	0xbe011cfd	-0.12608714
228	0x3f869b37	1.0516118
229	0xbd8aa8e1	-0.06770492
230	0x3da7636e	0.081732616
231	0xbf02ca75	-0.51090175
232	0x3f46e05e	0.7768611
233	0xbd616a13	-0.0550328
234	0xbda4d116	-0.080476925
235	0xbec5342d	-0.3851637
236	0x3de6e773	0.11274614
237	0xbee7f498	-0.45303798
238	0xbd50f7eb	-0.051017683
239	0xbeb1f98d	-0.34760705
240	0xbf5fb24a	-0.8738142
241	0x3e783896	0.24240336
242	0x3e53c1c8	0.2067939
243	0xbe3dc02a	-0.18530336
244	0x3f03b0a5	0.51441413
245	0xbc150c03	-0.009097102
246	0x3eaa6b67	0.33285066
247	0xbe3e4860	-0.18582296
248	0x3ddd6d5a	0.10811873
249	0x3dffcbe9	0.12490065
250	0x3d0d682a	0.034523167
251	0x3ec3f798	0.38274837
252	0x3e0314fc	0.12800974
253	0x3e8a8782	0.2705651
254	0xbecffecf	-0.4062409
255	0x3d66b827	0.056327965

network.0.bias f4 [256]
0	0xbeb8ee3b	-0.36119255
1	0xbe2b72a8	-0.16742957
2	0xbc0a1741	-0.008428396
3	0x3f009904	0.50233483
4	0xbe8ccd6d	-0.27500477
5	0x3dd770f5	0.10519592
6	0xbe1b6e58	-0.15178812
7	0xbe54a17b	-0.20764725
8	0xbe89251a	-0.2678612
9	0x3d083e02	0.03326226
10	0xbe517a5f	-0.20456837
11	0x3e66640e	0.22499105
12	0x3e8cbe29	0.2748883
13	0x3ec0d9d6	0.37666196
14	0xbbbc9bca	-0.005755876
15	0x3e8086ec	0.25102937
16	0x3ec52cc7	0.38510725
17	0x3e9f6eb7	0.31139156
18	0x3e75443b	0.23951809
19	0x3ebc703d	0.3680438
20	0x3e06f913	0.13180952
21	0x3e3770a3	0.17914061
22	0x3e3e66d5	0.18593915
23	0xbe6d4a16	-0.23172793
24	0xbe3fc47e	-0.187273
25	0x3ebfaed8	0.37438083
26	0xbdb437a3	-0.08799674
27	0xbe1308d8	-0.14358842
28	0xbe3e3109	-0.18573393
29	0xbebd76d3	-0.37004718
30	0xbe5cce5e	-0.21563098
31	0x3e4923f4	0.19642621
32	0x3e88ab38	0.2669313
33	0x3e848081	0.2587929
34	0x3e038098	0.12842023
35	0x3bacdc99	0.0052753207
36	0x3ce5138e	0.027963426
37	0xbeb43107	-0.35193655
38	0xbe08acc8	-0.13347161
39	0x3d819814	0.06327835
40	0x3ca0a6a4	0.01961071
41	0xbd9a34c6	-0.07529597
42	0x3ed86cee	0.42270607
43	0x3d2239bf	0.039605852
44	0xbe2ff465	-0.17183073
45	0xbe9ce8cb	-0.30646357
46	0x3e26a2e8	0.16273081
47	0x3e59989a	0.21249619
48	0xbdb8bc4e	-0.09020291
49	0xbb725d62	-0.003698193
50	0x3dd76bd2	0.10518612
51	0x3eae69a2	0.34064966
52	0x3eeed25f	0.46644875
53	0xbe3baa8d	-0.18326779
54	0x3ea58a5a	0.32332116
55	0x3c9013b6	0.017587524
56	0x3ed5adbd	0.41734114
57	0x3eaeec6c	0.3416475
58	0x3e8c0ee7	0.2735512
59	0x3f027256	0.5095571
60	0x3ec9ff20	0.39452457
61	0x3efa087c	0.48834598
62	0xbe288036	-0.16455159
63	0x3caf3e0a	0.021391887
64	0x3b8fa60c	0.004383808
65	0x3ebbf8ff	0.36713406
66	0x3e312a93	0.17301397
67	0x3e489792	0.1958907
68	0x3e33a334	0.17542726
69	0xbecd3dbf	-0.4008617
70	0x3e853a1d	0.260209
71	0x3cbfdd6d	0.023421014
72	0x3e2c26cd	0.16811676
73	0x3eddf626	0.4335186
74	0x3ebc4fb0	0.36779547
75	0x3eb38203	0.3506013
76	0xbe3dcf00	-0.18535995
77	0xbeb91f94	-0.36156905
78	0x3e9a5c54	0.30148566
79	0x3ebcb27b	0.3685492
80	0xbc597a89	-0.013273844
81	0x3de2c9d4	0.11073652
82	0xbdcb591a	-0.09929104
83	0x3d516a80	0.051126957
84	0xbedde78f	-0.43340728
85	0x3eef8e8e	0.46788448
86	0xbe76ec3a	-0.24113551
87	0x3e29de2c	0.16588658
88	0x3edda5f1	0.43290666
89	0x3e9a6768	0.30157018
90	0xbce0d680	-0.027446032
91	0xbc00e2b0	-0.0078665465
92	0xbdf14302	-0.11780359
93	0xbeb8e776	-0.3611409
94	0xbef90c74	-0.48642313
95	0xbec4b145	-0.38416496
96	0x3e949040	0.29016304
97	0xbd9f4c2b	-0.077782
98	0xbe9e8fa1	-0.30968955
99	0x3ecf2e45	0.40464988
100	0x3c27656c	0.010217052
101	0x3ea27bfa	0.31735212
102	0xbea552a1	-0.32289603
103	0x3ee8e8a1	0.45489982
104	0x3ec5a1d2	0.38600022
105	0x3d1ce08d	0.038300086
106	0xbc58d5fd	-0.0132346125
107	0xbeb8c8a1	-0.36090568
108	0x3e2feba9	0.17179741
109	0x3ef0deb1	0.470449
110	0xbe4af1bb	-0.19818775
111	0xbea3f58e	-0.3202328
112	0x3e8104e6	0.2519905
113	0xbe072b00	-0.13199997
114	0x3e1dfe6d	0.15429087
115	0xbe3749d0	-0.17899251
116	0xbdecaa16	-0.11555879
117	0x3eb69038	0.35656905
118	0xbdf67184	-0.1203337
119	0x3ec53053	0.3851343
120	0x3dc99a94	0.098439366
121	0x3eff5636	0.4987046
122	0xbed690be	-0.41907305
123	0x3e043d33	0.1291397
124	0xbe3e441f	-0.18580674
125	0x3ea424b9	0.32059267
126	0x3d072dc5	0.033002634
127	0x3e9e9899	0.30975798
128	0xbe6d1c3f	-0.23155306
129	0xbdebf3f8	-0.11521143
130	0x3e95c4b4	0.29251635
131	0xbebb549b	-0.36587986
132	0xbe3b86ce	-0.18313143
133	0xbe90eec9	-0.2830718
134	0x3e4d8995	0.20072015
135	0x3e7eab55	0.24870045
136	0x3e8c63a6	0.27419776
137	0xbee08526	-0.43851584
138	0xbc335d58	-0.010947548
139	0xbe72094e	-0.23636362
140	0x3f161807	0.5863041
141	0x3ef2e8ea	0.47443324
142	0x3ed20d53	0.4102579
143	0x3ee8a3f3	0.45437583
144	0xbdb01992	-0.08598627
145	0xbe2f4d06	-0.17119226
146	0x3d8b085c	0.06788704
147	0xbe8a3eea	-0.27001125
148	0x3eaf12e7	0.3419411
149	0x3ef23406	0.47305316
150	0x3e32fe6e	0.1747987
151	0x3ec0605e	0.37573522
152	0x3e3a95a4	0.18221146
153	0xbe47e2dd	-0.19520135
154	0x3ebb8b17	0.36629555
155	0x3ee66710	0.45000505
156	0xbd05c807	-0.032661464
157	0x3ddbc5c1	0.10731078
158	0xbd84699a	-0.064654544
159	0xbee1c4ca	-0.4409545
160	0xbd9e106c	-0.07717976
161	0x3ef96f51	0.4871774
162	0x3d5f1162	0.054459937
163	0xbe91a33a	-0.28444844
164	0x3edeea64	0.435382
165	0xbdbe7306	-0.09299283
166	0x3d7f4916	0.06232556
167	0x3ea7ea35	0.32795873
168	0x3e7ace6f	0.2449281
169	0x3e965dc4	0.29368412
170	0xbc895dbe	-0.016768333
171	0x3e0127fb	0.12612908
172	0x3f08d78b	0.5345389
173	0xbd1e5569	-0.038655672
174	0xbdb50ad2	-0.088399544
175	0x3ced9301	0.029000761
176	0x3eed22f8	0.46315742
177	0x3e3fa860	0.18716574
178	0xbeb88082	-0.36035544
179	0x3d920800	0.07130432
180	0x3e32c7a6	0.17458972
181	0xbdb82c87	-0.08992868
182	0xbee0657f	-0.43827435
183	0xbece319e	-0.4027223
184	0xbecbc87d	-0.39801398
185	0x3dd078a1	0.10179258
186	0x3d9668a1	0.07344175
187	0x3ecc505c	0.3990506
188	0xbe6f2251	-0.23352934
189	0xbecb4d61	-0.39707473
190	0x3d0c9ead	0.034331013
191	0x3ea2cc27	0.3179638
192	0x3ec7f932	0.39057308
193	0xbeb6e056	-0.3571803
194	0xbdf3a114	-0.118959576
195	0x3e4a2ce6	0.1974369
196	0x3f06ff9e	0.5273379
197	0x3e096f1b	0.1342129
198	0x3c351236	0.011051705
199	0x3e34961f	0.17635392
200	0x3ee4526f	0.44594142
201	0x3e98ee21	0.29869178
202	0x3eb94ab7	0.36189815
203	0xbe9a5a95	-0.30147234
204	0x3b98c37d	0.004661976
205	0x3ed9d2e8	0.4254372
206	0xbcb6fdcd	-0.022337819
207	0xbe37352d	-0.17891379
208	0x3ed5edae	0.41782898
209	0xbd8a1bf8	-0.06743616
210	0x3e03fc58	0.1288923
211	0x3e9ecbfa	0.31014997
212	0x3e1b982d	0.15194769
213	0x3e46249c	0.19349903
214	0x3ed06c05	0.40707412
215	0x3ec12edf	0.37731072
216	0xbe2ae2e7	-0.16688119
217	0x3ec7beab	0.39012656
218	0x3e83e1ce	0.25758213
219	0x3e992c3a	0.29916555
220	0xbd002ad6	-0.03129085
221	0xbd9bfd8e	-0.07616721
222	0x3d25906b	0.04042093
223	0xbdf7f399	-0.121070094
224	0xbddb95c6	-0.107219264
225	0xbed13f98	-0.4086883
226	0x3dbc52a4	0.0919545
227	0x3eab73e2	0.3348685
228	0x3e1ba4d6	0.15199599
229	0x3dd02169	0.101626225
230	0x3e9a3739	0.30120257
231	0xbe7c501f	-0.24639939
232	0xba574423	-0.0008211752
233	0x3e540960	0.20706701
234	0xbe090a2e	-0.1338279
235	0xbd24b4f2	-0.040211625
236	0x3e2f2260	0.17102957
237	0xbf0778cd	-0.529187
238	0xbea28244	-0.3174001
239	0x3e7b19c5	0.24521549
240	0xbe0df556	-0.1386312
241	0x3dfdd718	0.123945415
242	0x3f0f27c3	0.55920047
243	0x3e0f7efe	0.14013287
244	0xbe18491c	-0.14871639
245	0x3c8c3afa	0.017117966
246	0xbec4a015	-0.38403383
247	0xbdf396d7	-0.11894005
248	0xbdbbb1ab	-0.09164747
249	0xbefd40e1	-0.4946356
250	0x3eb9a0fa	0.36255628
251	0xbeeda8ab	-0.46417746
252	0x3be38e9f	0.006944492
253	0x3e4a8a3f	0.19779299
254	0x3d3c6e4c	0.046003625
255	0x3ef1f22d	0.47255078

network.2.weight f4 [256, 256]
0	0x3dcd05cd	0.10010872
1	0x3c932e32	0.017966364
2	0x3ab39d0f	0.0013703423
3	0x3c5fd03c	0.013660487
4	0x3d84d90a	0.064867094
5	0xbda9a6df	-0.08283781
6	0x3ca06e51	0.019583853
7	0xbe59cf0e	-0.21270391
8	0xbdd8b98d	-0.10582266
9	0x3d175d10	0.036953986
10	0x3c0f9389	0.0087632025
11	0x3d585461	0.052814845
12	0xbc84b22b	-0.016198238
13	0xbd1414a6	-0.036152504
14	0x3d8ca2ea	0.06867011
15	0x3d929207	0.07156759
16	0xbcc05978	-0.023480162
17	0x3d717493	0.058949064
18	0xbb2c2b27	-0.0026270838
19	0x3d79bb6c	0.060969755
20	0x3c930ed3	0.017951405
21	0x3d951c76	0.07280819
22	0xbda652e0	-0.08121276
23	0x3e2e97f3	0.17050152
24	0xbe6a109b	-0.22857897
25	0x3d8930c5	0.06698755
26	0xbd8fa0cc	-0.070130914
27	0x3cb02173	0.021500325
28	0xbc5f98fa	-0.013647312
29	0x3c4280e9	0.011871555
30	0xbd9df187	-0.07712083
31	0xbd530c55	-0.051525433
32	0x3ce9d07d	0.028541798
33	0xb9b6451f	-0.00034765244
34	0x3ac1c5dc	0.0014783698
35	0x3e49e1ab	0.19714992
36	0xbdb4ccae	-0.08828102
37	0xbc96fbdd	-0.018430645
38	0x3d8955b2	0.06705798
39	0x3a979805	0.0011565691
40	0x3d65cc7f	0.056103226
41	0xbe4b72e1	-0.19868042
42	0xbcda6248	-0.026658192
43	0x3d5d435c	0.054019317
44	0x3d8c9b26	0.0686553
45	0x3de25598	0.11051482
46	0xbd0d0ec1	-0.0344379
47	0x3d77244b	0.060337346
48	0x3d4f62ce	0.050631337
49	0x3e0d5978	0.13803661
50	0x3db3427b	0.087529145
51	0xbc27bbc1	-0.010237635
52	0x3d280632	0.041021533
53	0xbdadfd74	-0.08495608
54	0x3d669f43	0.056304228
55	0x3e0be225	0.13660486
56	0xbc45bf95	-0.0120696025
57	0xbced8149	-0.028992312
58	0xbd2734d2	-0.040821858
59	0x3d80f81d	0.06297324
60	0x3af8882a	0.0018961478
61	0x3c650531	0.0139782885
62	0x3e4717f8	0.19442737
63	0x3c9cea84	0.019154795
64	0x3cd4c436	0.025972467
65	0xbd50aabb	-0.05094407
66	0xbd2c2a1b	-0.042032342
67	0xbd0428f9	-0.032265637
68	0xbcaa41a5	-0.020783255
69	0xbe1d91fd	-0.15387721
70	0x3db5e801	0.08882142
71	0xbbe74313	-0.0070575564
72	0x3d406bdd	0.046977866
73	0x3d1f14a6	0.03883805
74	0x3cc658c6	0.024212252
75	0x3d5bfc6f	0.053707536
76	0xbd378c80	-0.044811726
77	0xbd927a5f	-0.07152247
78	0xbcadb2a3	-0.021203345
79	0x3c5fbe17	0.013656161
80	0x3db7d6ad	0.08976493
81	0x3d2414a1	0.040058736
82	0x3c0a050d	0.008424056
83	0x3ddb8dea	0.10720427
84	0x3bd380b6	0.0064545525
85	0x3d9c1a67	0.07622223
86	0x3ec706dc	0.3887242
87	0xbb0d0505	-0.0021517884
88	0x3d56e021	0.05245984
89	0x3bafbee5	0.0053633326
90	0x3d6d6d1f	0.057965394
91	0x3d81c213	0.06335845
92	0xbe227d60	-0.1586814
93	0x3cb74eef	0.022376506
94	0x3e3429d5	0.17594083
95	0x3caa8a59	0.020817922
96	0xbcd9aa42	-0.026570443
97	0xbcac745c	-0.021051578
98	0xbe4b81c1	-0.19873716
99	0xbd4e5a7d	-0.050379265
100	0x3d3651e2	0.044511683
101	0x3d527206	0.051378272
102	0x3db2cdde	0.08730672
103	0x3d90dcba	0.0707335
104	0xbd14f94c	-0.03637056
105	0xbc0bc482	-0.008530738
106	0x3dbbd4d3	0.091714524
107	0xbcc3b7d3	-0.023891365
108	0x3d94ada7	0.07259684
109	0x3d8b4f20	0.06802201
110	0xbe8687a5	-0.26275364
111	0x3dc71f0e	0.0972272
112	0xbc900d55	-0.017584482
113	0x3cde12de	0.027108606
114	0xbcf33fa3	-0.02969343
115	0x3e216d5d	0.15764375
116	0x3e2c4052	0.16821411
117	0xbb120557	-0.0022281015
118	0xbe24b755	-0.1608556
119	0x3d8384c0	0.064218044
120	0x3dcd265f	0.10017084
121	0x3cdd194f	0.026989607
122	0xbcbb7219	-0.022881554
123	0x3dcb2b5e	0.09920381
124	0x3e19d070	0.15020919
125	0x3d8d9b58	0.06914395
126	0xbc485a84	-0.012228612
127	0xbd4d8270	-0.050173223
128	0x3da6ac9d	0.08138392
129	0x3cb32c59	0.021871733
130	0x3ca9222e	0.020646181
131	0xbdebb149	-0.11508424
132	0xbc4ae995	-0.012384792
133	0x3e4e94bf	0.2017393
134	0x3c36551e	0.011128692
135	0x3d52246c	0.051304266
136	0xbcdb1226	-0.026742052
137	0xbdb5fc7d	-0.08886049
138	0xbd1452e7	-0.036211874
139	0x3d780f50	0.06056148
140	0xbc68cd47	-0.014209098
141	0xbcfd2dfc	-0.030905716
142	0x3d11e5f3	0.035619687
143	0x3c6cf0c2	0.014461698
144	0x3dfaff88	0.1225577
145	0x3d941c48	0.07231957
146	0xbd89334d	-0.06699238
147	0x3d8d0e89	0.06887538
148	0x3cfaa0d0	0.03059426
149	0x3d8a8ceb	0.06765159
150	0x3cb482c5	0.022035012
151	0x3d5574ca	0.05211333
152	0xbc182033	-0.009285021
153	0x3d625e9c	0.055266008
154	0x3c5c8e73	0.013461697
155	0x3d54816b	0.051881235
156	0x3de50cf6	0.11184113
157	0xbdc5b008	-0.09652716
158	0x3b6f834f	0.0036546772
159	0xbe45cabe	-0.19315621
160	0x3cfd28d1	0.030903252
161	0xbcc8c6da	-0.024508882
162	0x3d9fc3a5	0.07800988
163	0x3dbc7719	0.092024036
164	0x3c878972	0.016545031
165	0x3df10b67	0.11769753
166	0x3dc6dd3f	0.09710168
167	0xbc9c6533	-0.019091224
168	0x3d658204	0.056032196
169	0xbb6b4000	-0.0035896301
170	0x3e50fdb0	0.20409274
171	0xbc94ec21	-0.018179001
172	0xbc9130a7	-0.017723395
173	0xbbec65a0	-0.007214263
174	0x3c9cc7ea	0.019138295
175	0x3da86da5	0.08224038
176	0x3cde0491	0.027101787
177	0xbcb50abe	-0.022099849
178	0x3edfa22a	0.4367841
179	0xbcef27a6	-0.02919371
180	0xbc2c41f8	-0.010513775
181	0x3db664c9	0.08905942
182	0x3dea2d64	0.11434439
183	0xbe82b7b7	-0.25530788
184	0xbd9b3d09	-0.07580001
185	0x3d3b0506	0.045659088
186	0x3dd9e2fc	0.10638997
187	0x3d2a7742	0.04161764
188	0x3e3e75ab	0.18599574
189	0x3e411d1d	0.18858762
190	0x3bb5d839	0.0055494574
191	0x3d440272	0.047853895
192	0x3d44411a	0.04791365
193	0x3c406fea	0.011745432
194	0xbd84c160	-0.06482196
195	0x3d148525	0.03625979
196	0xbb89573b	-0.004191307
197	0xb8919db9	-6.943517e-05
198	0x3e174a9f	0.1477456
199	0xbc7b8ed9	-0.015353882
200	0xbcd933ef	-0.026514022
201	0xbc9bb1d6	-0.019005697
202	0xbcabc6f6	-0.020968895
203	0x3e090ebd	0.13384528
204	0xbc0e674a	-0.008691618
205	0x3d92366b	0.07139286
206	0x3d9c4d9a	0.07631989
207	0x3dec502f	0.11538731
208	0xbd0ad00f	-0.033889826
209	0x3c1fc263	0.009750935
210	0xbd5e98b1	-0.054344837
211	0x3b2b74b6	0.0026162094
212	0xbc3b3fb3	-0.011428761
213	0xbd4432f2	-0.047900148
214	0x3d169790	0.036765635
215	0x3d686289	0.056734595
216	0x3d1a3b48	0.03765419
217	0x3c31c198	0.010849379
218	0x3c88f020	0.016716063
219	0x3d5d44fb	0.054020863
220	0x3d4a2924	0.04935564
221	0xbd21c89a	-0.03949795
222	0x3de9dc1b	0.11418935
223	0x3d6b1812	0.057396002
224	0x3d1574cf	0.03648835
225	0x3e2ec6a4	0.17067963
226	0xbc2000a2	-0.009765776
227	0x3b151303	0.0022746928
228	0x3d68afd1	0.056808297
229	0x3d4c819a	0.049928285
230	0x3caf8b05	0.021428594
231	0xbe673609	-0.22579207
232	0x3cd6455f	0.026156126
233	0xbc766d05	-0.015040641
234	0xbd945879	-0.07243437
235	0xbd50972c	-0.05092542
236	0xbce0dca1	-0.027448954
237	0x3c193e10	0.009353176
238	0x3e9d441d	0.3071603
239	0xbd190fc4	-0.03736855
240	0x3dadadc1	0.084804066
241	0xbc569ec7	-0.013099379
242	0x3d83bf2c	0.064329475
243	0x3cb2c1d0	0.021820933
244	0x3d3c44b7	0.04596397
245	0x3e0fc6de	0.14040706
246	0xbcf23eb5	-0.029570917
247	0x3e0f2bd9	0.1398157
248	0xbaf7375e	-0.0018861105
249	0x3db8d3bd	0.09024761
250	0x3d922449	0.07135827
251	0x3df4e9a2	0.119586244
252	0x3e01a7ba	0.12661639
253	0x3d80d608	0.06290823
254	0x3dcf5d48	0.10125214
255	0xbbb23342	-0.0054382393

network.2.bias f4 [256]
0	0xbd16d97a	-0.036828496
1	0xbcec26fb	-0.028827181
2	0x3c443432	0.011975335
3	0x3cf6fcfa	0.030149926
4	0x3d41f854	0.047355965
5	0x3cde0a05	0.027104387
6	0xbd3e4b7b	-0.046458703
7	0x3dac39e0	0.08409476
8	0x3b424354	0.0029642181
9	0xbcaeb325	-0.021325657
10	0x3baf7ed1	0.005355694
11	0x3da0848b	0.078377806
12	0x3ba61b17	0.0050691473
13	0xbb19a740	-0.0023445636
14	0x3d08f60b	0.03343777
15	0x3d87210c	0.065981
16	0x3d376c03	0.044780742
17	0xbb296ccb	-0.00258522
18	0xbcfed482	-0.031107191
19	0xb96ef6cb	-0.00022789386
20	0x3ddf5382	0.109046
21	0xbc2ecbb7	-0.010668687
22	0xbda3543e	-0.07975052
23	0x3dcffbf0	0.10155475
24	0x3ca65df6	0.020308476
25	0x3c4d3553	0.0125249205
26	0xbc3c9dba	-0.011512214
27	0x3c44d00a	0.012012491
28	0x3d469c30	0.048488796
29	0x3d7b5e10	0.061369002
30	0xbbf733cc	-0.0075440165
31	0x3d59e365	0.053195376
32	0xba17831a	-0.00057797285
33	0xbceec8c9	-0.029148476
34	0xbc8c5d85	-0.017134437
35	0xbc8beac7	-0.017079724
36	0xbc8c2859	-0.017109083
37	0xbd75e756	-0.060035072
38	0x3d79da40	0.060999155
39	0x3c22bed7	0.009933195
40	0xbd158b73	-0.036509942
41	0x3d07b87a	0.033134915
42	0xbcad994b	-0.02119126
43	0xbb57c65a	-0.0032924623
44	0x3d186643	0.0372069
45	0x3ccb6585	0.024828682
46	0xbd594ef5	-0.053053815
47	0xbd5ede6b	-0.054411333
48	0x3dbb1746	0.091352984
49	0x3c51ff12	0.012817161
50	0x3cd78d5d	0.026312524
51	0xba441cc9	-0.0007481096
52	0x3c463e80	0.012099862
53	0x3c8a88ea	0.016910989
54	0x3ddad257	0.106846504
55	0x3da887da	0.08229037
56	0x3d263101	0.040574078
57	0xbd3b706e	-0.04576152
58	0xbca458c8	-0.020061865
59	0xbd3b2444	-0.045688882
60	0x3d113b65	0.035457034
61	0x3d149440	0.036274195
62	0x3cbbecb5	0.02294002
63	0x3d6cacce	0.057781987
64	0x3ca89029	0.020576553
65	0xbcb8c2c4	-0.022553809
66	0x3da8dd87	0.08245378
67	0xbd08929e	-0.03334295
68	0xbd8cde61	-0.06878353
69	0xbd0b9fd7	-0.034087982
70	0x3d3832ec	0.044970438
71	0x3b82e207	0.0039942297
72	0x3d5790c5	0.052628297
73	0x3d4d86c7	0.05017736
74	0xbcf54a50	-0.029942662
75	0x3d9a70e4	0.075410634
76	0x3cb74889	0.022373455
77	0x3dafe608	0.08588797
78	0x3d7b6d48	0.061383516
79	0x3d03c80d	0.032173205
80	0x3d7e8110	0.062134802
81	0xbd720e0f	-0.05909544
82	0xbbc0151a	-0.0058618905
83	0xbcee6ce8	-0.029104665
84	0xbd1904f3	-0.037358236
85	0x3d783121	0.060593728
86	0x3ca8271e	0.020526465
87	0xbc1844e6	-0.00929377
88	0x3d7cd8f7	0.06173035
89	0xbc380ed5	-0.011234005
90	0xbc57f8d4	-0.013181884
91	0xbc0fb075	-0.008770098
92	0x3cdd43a0	0.027009785
93	0xbd33ec2c	-0.043926403
94	0x3d00e3ed	0.031467367
95	0xbd0b40ac	-0.033997223
96	0x3d0ba3ac	0.034091637
97	0x3dc52625	0.09626416
98	0xbd53d40e	-0.051715903
99	0x3d60e44d	0.054905225
100	0xbcb58591	-0.022158416
101	0x3adcc82b	0.0016844323
102	0x3d04bd0f	0.032406863
103	0x3d912ed9	0.070890136
104	0x3d86244a	0.0654989
105	0x3c4dfaa2	0.012571963
106	0x3d069dcd	0.032865334
107	0x3c548103	0.012970212
108	0xbc94d5d6	-0.018168371
109	0x3d28072f	0.041022476
110	0xbd191374	-0.037372068
111	0xbbf0e74c	-0.0073517915
112	0x3b905296	0.0044043763
113	0x3d4ab50d	0.04948907
114	0xbd44e7f7	-0.04807278
115	0xbd29a2c6	-0.041415
116	0x3cf17d4f	0.029478697
117	0x3c8222bd	0.015885705
118	0xbc38dadb	-0.011282648
119	0x3d4987e8	0.049201876
120	0x3cf43369	0.02980967
121	0x3e1fbb57	0.15598808
122	0x3d0ffb07	0.035151508
123	0x3c81ed4d	0.015860224
124	0xbb90d009	-0.004419331
125	0x3d3123e1	0.043247107
126	0xbcb3279c	-0.021869473
127	0x3c3bb883	0.011457565
128	0xbd2e97c7	-0.042625215
129	0x3c7a5a9c	0.015280392
130	0x3d7c2548	0.06155899
131	0x3da68d71	0.081324466
132	0xbd63b2ed	-0.05559056
133	0xbbbc11ff	-0.00573945
134	0xbd6e4451	-0.05817062
135	0x3d63a0a1	0.05557311
136	0x3d349a9f	0.04409277
137	0x3d9fba65	0.07799224
138	0x3c88e69c	0.016711526
139	0x3cf25935	0.029583553
140	0x3d58076d	0.052741457
141	0x3d016c36	0.03159734
142	0x3c9af0f4	0.018913724
143	0x3c29a356	0.010353884
144	0x3b75e2cf	0.0037519222
145	0x3d5d079e	0.053962342
146	0x3bb517d1	0.005526521
147	0xbce4edbd	-0.027945394
148	0x3aff7dac	0.0019492409
149	0x3d77315a	0.0603498
150	0xbd272d59	-0.04081473
151	0x3c02c8ad	0.007982415
152	0xbcf3622c	-0.029709898
153	0x3d91acf2	0.07113065
154	0x3cdb8608	0.02679731
155	0x3c6c2794	0.014413733
156	0x3c3f2b4b	0.011668037
157	0xbceb7386	-0.02874161
158	0xbaf473e5	-0.0018650262
159	0xbb8fef01	-0.004392505
160	0x3cd120b1	0.025528284
161	0xbd1de5d8	-0.038549274
162	0x3dd08743	0.10182049
163	0x3d4d738c	0.050159022
164	0x3cc33f5a	0.02383392
165	0x3b1680e3	0.0022965006
166	0xbcf81713	-0.03028444
167	0x3d2cc888	0.04218343
168	0x3d6351aa	0.055497803
169	0x3d9700ad	0.07373176
170	0x3d2eb2a8	0.04265085
171	0xbd6677d0	-0.056266606
172	0x3c9ba359	0.018998789
173	0x3dbf8bfa	0.0935287
174	0xbcb11ffc	-0.021621697
175	0xbd1a8cea	-0.037732042
176	0xbd0567a3	-0.03256954
177	0xbbc2bdbe	-0.005943029
178	0x3c90e7b2	0.017688606
179	0x3c81de7e	0.015853163
180	0x3d6b7085	0.057480354
181	0x3c80048c	0.015627168
182	0xbd1b6951	-0.037942234
183	0x3ce60c64	0.02808208
184	0xbd30aa94	-0.043131426
185	0x3d380dd1	0.04493505
186	0x3bb26623	0.0054443046
187	0x3d99e6c9	0.07514722
188	0xbd4234ee	-0.04741376
189	0x3cb1ab06	0.021687996
190	0x3cd0f346	0.025506627
191	0x3db813d3	0.08988156
192	0xbd1bfebe	-0.038084738
193	0x3cf83408	0.030298248
194	0x3d22db84	0.039760128
195	0xbb941702	-0.0045193443
196	0x3ccd02fe	0.02502584
197	0x3d0734b5	0.03300925
198	0x3dcc3c2f	0.099724166
199	0xbcfea7f2	-0.031085942
200	0x3d394f33	0.045241546
201	0x3d7f3c56	0.0623134
202	0x3d647f91	0.05578572
203	0xbc187da1	-0.009307296
204	0xbd500133	-0.050782394
205	0x3cd6b6f1	0.02621028
206	0x3d92fcc5	0.07177118
207	0xbcfcc6df	-0.030856548
208	0x3c2220bd	0.009895501
209	0x3d44821d	0.04797565
210	0x3db311ee	0.08743654
211	0xbd25aa49	-0.0404456
212	0x3c882ce3	0.016622966
213	0x3c849de1	0.016188564
214	0x3c769d03	0.015052083
215	0x3c7a683b	0.01528364
216	0xbc9fab80	-0.019490957
217	0x3c0742fa	0.008255715
218	0x3d5eba21	0.054376725
219	0xbc0107fd	-0.00787544
220	0x3cc16e66	0.023612212
221	0x3da77b82	0.08177854
222	0xbd6a85cf	-0.057256516
223	0x3da27e80	0.07934284
224	0x3ba77da6	0.005111414
225	0x3d6c6143	0.057709944
226	0xbd9a93bf	-0.075477116
227	0x3d3a31e5	0.04545774
228	0xbcef42fe	-0.029206749
229	0x3d8cffb4	0.06884709
230	0xbd250cb5	-0.04029532
231	0x3cc19541	0.02363074
232	0x3a4ebfc9	0.00078868546
233	0xbd2686e7	-0.040655997
234	0xbb4fd42d	-0.003171216
235	0x3d7bdc57	0.06148943
236	0xbc65ee6b	-0.014033894
237	0x3d5f1294	0.054461077
238	0x3d2e1405	0.04249956
239	0xbd140207	-0.036134746
240	0x3d96a9dd	0.073566176
241	0xbd6d9bda	-0.05800996
242	0x3bc32ca3	0.005956249
243	0x3dbcc8ee	0.09218012
244	0x3c55f32c	0.013058465
245	0xbcde09ab	-0.02710422
246	0x3da5da1a	0.0809824
247	0xbcca3d7c	-0.024687521
248	0x3a6ad13b	0.00089575694
249	0x3d0cd773	0.034385156
250	0x3d4c0f14	0.049819067
251	0xbc4fac5f	-0.012675374
252	0x3d5f0ffc	0.054458603
253	0xbc8cb363	-0.017175382
254	0x3c21387e	0.009840129
255	0xbc6b98a8	-0.014379658

network.4.weight f4 [128, 256]
0	0xbce7443a	-0.028230775
1	0x3dbbe7cd	0.09175072
2	0x3be75543	0.0070597245
3	0xbd55c554	-0.05219014
4	0x3e424e9c	0.189753
5	0xbe18be66	-0.14916381
6	0x3df1d8df	0.11808943
7	0x3b5b98c0	0.0033507794
8	0x3dbd0058	0.09228581
9	0x3a7957c9	0.0009511677
10	0x3cd3b7bc	0.025844447
11	0x3c44cd8e	0.012011899
12	0xbca84b0c	-0.020543598
13	0xbce7d378	-0.028299078
14	0x3cd21c26	0.025648188
15	0xbd755efd	-0.05990504
16	0xbe14c15f	-0.1452689
17	0x3a74daa5	0.0009340442
18	0x3d54d742	0.0519631
19	0x3d6aa7a2	0.057288773
20	0x3d558290	0.052126467
21	0x3d9ddb7c	0.07707879
22	0x3e02f3c8	0.12788308
23	0xbcb287e6	-0.021793317
24	0x3d08b5f5	0.033376653
25	0x3bd8eaff	0.0066198106
26	0xbd43606d	-0.04769938
27	0x3d869b77	0.06572621
28	0xbd4109b8	-0.04712841
29	0xbcd28cd7	-0.025701923
30	0x3d3d6127	0.04623523
31	0x3d40776f	0.0469889
32	0xbda575ba	-0.08079095
33	0xbe000e45	-0.12505443
34	0x3ccfb50a	0.02535488
35	0xbd937d18	-0.07201594
36	0xbd8d9b7d	-0.06914423
37	0x3d775784	0.060386196
38	0xbd656851	-0.056007687
39	0xbda1d2a2	-0.07901503
40	0x3d7bd06d	0.061478067
41	0xbe165169	-0.14679493
42	0x3d4944a8	0.04913774
43	0xbde6d9a7	-0.11271983
44	0x3d3d06f4	0.04614921
45	0x3cb2e93b	0.021839729
46	0x3bb56050	0.005535163
47	0xbc8c5a59	-0.017132925
48	0xbd16dd5c	-0.0368322
49	0x3c07dce0	0.008292407
50	0x3d3f776c	0.04674475
51	0x3d6b0456	0.057377182
52	0x3d981d36	0.074274465
53	0x3dbc097d	0.09181497
54	0x3d2d2dd5	0.042280037
55	0x3a68a2fe	0.00088743854
56	0xbcd7e0e6	-0.026352357
57	0xbd782a86	-0.06058743
58	0x3d9c0a47	0.07619148
59	0x3d9e56b5	0.07731382
60	0x3cbf69de	0.023365911
61	0x3ca6ca3d	0.020360107
62	0xbbdd61bb	-0.006756035
63	0x3e1cd9ab	0.15317409
64	0xbd828ccf	-0.06374513
65	0xbc096785	-0.008386497
66	0xbd3ff4d6	-0.046864353
67	0xbcce05e7	-0.025149299
68	0x3e0df726	0.13863811
69	0x3dca9f3f	0.09893655
70	0x3d98d3cf	0.07462274
71	0xbc08cba8	-0.008349337
72	0x3d14b4b4	0.036305144
73	0xbd2a9c6f	-0.041653093
74	0xbc9444fd	-0.018099302
75	0xbc93e82f	-0.01805505
76	0x3da6ae58	0.08138722
77	0xbd025140	-0.031815767
78	0x3c43e603	0.011956695
79	0xbc014aaf	-0.007891341
80	0xbd19d464	-0.037556067
81	0x3c9a3a90	0.018826753
82	0xbdc73753	-0.09727349
83	0xbcca9e57	-0.024733705
84	0x3e0d512b	0.13800494
85	0xbc35c605	-0.011094575
86	0x3cb4a624	0.022051878
87	0xbcf0a5cf	-0.029375939
88	0x3d183a3b	0.037164908
89	0x3d1d82e6	0.038454913
90	0x3d4050bb	0.04695199
91	0xbcb2905f	-0.021797357
92	0x3dc367fc	0.09541318
93	0x3d8f7642	0.07004978
94	0x3d5e7721	0.05431283
95	0x3e3115b4	0.17293435
96	0x3e1607fe	0.14651486
97	0xbe0720a4	-0.13196045
98	0x3d895357	0.06705349
99	0x3c66b7a6	0.014081871
100	0xbd0309a3	-0.031991612
101	0x3d653dc7	0.05596712
102	0xbd16cc8a	-0.036816157
103	0x3d165a9a	0.036707498
104	0x3d8c5493	0.06852069
105	0xbbd0ac46	-0.006368193
106	0xbd9e465e	-0.07728265
107	0x3e0d20dc	0.13782066
108	0xba8a046f	-0.0010529886
109	0xbd46ddd4	-0.048551396
110	0x3af53921	0.0018709042
111	0x3d1fc979	0.0390105
112	0x3d22a977	0.039712396
113	0x3b19a962	0.0023446907
114	0xbd118713	-0.035529207
115	0xbda8f326	-0.08249502
116	0x3d1a627b	0.037691575
117	0x3e191a84	0.14951521
118	0xbd976172	-0.07391633
119	0x3d898ace	0.06715928
120	0x3c649d2a	0.013953486
121	0x3c14e45a	0.009087646
122	0x3c41776c	0.011808258
123	0xbc843359	-0.016137766
124	0xbcbb966d	-0.022898877
125	0x3d23ae61	0.039961223
126	0xbdfffb28	-0.12499076
127	0xbd3bef70	-0.045882642
128	0x3dd94e8a	0.10610683
129	0xbdb938fb	-0.09044071
130	0x3cfc9c93	0.03083638
131	0xbd0f1260	-0.034929633
132	0xbd325666	-0.043539427
133	0x3d6a8c13	0.05726249
134	0x3cb7ad2e	0.022421446
135	0xbc91bc4e	-0.017789986
136	0xbd96bbc5	-0.07360033
137	0xbd001a84	-0.031275287
138	0xbdb7b881	-0.08970738
139	0xbc81dc37	-0.015852077
140	0x3d8f58b5	0.069993414
141	0x3d51de8f	0.05123764
142	0x3c056991	0.008142845
143	0xbdbd0b0a	-0.09230621
144	0xbd41291b	-0.04715834
145	0x3d4a70c0	0.049423933
146	0xbd2ee857	-0.042702045
147	0x3d492d25	0.04911532
148	0x3df377bb	0.11888071
149	0x3e32f155	0.17474873
150	0x3c9a10b0	0.018806785
151	0xbd21b47b	-0.03947876
152	0x3de68d86	0.11257462
153	0xbc8b9bc8	-0.017042056
154	0x3cc57b1d	0.024106557
155	0xbde2522a	-0.11050828
156	0xbc3aa60a	-0.011392126
157	0x3dc874d5	0.09787909
158	0xbd1828ad	-0.037148166
159	0xbe4389ed	-0.19095583
160	0x3dea156e	0.11429869
161	0xbd859808	-0.06523138
162	0x3cd23458	0.025659725
163	0x3c417196	0.011806866
164	0xbdb2b878	-0.08726591
165	0xbd1f1eb1	-0.03884763
166	0x3d68a5dd	0.056798805
167	0x3ca66c0e	0.020315196
168	0xbd333a87	-0.043756988
169	0xbd10ee5b	-0.035383563
170	0x3d2a7e09	0.041624103
171	0xbcbcbca5	-0.023039171
172	0x3e142149	0.14465822
173	0x3cad67e3	0.021167701
174	0x3d3455fe	0.04402732
175	0x3d541dcd	0.051786233
176	0x3d10d704	0.035361305
177	0x3cc2d565	0.023783395
178	0x3acaa2bd	0.0015459877
179	0xbd170f1a	-0.036879636
180	0xbc7bca2d	-0.015368027
181	0x3dc5e7f2	0.09663381
182	0xbc86bda1	-0.016447844
183	0xbd3e68a4	-0.04648651
184	0x3d37872f	0.044806655
185	0xbc645d27	-0.013938225
186	0x3d3ba592	0.045812197
187	0xbd4b53d1	-0.04964048
188	0xbd833625	-0.064068116
189	0x3bfe0956	0.007752578
190	0xbbfce126	-0.0077172695
191	0xbd40bf30	-0.04705733
192	0xbd3d16ad	-0.046164203
193	0x3d595b07	0.053065326
194	0xbbb039f7	-0.0053780037
195	0xbd1afa86	-0.037836574
196	0xbd37b06c	-0.044845983
197	0xbd307034	-0.043075755
198	0xbd51376d	-0.05107825
199	0xbe167c13	-0.14695768
200	0xbc718dab	-0.014743249
201	0xbd45f1e0	-0.048326373
202	0xbb561b95	-0.0032670249
203	0x3d633145	0.05546691
204	0x3df13849	0.11778314
205	0xbb8d4665	-0.00431137
206	0xbd0a517a	-0.03376911
207	0x3d339112	0.04383952
208	0x3d4f19ae	0.0505616
209	0xbd4b9427	-0.049701836
210	0xbe022910	-0.12710977
211	0x3d0221f3	0.031770658
212	0xba6412a1	-0.00087002857
213	0x3e01add0	0.1266396
214	0x3d91db9b	0.071219645
215	0x3c111fb2	0.008857654
216	0xbd65f2a0	-0.05613959
217	0x3d759f8e	0.059966616
218	0xbd3fca67	-0.046823885
219	0xbd01fce2	-0.03173531
220	0x3dcc66fb	0.099805795
221	0xbd4a982e	-0.049461536
222	0xbd4f9f68	-0.05068913
223	0xbd94d2f7	-0.07266801
224	0x3d669623	0.056295525
225	0xbd2e9861	-0.04262579
226	0x3d5dd8c5	0.054161806
227	0xbcbb2a0d	-0.0228472
228	0x3bd2cda0	0.006433204
229	0xbc6c773f	-0.014432727
230	0x398e8014	0.00027179776
231	0x3cb61ffa	0.022232044
232	0x3d1b39e6	0.037897013
233	0xbd6aec03	-0.057353985
234	0x3df9700f	0.121795766
235	0x3ca00f9f	0.019538699
236	0x3cbf39ae	0.023342934
237	0xbd00a3d1	-0.031406227
238	0xbe1140e3	-0.14184909
239	0x3d86451c	0.0655615
240	0xbd658f42	-0.056044824
241	0x3c85d8eb	0.016338786
242	0xbc6a74b2	-0.014310049
243	0xbba83567	-0.005133319
244	0x3d709598	0.058736414
245	0xbcb3317c	-0.021874182
246	0x3d877f7e	0.06616114
247	0xbd230b96	-0.03980597
248	0x3d2b6a19	0.04184923
249	0x3c4a3bfa	0.012343401
250	0xbd14526f	-0.036211427
251	0x3d9ca569	0.07648737
252	0xbd4eaa1d	-0.0504552
253	0xbd279495	-0.040913183
254	0x3d117ea7	0.035521176
255	0xbd7af887	-0.06127217

network.4.bias f4 [128]
0	0x3d216aab	0.039408367
1	0x3c3276f3	0.0108926175
2	0x3d13ce19	0.036085222
3	0x3cb04226	0.021515917
4	0x3c4ea0f3	0.0126116155
5	0x3d880d16	0.06643121
6	0x3d5771e0	0.052598834
7	0x3dbed16d	0.093172885
8	0x3d1eba7e	0.03875207
9	0x3e1146f8	0.14187229
10	0x3d122bd5	0.035686333
11	0x3d891bf0	0.06694782
12	0xbd6df9b9	-0.058099482
13	0xbc9631e5	-0.018334338
14	0xbd3e9b4e	-0.04653483
15	0xbc7e919f	-0.015537648
16	0x3c988ba5	0.018621275
17	0x3bb267e0	0.005444512
18	0x3d7ed42c	0.06221406
19	0x3d0b8b9d	0.034068692
20	0xbcc9bcd8	-0.02462618
21	0x3c4cae3c	0.012492713
22	0x3b8086b7	0.0039223093
23	0x3d458e88	0.04823163
24	0xba16c17b	-0.0005750877
25	0x3d0ba056	0.034088455
26	0x3d591add	0.053004134
27	0xbc8e41da	-0.017365385
28	0xbc2d4057	-0.010574422
29	0x3d41b17c	0.047288403
30	0xbd031d25	-0.032010216
31	0x3d7729d5	0.06034263
32	0x3d5ed383	0.054400932
33	0xbd0bc818	-0.03412637
34	0xbd1e3eb2	-0.03863401
35	0x3cc63642	0.024195794
36	0x3c3139e7	0.010817028
37	0x3d79298a	0.06083063
38	0x3bce6d13	0.0062996238
39	0x3d6c4e4b	0.057691853
40	0xbd5539f6	-0.05205723
41	0xbcf2e283	-0.029649025
42	0x3b05e3ed	0.0020430044
43	0xbc485a20	-0.012228519
44	0xbd1a67de	-0.03769671
45	0xbd5b59ab	-0.05355231
46	0xbca3350b	-0.019922754
47	0x3d5dd02f	0.054153617
48	0xbd1e268d	-0.038610984
49	0xbd2bef56	-0.041976295
50	0x3cddf336	0.027093511
51	0xbc16648e	-0.009179248
52	0xbd456665	-0.048193354
53	0x3dac875e	0.08424257
54	0x3d59e42b	0.053196114
55	0xbcb19848	-0.021679059
56	0x3cee8a09	0.029118555
57	0xbcd9552a	-0.026529867
58	0x3b6ab140	0.0035811216
59	0x3c225ee7	0.009910322
60	0xbd617d8e	-0.05505138
61	0xbd0c2ec1	-0.034224275
62	0x3c904746	0.01761211
63	0xbbde962b	-0.0067928038
64	0xbcb881c5	-0.022522816
65	0x3d402aa0	0.04691565
66	0xbd66571f	-0.05623543
67	0x3d3ad3d9	0.04561219
68	0xbd2da3b1	-0.042392436
69	0x3d2609b4	0.040536597
70	0x3cb792de	0.022408899
71	0xbcc25b42	-0.023725156
72	0x3cbf9672	0.023387168
73	0x3d7e4af8	0.062083215
74	0x3d1ed45e	0.038776748
75	0x3ca19256	0.019723099
76	0xbc70393e	-0.014662085
77	0x3cffad93	0.031210696
78	0x3e034071	0.12817551
79	0xbcccc8a2	-0.024998013
80	0xbba5883f	-0.005051642
81	0x3d4352b4	0.047686294
82	0x3d7cd8a5	0.061730046
83	0x3d83e1a7	0.06439524
84	0x3d86da46	0.06584601
85	0xbb8ad828	-0.0042371936
86	0x3d521e0c	0.051298186
87	0xbd1ed206	-0.038774513
88	0x3cf5e68c	0.03001716
89	0x3dd2f2d0	0.10300219
90	0x3a840ac6	0.0010074012
91	0x3d7bf137	0.061509337
92	0xbd3168fc	-0.04331301
93	0x3cf3c4c3	0.02975691
94	0xbc433976	-0.011915555
95	0xbc14c843	-0.009080949
96	0x3db58424	0.088630944
97	0x3cbe0206	0.023194324
98	0x3da362d1	0.07977832
99	0x3cf890c8	0.030342475
100	0xbba67588	-0.005079929
101	0xbd71e589	-0.059056792
102	0x3bf66153	0.007518926
103	0x3c9d01fd	0.019165987
104	0xbc99e16a	-0.018784244
105	0x3cdf92c4	0.027291663
106	0x3be61942	0.007022054
107	0x3c1c2649	0.009530612
108	0x3d5392ae	0.051653557
109	0x3d7a2aa1	0.06107581
110	0x3d4acae7	0.04950991
111	0x3ce973f6	0.028497677
112	0x3cc174a2	0.023615185
113	0xbd3c5c7b	-0.045986634
114	0xbc85c31b	-0.016328385
115	0x3de78d9e	0.11306308
116	0x3c950d6f	0.018194882
117	0x3da9a144	0.08282712
118	0xbd757453	-0.05992539
119	0x3b230c9e	0.0024879347
120	0xbc0a765f	-0.008451073
121	0x3d5dc150	0.054139435
122	0xbd01ca72	-0.031687208
123	0x3cde4be9	0.027135806
124	0xbce9b4d7	-0.028528614
125	0x3dfe3c7e	0.12413882
126	0x3d54f397	0.051990118
127	0x3b9e0260	0.0048220605

network.6.weight f4 [5, 128]
0	0x3e22b91f	0.1589093
1	0xbe638351	-0.22218062
2	0x3d02a719	0.031897638
3	0xbd3ed1af	-0.04658669
4	0xbe15154c	-0.14558905
5	0xbe2ac992	-0.16678455
6	0xbe530661	-0.20607902
7	0x3e6f62cc	0.23377532
8	0x3d86f25e	0.065891966
9	0x3e4a2338	0.19739997
10	0xbdd1bf9b	-0.10241624
11	0xbdff58d4	-0.124681145
12	0x3bbe9ccc	0.0058170315
13	0xbe3fa710	-0.18716073
14	0xbe3a5f50	-0.18200421
15	0x3df5f930	0.12010419
16	0x3b1baa20	0.0023752525
17	0xbd179204	-0.037004486
18	0xbe21c7ae	-0.15798828
19	0xbd901ab4	-0.07036343
20	0xbe09ad9b	-0.13445131
21	0xbe23e523	-0.16005377
22	0xbb84596c	-0.00403898
23	0xbcea6d36	-0.028616529
24	0xbe3c7e79	-0.1840762
25	0xbc356bb5	-0.011073043
26	0x3ca607d7	0.02026741
27	0xbda5b5b8	-0.08091301
28	0xbd7be5cf	-0.06149846
29	0xbe12a114	-0.14319259
30	0xbd59eda2	-0.05320514
31	0x3e62c2a1	0.22144558
32	0xbe399d6d	-0.1812646
33	0x3bc0407b	0.0058670617
34	0xbd871b77	-0.065970354
35	0xbb0b8961	-0.00212916
36	0xbe229daf	-0.15880464
37	0x3e4d4023	0.20043997
38	0xbe310955	-0.17288716
39	0x3d44937c	0.047992215
40	0xbe28150f	-0.16414283
41	0xbd22877e	-0.039679997
42	0xbe33a6fd	-0.1754417
43	0xbe315f5c	-0.17321533
44	0xbe0a473e	-0.13503739
45	0x3c3827f5	0.011239995
46	0xbc157fa5	-0.009124671
47	0xbdf4f6df	-0.119611494
48	0x3d97bd8e	0.074092016
49	0xbc49b323	-0.012310776
50	0xbe14ed3c	-0.14543623
51	0xbe1ebb69	-0.15501179
52	0x3d32b509	0.04362968
53	0x3e42dfc3	0.19030671
54	0xbe150f7d	-0.1455669
55	0x3d08cd02	0.033398636
56	0x3dfd5489	0.123696394
57	0x3d191334	0.03737183
58	0xbdc937f5	-0.09825126
59	0xbd83b97e	-0.06431864
60	0x3e7a92a8	0.24470007
61	0xbe19115b	-0.14948027
62	0xbd04700f	-0.03233343
63	0xbbffc3d5	-0.0078053274
64	0xbe433d88	-0.19066441
65	0x3d12c117	0.035828676
66	0xbd69b242	-0.057054766
67	0xbe54783b	-0.2074899
68	0xbe56070b	-0.20901124
69	0xbc840286	-0.016114485
70	0xbdfb4f8c	-0.12271032
71	0xbc56596b	-0.013082842
72	0xbd204520	-0.039128423
73	0xbe166e7b	-0.14690582
74	0x3d0b5182	0.03401328
75	0xbe3e623f	-0.18592165
76	0xbe46ebe3	-0.19425921
77	0xbda49c41	-0.080376156
78	0x3e54ad88	0.20769322
79	0x3d28d6cf	0.041220482
80	0xbde23f58	-0.11047238
81	0xbe3d03cb	-0.18458478
82	0x3e6e2ce7	0.23259316
83	0x3dda3fbf	0.1065669
84	0x3de6b4cd	0.11264954
85	0xbe4e62b1	-0.20154835
86	0x3cebaf2c	0.028770052
87	0xbe162061	-0.14660789
88	0xbde5917b	-0.11209389
89	0x3e86f320	0.26357365
90	0xbe45bf9d	-0.19311376
91	0x3e0bb382	0.13642696
92	0x3cdd6336	0.027024847
93	0x3d7badfe	0.06144523
94	0x3d04e299	0.032442663
95	0xbdba6aae	-0.09102379
96	0x3e291184	0.16510588
97	0xbe481f4b	-0.19543187
98	0x3e635bb5	0.22202952
99	0x3d295057	0.041336384
100	0x3d8fe8d1	0.07026828
101	0xbe4ff5b6	-0.20308575
102	0xbe46e871	-0.19424607
103	0xbd306e4a	-0.04307393
104	0xbe19a855	-0.1500562
105	0x3e32c838	0.1745919
106	0xbe109952	-0.14120987
107	0xbe19eb09	-0.15031065
108	0xbe21be90	-0.1579535
109	0xbde315e4	-0.1108816
110	0xbe272fb5	-0.16326793
111	0xbdc74526	-0.09729986
112	0x3e8fa167	0.28052828
113	0x3d69789a	0.05699978
114	0xbd742d00	-0.059613228
115	0x3e20f334	0.15717775
116	0xbe0a1aff	-0.1348686
117	0x3e51b8b2	0.20480612
118	0xbd938138	-0.07202381
119	0xbe0b52e9	-0.13605846
120	0xbd8cdced	-0.06878076
121	0xbe31dcc7	-0.17369376
122	0xbb8aa9c5	-0.004231664
123	0xbe4b8f53	-0.19878893
124	0xbe25a15e	-0.16174838
125	0x3e5f2815	0.21792634
126	0x3d717182	0.05894614
127	0xbe63d6e8	-0.22249949
128	0x3e2a26bf	0.16616343
129	0xbcda1e33	-0.026625728
130	0x3ca37794	0.01995448
131	0xbe19b82f	-0.15011667
132	0x3d96341f	0.0733416
133	0xbdd342ec	-0.10315499
134	0xbd995857	-0.074875526
135	0x3cd7cfb4	0.026344158
136	0xbc7f60f0	-0.015587077
137	0x3e87f962	0.2655745
138	0xbe675d58	-0.22594202
139	0xbe6037d4	-0.21896297
140	0x3cde37e2	0.027126256
141	0xbe033ed2	-0.12816933
142	0xbe331a0c	-0.17490405
143	0x3e9597cf	0.29217383
144	0xbd6edd20	-0.05831635
145	0xbe26f393	-0.16303854
146	0xbdad9849	-0.08476312
147	0xbdd1f9df	-0.10252737
148	0xbdd5abd3	-0.104331635
149	0xbe296a6a	-0.165445
150	0xbcf8eb3e	-0.03038561
151	0xbe4a852c	-0.19777364
152	0xbe12dbfc	-0.1434173
153	0xbd882b46	-0.06648879
154	0x3d776620	0.06040013
155	0x3da91343	0.08255627
156	0x3d86f755	0.065901436
157	0xbe583984	-0.2111569
158	0x3e86fa6b	0.2636293
159	0x3dec0880	0.11525059
160	0xbe1df1f2	-0.15424326
161	0x3ea34f97	0.3189666
162	0x3d0c6442	0.0342753
163	0x3d1e5271	0.03865284
164	0xbe458acb	-0.19291227
165	0x3e397079	0.18109311
166	0xbd7c9e14	-0.061674193
167	0x3d4369c9	0.047708306
168	0xbe6deaf3	-0.23234157
169	0x3b717065	0.0036840674
170	0xbe090147	-0.13379394
171	0xbe414d65	-0.1887718
172	0xbe3f8dd3	-0.18706445
173	0x3da695ad	0.08134017
174	0x3cc31033	0.023811435
175	0xbe253697	-0.16134106
176	0xbdae4121	-0.08508516
177	0xbc160dfe	-0.009158609
178	0xbe2de153	-0.16980486
179	0xbdb71ac3	-0.08940651
180	0x3e9e6fcc	0.3094467
181	0x3e6c475b	0.23074095
182	0xbe607966	-0.2192131
183	0x3cb7c0f4	0.022430874
184	0x3f0f859c	0.56063247
185	0x3cb156f8	0.021647915
186	0xbe324bd8	-0.17411745
187	0xbe32c586	-0.17458162
188	0x3ebefd5f	0.37302682
189	0xbd92105f	-0.07132029
190	0x3d9db48f	0.077004544
191	0x3d790f40	0.06080556
192	0xbe2137fa	-0.1574401
193	0x3dfee68b	0.12446316
194	0xbda8d9ea	-0.08244689
195	0xbe01ee39	-0.12688531
196	0xbdef5fa1	-0.11688162
197	0xbd73d674	-0.05953069
198	0xbe2e5fd7	-0.17028747
199	0x3e9ec5e7	0.31010363
200	0xbe3384a7	-0.17531072
201	0xbe00b1e7	-0.12567864
202	0x3cfa98bd	0.03059041
203	0xbd6e50c5	-0.058182497
204	0xbe58d124	-0.21173531
205	0xbe5c793b	-0.21530621
206	0x3e5877b5	0.21139415
207	0xbb3d7572	-0.0028909114
208	0xbe4b4367	-0.1984993
209	0xbdf1dc3d	-0.11809585
210	0x3e97f88b	0.2968181
211	0xbc015613	-0.007894057
212	0x3de51dda	0.11187334
213	0xbe674978	-0.2258662
214	0x3d7620d5	0.060089905
215	0xbe1f6692	-0.15566471
216	0xbe38996c	-0.18027276
217	0x3e37ec71	0.17961289
218	0xbdd3efa7	-0.103484444
219	0x3e0a7653	0.135217
220	0x3d95c720	0.07313371
221	0x3e23ea69	0.16007389
222	0x3d987900	0.07444954
223	0xbe1bdd53	-0.15221147
224	0x3e142509	0.14467253
225	0x3df1d465	0.11808089
226	0x3e8c1670	0.27360868
227	0xbc017e05	-0.007903581
228	0xbd8a0187	-0.067385726
229	0xbe5b10f1	-0.21393181
230	0xbe2b3b58	-0.16721857
231	0xbd92928b	-0.07156857
232	0xbe621798	-0.22079313
233	0xbeac757a	-0.33683378
234	0xbe289f7a	-0.16467085
235	0xbd50fef2	-0.051024385
236	0xbd50fade	-0.051020496
237	0xbdd3de4c	-0.10345134
238	0xbdd1c7b2	-0.10243167
239	0xbe4f9a15	-0.20273621
240	0x3e7b9e02	0.24571994
241	0xbd3e18d3	-0.046410393
242	0xbe1cc696	-0.1531013
243	0x3e9f7446	0.31143397
244	0xbdd5d964	-0.104418546
245	0x3e4212b6	0.1895245
246	0xbe5b3f44	-0.21410853
247	0xbdfc4c41	-0.12319232
248	0x3c12de04	0.008964065
249	0xbe0e1831	-0.13876416
250	0xbcca4a0c	-0.024693511
251	0xbddc1252	-0.10745682
252	0xbe50b580	-0.20381737
253	0x3e7a12f1	0.24421288
254	0x3e1c96b8	0.1529187
255	0xbe3b26d9	-0.18276538

network.6.bias f4 [5]
0	0xbb39da02	-0.0028358703
1	0x3d256109	0.040375743
2	0x3bb9d671	0.0056713154
3	0xbcde8a66	-0.027165603
4	0xbd332a33	-0.043741416
