models/dqn_cart_final.pth (torch, 406255 bytes, 8 tensors)

network.0.weight f4 [256, 4]
0	0x3eb66985	0.3562738
1	0xbeab80c1	-0.3349667
2	0xbe9b5dca	-0.30344993
3	0xbed1cd53	-0.40976962
4	0x3e8d4558	0.27591968
5	0x3ea7286a	0.3264802
6	0x3f169fb4	0.5883744
7	0x3e95c6a3	0.2925311
8	0x3dc1077c	0.09425256
9	0xbd68bf66	-0.056823157
10	0xbd9eaf16	-0.07748239
11	0x3edda80d	0.43292275
12	0xbef90fff	-0.48645017
13	0xbe84156c	-0.25797594
14	0x3e43837a	0.19093123
15	0xbcb8ec36	-0.022573572
16	0xbf18721d	-0.59549123
17	0xbf13a530	-0.5767393
18	0x3eb922d2	0.36159378
19	0xbf00206c	-0.5004947
20	0xbf1218f8	-0.5706935
21	0x3f0503e0	0.5195904
22	0xbee86b94	-0.45394576
23	0xbefca41f	-0.49343964
24	0x3f0e7f56	0.5566305
25	0xbc387296	-0.011257788
26	0xbe4649ed	-0.19364138
27	0x3e103b7a	0.14085189
28	0x3f1e9c9e	0.6195773
29	0x3d94bf96	0.072631046
30	0xbdbd9db8	-0.09258598
31	0xbc41f932	-0.011839198
32	0xbe41dd0a	-0.18931976
33	0x3d8f808a	0.07006939
34	0xbe5ff8e1	-0.21872284
35	0xbf2338fb	-0.6375882
36	0x3dc26957	0.09492748
37	0xbf15eb04	-0.5856173
38	0xbe50a182	-0.2037411
39	0x3e1bacf4	0.15202695
40	0x3ed1745e	0.40909094
41	0xbe117581	-0.1420498
42	0xbe844272	-0.25831944
43	0x3eba5652	0.36393982
44	0xbf3ae60e	-0.73007286
45	0xbe89b55c	-0.2689618
46	0x3d06633e	0.03280949
47	0x3e728305	0.23682792
48	0xbf3e817c	-0.7441633
49	0xbf10b301	-0.5652314
50	0x3d80c5b0	0.06287706
51	0x3eaef97b	0.34174713
52	0xbf1b4a2d	-0.6066006
53	0xbe948509	-0.29007748
54	0x3ea918d2	0.3302675
55	0xbc25afa3	-0.010112676
56	0x3eb0f460	0.34561443
57	0x3f23eeb5	0.64036113
58	0xbedf0da0	-0.43565083
59	0x3e98718a	0.29774123
60	0x3eefed7a	0.46860868
61	0xbedd3dd0	-0.43211222
62	0x3ca6c99d	0.020359809
63	0x3eb5f6f2	0.35539967
64	0x3e44ea47	0.19229995
65	0xbe7a278c	-0.24429148
66	0xbe3bea19	-0.1835102
67	0xbdbf3025	-0.09335355
68	0xbbadb505	-0.00530112
69	0xbec42f48	-0.38317323
70	0x3c31889a	0.010835791
71	0xbed28ade	-0.41121572
72	0x3e8ab8b8	0.27094054
73	0xbe020e20	-0.12700701
74	0xbeadc3c4	-0.3393842
75	0xbf0e046f	-0.55475515
76	0xbf2a5314	-0.6653302
77	0xbec54d9b	-0.3853577
78	0xbdf63e62	-0.12023617
79	0xbee548f2	-0.44782215
80	0xbe659df6	-0.22423539
81	0xbede78e2	-0.434516
82	0xbe02df36	-0.1278046
83	0xbea35436	-0.31900185
84	0x3e93f7dc	0.2890004
85	0xbf032984	-0.5123522
86	0x3e5938e7	0.21213113
87	0x3d23e8f1	0.040017072
88	0xbeb56088	-0.3542521
89	0xbdb2ef6c	-0.08737072
90	0xbf004dc8	-0.50118685
91	0x3ecf3365	0.40468898
92	0xbd3c9124	-0.046036854
93	0x3eab2e48	0.33433747
94	0x3e64fddb	0.22362463
95	0x3c2a8fb2	0.010410236
96	0x3e6b91cf	0.2300484
97	0xbeeab2ff	-0.45839688
98	0x3eb7a3d4	0.35867178
99	0xbf31f60a	-0.6951605
100	0x3ed22d09	0.41049984
101	0xbee242f1	-0.44191697
102	0x3f01a3c5	0.5064052
103	0xbdb1dfaf	-0.086852424
104	0xbec59f48	-0.38598084
105	0xbd3873a9	-0.045032177
106	0xbe9240c9	-0.28565052
107	0x3e2ac63f	0.16677187
108	0xbe92e53e	-0.28690523
109	0xbeb6c747	-0.35698912
110	0x3ee63a11	0.44966176
111	0xbeb80339	-0.3593996
112	0xbe2414b1	-0.16023518
113	0xbec7f604	-0.39054883
114	0xbc55d2de	-0.013050763
115	0x3e93bfd7	0.288573
116	0xbc9f1005	-0.019416818
117	0x3e95bf28	0.29247403
118	0xbde8fdf9	-0.113765664
119	0x3e3da8d7	0.18521439
120	0xbda39e0b	-0.07989129
121	0x3ea1e9eb	0.31623778
122	0x3d96d7e2	0.07365395
123	0xbf01b74c	-0.50670314
124	0x3e03fe21	0.12889911
125	0xbf0e8f98	-0.55687857
126	0x3f105bb1	0.5638991
127	0x3e81b693	0.25334606
128	0x3eba381a	0.36370927
129	0xbc1240ac	-0.008926552
130	0xbe7ea1cd	-0.2486641
131	0xbe4b2c8f	-0.19841217
132	0x3ccefac3	0.025266057
133	0x3edb8e0c	0.4288181
134	0x3ef40877	0.47662708
135	0x3f1468ac	0.57972217
136	0xbf3631fd	-0.71170026
137	0xbd6cbcdd	-0.0577973
138	0xbdd6a38c	-0.10480413
139	0xbd59d05b	-0.05317722
140	0xbdc6d3ab	-0.09708341
141	0xbf3628a3	-0.71155757
142	0x3b8cb200	0.00429368
143	0xbd2d0815	-0.042244036
144	0xbea4b7d2	-0.32171494
145	0xbf031e32	-0.5121795
146	0xbed3a54c	-0.4133705
147	0x3eb0dff0	0.3454585
148	0x3f02aa3b	0.51041
149	0x3eb05506	0.34439868
150	0xbd9c8a26	-0.07643537
151	0xbf19a80b	-0.6002204
152	0xbee4095b	-0.44538388
153	0xbd9d9e20	-0.076961756
154	0xbec473ba	-0.38369542
155	0xbe930806	-0.2871706
156	0xbe70e3c3	-0.23524384
157	0xbecf9c72	-0.40549046
158	0x3dfd8348	0.123785555
159	0x3e530140	0.20605946
160	0xbf2b94c4	-0.67023873
161	0x3b589366	0.003304684
162	0x3c666bb7	0.014063767
163	0xbc95d97d	-0.018292183
164	0x3ebe0173	0.3711048
165	0x3e43d09f	0.19122551
166	0x3efa30b9	0.48865297
167	0x3d3fe987	0.04685357
168	0x3f771631	0.96518236
169	0x3ca0731b	0.019586137
170	0xbe882f7f	-0.26598737
171	0xbe3824aa	-0.17982736
172	0xbec7ad36	-0.38999337
173	0x3f155dc9	0.5834623
174	0xbeef5e80	-0.46751785
175	0xbc857762	-0.016292278
176	0x3f12d1b3	0.57351226
177	0x3ea89722	0.32927805
178	0xbec3e90c	-0.38263738
179	0xbc5617d1	-0.013067202
180	0x3e50a090	0.2037375
181	0x3d53811d	0.051636804
182	0x3ef8a2bb	0.48561653
183	0x3f05c8ef	0.52259725
184	0x3f18ca50	0.59683704
185	0x3e6c10d5	0.23053296
186	0x3e6a74a2	0.22896054
187	0x3e8ff276	0.2811467
188	0xbea7f7f0	-0.3280635
189	0xbf1a6bb8	-0.60320616
190	0x3db3850f	0.08765613
191	0xbe9b8bc6	-0.30380076
192	0x3eff27a8	0.49834943
193	0x3ea3a53e	0.31962007
194	0xbdfdc8cb	-0.12391814
195	0xbec20c67	-0.37900087
196	0x3ee49ebd	0.44652358
197	0xbdc097c0	-0.09403944
198	0xbe9f9def	-0.3117518
199	0xbd296081	-0.0413518
200	0xbf0a8cbe	-0.54121006
201	0xbb5b5749	-0.0033468774
202	0x3e998051	0.2998071
203	0xbefd04d3	-0.49417743
204	0xbdca6c6a	-0.098839596
205	0x3d8f74f4	0.07004729
206	0x3e6fee8a	0.23430839
207	0xbdef6473	-0.11689081
208	0x3dd170d4	0.102265984
209	0xbefef459	-0.49795797
210	0xbeaf6088	-0.34253335
211	0x3d79b098	0.06095943
212	0x3e8d296d	0.27570668
213	0x3ea98916	0.331124
214	0x3f2700a3	0.65235347
215	0x3e8e0b3f	0.27742955
216	0x3f2bf604	0.67172265
217	0xbe265483	-0.16243176
218	0x3eccd8f3	0.4000927
219	0x3bbe8059	0.00581364
220	0xbde178e5	-0.11009387
221	0xbf153ac0	-0.5829277
222	0x3c070c9b	0.0082427515
223	0xbd0c262e	-0.0342161
224	0xbf154e05	-0.58322173
225	0x3ee07b5a	0.4384411
226	0x3dbbe3ce	0.0917431
227	0xbe0a0fe4	-0.13482624
228	0x3f949f18	1.1611052
229	0xbd6a6493	-0.05722482
230	0x3dd6b0bc	0.10482928
231	0xbefbea5f	-0.49202248
232	0x3f5ef32b	0.87089795
233	0xbd4a3e4d	-0.04937582
234	0xbd5cb240	-0.05388093
235	0xbebec0dc	-0.37256515
236	0x3df73189	0.12069995
237	0xbeeb9245	-0.46010032
238	0xbd4a26f5	-0.04935356
239	0xbeb0ef0d	-0.3455738
240	0xbf651bea	-0.8949572
241	0x3e878209	0.26466396
242	0x3e49fc16	0.1972507
243	0xbe402f87	-0.1876813
244	0x3f092530	0.5357237
245	0xbc079910	-0.008276239
246	0x3eaa0a0d	0.33210793
247	0xbe3de450	-0.18544126
248	0x3dcd8d30	0.10036695
249	0x3e25d2f5	0.16193755
250	0x3bca0aaa	0.006165822
251	0x3ec508a5	0.38483158
252	0x3dd2d965	0.10295371
253	0x3e8882c2	0.2666226
254	0xbedac993	-0.42731914
255	0x3d3f645f	0.04672658

network.0.bias f4 [256]
0	0xbeb46eb4	-0.3524071
1	0xbe1c0116	-0.15234789
2	0xbc894e1c	-0.016760878
3	0x3f01be5c	0.5068109
4	0xbe934619	-0.28764418
5	0x3dd2f0e9	0.10299856
6	0xbe1b19e1	-0.15146591
7	0xbe49102a	-0.19635072
8	0xbe8d16e5	-0.2755653
9	0x3d240adb	0.040049415
10	0xbe59bd42	-0.21263602
11	0x3e6a6f91	0.22894122
12	0x3e8f2d36	0.2796418
13	0x3eca6608	0.3953097
14	0xbc9b632f	-0.018968193
15	0x3e829595	0.25504747
16	0x3ec60349	0.3867438
17	0x3ea29f24	0.3176204
18	0x3e7acf63	0.24493174
19	0x3ebb36c1	0.3656521
20	0x3e0d67f5	0.13809188
21	0x3e2d8da0	0.16948557
22	0x3e3eaf40	0.1862154
23	0xbe695086	-0.22784624
24	0xbe338898	-0.17532575
25	0x3ebcea66	0.36897582
26	0xbdbf50e8	-0.093416035
27	0xbe0111c6	-0.12604436
28	0xbe334d57	-0.17509972
29	0xbebcaf75	-0.36852613
30	0xbe66559b	-0.22493593
31	0x3e46a5c4	0.19399172
32	0x3e8760fb	0.26441178
33	0x3e8113c0	0.2521038
34	0x3dd68d9f	0.10476231
35	0x3c2e9dc0	0.010657728
36	0x3c78b1c4	0.015179101
37	0xbeba3498	-0.3636825
38	0xbe0a0e9d	-0.13482137
39	0x3d9f6a81	0.07783986
40	0x3caf9bfe	0.021436688
41	0xbda0d62b	-0.07853349
42	0x3ed2ab7f	0.41146466
43	0x3cf47899	0.029842662
44	0xbe40ed75	-0.18840583
45	0xbea1f87f	-0.316349
46	0x3e226e0a	0.15862289
47	0x3e55625e	0.20838305
48	0xbdb90876	-0.09034817
49	0xbca27201	-0.019829752
50	0x3dd5e52d	0.104441024
51	0x3eb1b741	0.34710124
52	0x3ef341e9	0.47511223
53	0xbe38ca33	-0.18045883
54	0x3ea07e7f	0.3134651
55	0x3cd1e7e0	0.025623262
56	0x3ed2565d	0.41081515
57	0x3eadcfea	0.33947688
58	0x3e875472	0.26431614
59	0x3f046b98	0.51726675
60	0x3ec99e84	0.3937875
61	0x3efb8ae0	0.4912939
62	0xbe383709	-0.17989744
63	0x3c2c090f	0.010500207
64	0xba6d7cd2	-0.0009059432
65	0x3ec1f061	0.37878707
66	0x3e363372	0.17793062
67	0x3e48aaea	0.19596449
68	0x3e2ab4d0	0.16670537
69	0xbec42986	-0.3831293
70	0x3e86271b	0.2620171
71	0x3d0cab8b	0.034343284
72	0x3e2b961a	0.16756478
73	0x3edfc6a0	0.43706226
74	0x3ebdf3f2	0.37100178
75	0x3eb5d51c	0.35514152
76	0xbe351074	-0.17682058
77	0xbeb9baf1	-0.36275437
78	0x3e96f72e	0.29485458
79	0x3ebb3e85	0.36571136
80	0xbc0da245	-0.008644645
81	0x3dd4cdf2	0.103908435
82	0xbdba919f	-0.09109806
83	0x3d87849d	0.06617091
84	0xbedd0185	-0.43165222
85	0x3ef2a613	0.4739233
86	0xbe80d5ca	-0.25163108
87	0x3e2fea92	0.17179325
88	0x3ed5050a	0.41605407
89	0x3e9c9a6d	0.30586568
90	0xbcf97c2d	-0.03045472
91	0x3b41ec13	0.0029590174
92	0xbddd6212	-0.10809721
93	0xbeb82f6e	-0.35973686
94	0xbefc2d3f	-0.4925327
95	0xbec3e9e7	-0.3826439
96	0x3e95674d	0.29180375
97	0xbd999822	-0.0749972
98	0xbe9206fa	-0.28520948
99	0x3ec6ab40	0.38802528
100	0x3a147462	0.00056630943
101	0x3ea4009f	0.32031724
102	0xbea203c1	-0.3164349
103	0x3ee7db5f	0.45284554
104	0x3ec5bdd0	0.38621378
105	0x3d1a1089	0.037613425
106	0xbcd18e84	-0.025580652
107	0xbec06229	-0.3757489
108	0x3e299a8f	0.16562866
109	0x3ef40654	0.47661078
110	0xbe4b2cf0	-0.19841361
111	0xbea21e20	-0.3166361
112	0x3e844ebe	0.25841326
113	0xbe07454b	-0.13210027
114	0x3e215aa2	0.1575723
115	0xbe324773	-0.17410068
116	0xbdfbe4e7	-0.12299519
117	0x3eb140c0	0.34619713
118	0xbdede809	-0.11616523
119	0x3ec4bfa7	0.3842747
120	0x3dc697e9	0.09696943
121	0x3f012b0b	0.50456303
122	0xbed45c94	-0.41476882
123	0x3e179e77	0.14806543
124	0xbe420dc8	-0.1895057
125	0x3ea4d3a8	0.3219273
126	0x3d2266ba	0.03964875
127	0x3e9d0fdd	0.30676165
128	0xbe5b7e8f	-0.21434997
129	0xbdd810b2	-0.105500594
130	0x3e93487d	0.28766242
131	0xbebe728e	-0.37196773
132	0xbe2b98cd	-0.16757508
133	0xbe848695	-0.25883928
134	0x3e420a02	0.1894913
135	0x3e841dcc	0.25803983
136	0x3e875b44	0.26436818
137	0xbee81ef6	-0.4533612
138	0xbd089913	-0.033349108
139	0xbe640628	-0.22267973
140	0x3f1afc2b	0.6054103
141	0x3ef38cf7	0.47568485
142	0x3ed22afe	0.41048425
143	0x3eeb3e00	0.4594574
144	0xbdba4026	-0.090942666
145	0xbe27377c	-0.1632976
146	0x3d74f2df	0.059801932
147	0xbe817408	-0.25283837
148	0x3eb01e7f	0.34398267
149	0x3ef6da99	0.48213652
150	0x3e3c7339	0.18403329
151	0x3ec229a3	0.3792239
152	0x3e300af8	0.17191684
153	0xbe4c9d89	-0.1998197
154	0x3eb9b623	0.36271772
155	0x3ee5ebed	0.4490656
156	0xbc31e844	-0.010858599
157	0x3df69a6e	0.12041174
158	0xbda02bb5	-0.078208365
159	0xbedfd221	-0.43715003
160	0xbda46721	-0.08027483
161	0x3ef9bbe3	0.4877616
162	0x3d6ce435	0.057834823
163	0xbe8f4bc6	-0.27987498
164	0x3ee0a8b9	0.43878725
165	0xbdc70982	-0.0971861
166	0x3d877767	0.06614571
167	0x3ea57aa6	0.32320136
168	0x3e7ee183	0.24890713
169	0x3e96b2f5	0.29433408
170	0xbc236704	-0.009973291
171	0x3e057294	0.1303199
172	0x3f0b687f	0.54456323
173	0xbcd3f429	-0.02587326
174	0xbdb3f681	-0.08787251
175	0x3ca78072	0.02044699
176	0x3eef773c	0.46770656
177	0x3e2e7c67	0.17039643
178	0xbebadc41	-0.36496165
179	0x3d7daf9e	0.06193506
180	0x3e354141	0.17700674
181	0xbdf2bb79	-0.11852164
182	0xbee2de26	-0.4431011
183	0xbecdf580	-0.40226364
184	0xbec9bacd	-0.3940033
185	0x3dcba393	0.09943309
186	0x3db5a56e	0.08869444
187	0x3ecb00da	0.39649087
188	0xbe6d20f2	-0.23157099
189	0xbec04715	-0.3755423
190	0x3d0179ce	0.031610303
191	0x3e9d5818	0.30731273
192	0x3ecb64c9	0.3972533
193	0xbeb1fb3b	-0.34761986
194	0xbdf1c419	-0.11804981
195	0x3e51fd65	0.20506819
196	0x3f0a4aea	0.5402056
197	0x3e049a3e	0.12949464
198	0x3bf999a8	0.007617194
199	0x3e2f415b	0.17114775
200	0x3ee6314b	0.44959483
201	0x3e9aefc0	0.3026104
202	0x3ebd2d46	0.36948603
203	0xbe93b1ed	-0.28846684
204	0xbbadca0a	-0.005303626
205	0x3ed72069	0.42016914
206	0xbc84436c	-0.01614543
207	0xbe4189ee	-0.18900272
208	0x3ed588ea	0.4170602
209	0xbd086843	-0.033302557
210	0x3e00969d	0.12557454
211	0x3ea2f661	0.31828597
212	0x3e12b521	0.14326908
213	0x3e4f0f68	0.20220721
214	0x3ed20550	0.41019678
215	0x3ebcc62b	0.3686994
216	0xbe356a00	-0.17716217
217	0x3ecbba33	0.39790496
218	0x3e86c7ab	0.2632421
219	0x3e9b3108	0.30310845
220	0xbce459fe	-0.027874943
221	0xbd9433eb	-0.07236465
222	0x3d5795ac	0.052632973
223	0xbe0206df	-0.12697934
224	0xbdc45150	-0.09585822
225	0xbed2195e	-0.4103498
226	0x3dc1594b	0.094408594
227	0x3eafbc86	0.3432352
228	0x3e16554c	0.14680976
229	0x3db07c5f	0.08617472
230	0x3e9a28e6	0.30109328
231	0xbe81f763	-0.25384054
232	0x3c85dd6d	0.016340936
233	0x3e4596e8	0.19295847
234	0xbe05cbc1	-0.13066007
235	0xbd28d905	-0.04122259
236	0x3e2c4820	0.16824389
237	0xbf026775	-0.5093911
238	0xbea44ab4	-0.32088244
239	0x3e82e73c	0.25567043
240	0xbe106d74	-0.14104253
241	0x3e0039a7	0.12521993
242	0x3f11a74f	0.5689592
243	0x3e0b5f2e	0.13610527
244	0xbe187d5d	-0.14891572
245	0x3ce2ec61	0.027700605
246	0xbec2be8a	-0.38035995
247	0xbe00f42f	-0.12593149
248	0xbda671ba	-0.0812716
249	0xbeff1a94	-0.49824965
250	0x3ebccd4f	0.36875388
251	0xbeee1239	-0.46498278
252	0x3c013d16	0.007888099
253	0x3e54806a	0.20752111
254	0x3d867b45	0.065664805
255	0x3ef0dedf	0.47045037

network.2.weight f4 [256, 256]
0	0x3dc3384c	0.09532222
1	0x3c971335	0.018441776
2	0x3aef7d4a	0.0018271592
3	0x3c7a4d17	0.015277169
4	0x3d87a860	0.06623912
5	0xbdb3af52	-0.08773674
6	0x3ccdf43b	0.025140872
7	0xbe5de6b9	-0.21670045
8	0xbde5c876	-0.112198755
9	0x3d156484	0.036472812
10	0x3c1f821d	0.009735611
11	0x3d4d7f15	0.050170023
12	0xbc97286e	-0.018451896
13	0xbd09ea0d	-0.033670474
14	0x3d9b9ef8	0.0759868
15	0x3d8e8280	0.06958485
16	0xbcaabeec	-0.020842992
17	0x3d7c792f	0.061639007
18	0x3b07ce44	0.002072231
19	0x3d7125d7	0.058873978
20	0x3cdeecc1	0.027212502
21	0x3d96eb6b	0.07369121
22	0xbd9f4444	-0.077766925
23	0x3e2fccf6	0.1716803
24	0xbe6db2c5	-0.23212726
25	0x3d86098f	0.06544792
26	0xbd99fb82	-0.075186744
27	0x3d243663	0.04009093
28	0xbc8c2245	-0.017106185
29	0x3c41b98b	0.011824022
30	0xbda21fc2	-0.079162136
31	0xbd5cd02d	-0.05390947
32	0x3cf74547	0.030184401
33	0xbb1e82f0	-0.0024186932
34	0xbbb2a1fc	-0.005451439
35	0x3e5b4836	0.21414265
36	0xbdb62dd9	-0.088954635
37	0xbca9efe0	-0.020744264
38	0x3d848a71	0.06471718
39	0xb9d03c5d	-0.00039717826
40	0x3d58e289	0.052950416
41	0xbe46c93e	-0.19412705
42	0xbcdac38b	-0.02670457
43	0x3d5af549	0.05345658
44	0x3da1be2c	0.078976005
45	0x3de99353	0.11405053
46	0xbd1934ef	-0.037403997
47	0x3d98ecd8	0.07467049
48	0x3d4b892c	0.049691364
49	0x3e0ffd46	0.1406146
50	0x3dbc8094	0.09204212
51	0xbc06b197	-0.008221052
52	0x3d3077ec	0.043083116
53	0xbdaa60fe	-0.08319281
54	0x3d610dfc	0.054944977
55	0x3e1ea642	0.1549311
56	0xbc3698f8	-0.011144869
57	0xbd14807f	-0.036255356
58	0xbd313d90	-0.0432716
59	0x3d86d871	0.06584252
60	0x3b5a9451	0.0033352564
61	0x3c85a424	0.01631362
62	0x3e651d0c	0.22374362
63	0x3ccbca4a	0.024876732
64	0x3ce8defd	0.028426642
65	0xbd52db1f	-0.0514785
66	0xbd5099b1	-0.05092782
67	0xbd038390	-0.03210789
68	0xbc9d2ca1	-0.01918632
69	0xbe3b0158	-0.18262231
70	0x3db5cee4	0.08877352
71	0xbb96f7d5	-0.0046071806
72	0x3d4cb19e	0.049974076
73	0x3d219522	0.039448865
74	0x3ccc8c47	0.024969233
75	0x3d59d53b	0.053181868
76	0xbd04c696	-0.03241595
77	0xbd7fedef	-0.06248277
78	0xbc94b75d	-0.01815384
79	0x3c30773e	0.010770617
80	0x3dd508ac	0.10402045
81	0x3d140f8c	0.03614764
82	0x3bdc98a8	0.006732065
83	0x3ddeaa1f	0.10872292
84	0x3bd2aa02	0.006428958
85	0x3d9df296	0.07712285
86	0x3ec9d6fc	0.39421833
87	0xbc3f8ff6	-0.011692038
88	0x3d6b5e29	0.057462845
89	0x3c0da366	0.008644914
90	0x3d756481	0.0599103
91	0x3d8771ba	0.066134885
92	0xbe1b8e76	-0.15191063
93	0x3cb696e7	0.022288753
94	0x3e325454	0.17414981
95	0x3ca9e1a7	0.020737482
96	0xbce1554b	-0.027506491
97	0xbc43037b	-0.011902685
98	0xbe336922	-0.17520574
99	0xbd422cd0	-0.047406018
100	0x3d4210b8	0.047379225
101	0x3d4c19a3	0.049829137
102	0x3db5fbb4	0.08885899
103	0x3d91676f	0.070998065
104	0xbd0fc9b5	-0.035104472
105	0xbb33a4d9	-0.002741149
106	0x3dc03bed	0.0938643
107	0xbd02e997	-0.03196105
108	0x3d981a6b	0.07426914
109	0x3d8fd90d	0.07023821
110	0xbe93180f	-0.28729293
111	0x3dcc5d49	0.0997873
112	0xbc7c7923	-0.015409741
113	0x3cd1c40d	0.02560618
114	0xbce54845	-0.027988562
115	0x3e22b80e	0.15890524
116	0x3e3245ec	0.17409486
117	0xbb25bf5b	-0.0025291059
118	0xbe26af51	-0.16277815
119	0x3d826ebf	0.063687794
120	0x3dda56d7	0.10661095
121	0x3cf2cc69	0.029638486
122	0xbcf24252	-0.02957264
123	0x3ddfff90	0.109374166
124	0x3e19dff0	0.15026832
125	0x3d917e9d	0.07104228
126	0xbc2d2a12	-0.010569112
127	0xbd407f93	-0.046996664
128	0x3db7b719	0.0897047
129	0x3cc6ba0e	0.02425864
130	0x3c7607b9	0.01501649
131	0xbe1fe6f2	-0.15615442
132	0xbc41da7d	-0.011831877
133	0x3e568ba3	0.20951705
134	0x3c356bfc	0.011073109
135	0x3d5973d4	0.053088978
136	0xbcd69be9	-0.02619739
137	0xbdac921d	-0.084263064
138	0xbd0b5636	-0.034017764
139	0x3d774a10	0.060373366
140	0xbc6295d4	-0.013829667
141	0xbcf4ea88	-0.02989699
142	0x3d0c1cdb	0.034207206
143	0x3c895cc8	0.016767874
144	0x3e07aab4	0.13248712
145	0x3d968fb6	0.073516294
146	0xbd8ac831	-0.06776465
147	0x3da27440	0.07932329
148	0x3d01e7b2	0.031715102
149	0x3d8f5e82	0.07000448
150	0x3caf0e16	0.021369021
151	0x3d5e8a9e	0.054331414
152	0xbc52a7b3	-0.012857365
153	0x3d6ace9f	0.057325955
154	0x3c6d4516	0.014481803
155	0x3d5bcd33	0.05366249
156	0x3de293ef	0.11063372
157	0xbdcdfce1	-0.100579984
158	0x3a59275d	0.00082837587
159	0xbe4bab85	-0.19889648
160	0x3d285ef6	0.041106187
161	0xbcb42fc6	-0.021995436
162	0x3daca922	0.08430697
163	0x3db866db	0.09003993
164	0x3c8630f7	0.01638077
165	0x3df1a641	0.117992885
166	0x3dcb6542	0.09931423
167	0xbca4844f	-0.02008262
168	0x3d60a364	0.05484332
169	0xbba3139a	-0.004976702
170	0x3e55d3d2	0.20881584
171	0xbca6e64d	-0.020373488
172	0xbc5623c3	-0.01307005
173	0xbbd6b2ef	-0.0065520923
174	0x3c959416	0.01825909
175	0x3da4ab94	0.080405384
176	0x3cea7e9b	0.028624823
177	0xbcc4ae26	-0.024008822
178	0x3ede8ec1	0.43468288
179	0xbce91375	-0.02845166
180	0xb993ae03	-0.00028167674
181	0x3dc2cc15	0.09511582
182	0x3dfcc543	0.12342312
183	0xbe8554cc	-0.26041257
184	0xbda80640	-0.08204317
185	0x3d1452f3	0.03621192
186	0x3de5578b	0.11198338
187	0x3d2f8a3e	0.042856447
188	0x3e602e06	0.21892557
189	0x3e302064	0.17199856
190	0xb987e815	-0.0002592212
191	0x3d402ce7	0.046917822
192	0x3d43f314	0.04783924
193	0x3c610139	0.013733202
194	0xbd63bfd2	-0.055602856
195	0x3d088da7	0.033338215
196	0xbb6c00ab	-0.003601114
197	0xb9cc70a9	-0.0003899385
198	0x3e1ddfc0	0.15417385
199	0xbc38feaf	-0.01129119
200	0xbcd5a9cb	-0.02608194
201	0xbc8caaa9	-0.01717122
202	0xbcb317dd	-0.021861965
203	0x3e26f282	0.16303447
204	0xbbe5fb9f	-0.007018521
205	0x3d939d13	0.07207694
206	0x3da7a403	0.0818558
207	0x3dec4f1f	0.11538529
208	0xbd02da78	-0.03194663
209	0x3c6fb425	0.014630352
210	0xbd7e99e5	-0.062158484
211	0x3b89aaa3	0.0042012497
212	0xbc6600b4	-0.014038254
213	0xbd477550	-0.048695862
214	0x3d1034fb	0.035206776
215	0x3d6d0305	0.057864208
216	0x3d17630b	0.03695969
217	0x3c3a63bd	0.0113763185
218	0x3c8730fb	0.016502848
219	0x3d5b7614	0.053579405
220	0x3d3592d8	0.044329494
221	0xbd1115cd	-0.03542118
222	0x3dec26e1	0.11530853
223	0x3d922489	0.07135875
224	0x3ce4c7fe	0.027927395
225	0x3e2b7945	0.1674548
226	0xbbc8969e	-0.0061214706
227	0x3b57802f	0.00328828
228	0x3d6f0734	0.05835648
229	0x3d60452b	0.054753464
230	0x3ccadd77	0.024763806
231	0xbe79d611	-0.24398066
232	0x3ce1d271	0.027566167
233	0xbc070b17	-0.00824239
234	0xbda3758d	-0.079814054
235	0xbd64d871	-0.055870477
236	0xbcf7fd7b	-0.030272236
237	0x3c628199	0.013824844
238	0x3ea51b20	0.32247257
239	0xbd1e6a15	-0.038675386
240	0x3daca72d	0.08430324
241	0xbc599989	-0.013281235
242	0x3d84df6d	0.064879276
243	0x3cc65cd6	0.02421419
244	0x3d3bbb68	0.04583302
245	0x3e14103a	0.14459315
246	0xbd0049db	-0.031320434
247	0x3e0fd393	0.14045553
248	0xbb1b382c	-0.0023684604
249	0x3db1a0cf	0.0867325
250	0x3d8fea43	0.07027104
251	0x3df6b9f5	0.12047187
252	0x3e06077f	0.13088797
253	0x3d776a34	0.060404018
254	0x3dd13057	0.10214298
255	0xbb7a763a	-0.0038217441

network.2.bias f4 [256]
0	0xbd0dde62	-0.03463591
1	0xbcf6684a	-0.030079026
2	0x3c8382b6	0.016053539
3	0x3d04cda8	0.03242269
4	0x3d47efa4	0.048812523
5	0x3d06803b	0.032837134
6	0xbd474d2e	-0.04865759
7	0x3daf1615	0.08549134
8	0x3bcab1ca	0.006185745
9	0xbc9a9dcc	-0.018874072
10	0x3bf10cf0	0.0073562786
11	0x3da55154	0.08072153
12	0x3ba57265	0.0050490373
13	0xbb190de4	-0.0023354227
14	0x3d0e27aa	0.034705795
15	0x3d87382f	0.06602513
16	0x3d284162	0.04107798
17	0xba8eed9e	-0.0010904556
18	0xbcf3f597	-0.029780192
19	0x3b1b2f83	0.0023679442
20	0x3def961a	0.116985515
21	0xbc28c3d5	-0.010300596
22	0xbdae5f74	-0.085143
23	0x3dde3d44	0.10851529
24	0x3cbe7726	0.023250174
25	0x3c487275	0.01223432
26	0xbc3bde32	-0.01146655
27	0x3c584453	0.0131998835
28	0x3d4c8041	0.049927
29	0x3d80864b	0.06275614
30	0xbbf63e6c	-0.0075147655
31	0x3d590cb1	0.05299062
32	0x3b43aabd	0.0029856407
33	0xbcced541	-0.025248172
34	0xbc5cb29f	-0.013470321
35	0xbc396a6c	-0.011316877
36	0xbc8c7f23	-0.017150467
37	0xbd74f1f6	-0.059801064
38	0x3d88adf9	0.06673808
39	0x3c22eb0f	0.009943738
40	0xbd119a9f	-0.03554785
41	0x3cfe33ac	0.031030498
42	0xbc9e49c5	-0.019322285
43	0xba66ff4e	-0.0008811847
44	0x3d200a2a	0.039072193
45	0x3cd10413	0.025514638
46	0xbd5ac992	-0.05341489
47	0xbd5df861	-0.05419195
48	0x3dc8bc2a	0.098015144
49	0x3c51285e	0.012765972
50	0x3ce7a7a8	0.028278187
51	0xba43556b	-0.0007451388
52	0x3c3f10ef	0.011661752
53	0x3c1e484d	0.009660793
54	0x3df30d65	0.11867789
55	0x3db0cbc8	0.08632618
56	0x3d25884f	0.040413197
57	0xbd3ab866	-0.045586012
58	0xbcaa3251	-0.020775946
59	0xbd569778	-0.052390546
60	0x3d171c12	0.036892004
61	0x3d1fce7d	0.039015282
62	0x3cbb34ad	0.022852266
63	0x3d6f3db8	0.05840847
64	0x3ca78e26	0.020453524
65	0xbcb80abc	-0.022466056
66	0x3d9ce486	0.07660775
67	0xbd0bc092	-0.034119196
68	0xbda2b4af	-0.07944619
69	0xbd027130	-0.031846225
70	0x3d39d4b6	0.045368873
71	0x3bd62378	0.00653499
72	0x3d54917c	0.051896557
73	0x3d584381	0.05279875
74	0xbcded5fa	-0.027201641
75	0x3db02c68	0.0860222
76	0x3cafa6cd	0.021441841
77	0x3db29b0c	0.08720979
78	0x3d8183ab	0.06323942
79	0x3d031a12	0.032007284
80	0x3d8128f1	0.06306637
81	0xbd73190c	-0.05935006
82	0xbb81e98f	-0.00396461
83	0xbced7788	-0.028987661
84	0xbd12d330	-0.035845935
85	0x3d8d500e	0.06900035
86	0x3ca77e6c	0.020446025
87	0xbbb4d581	-0.0055186157
88	0x3d817a3b	0.06322142
89	0xbc219cc5	-0.009864037
90	0xbc68107f	-0.014164089
91	0xbba2ad1c	-0.004964484
92	0x3ce24137	0.027618987
93	0xbd3d03a1	-0.04614604
94	0x3d0a7545	0.033803243
95	0xbd004fb7	-0.031326022
96	0x3d1abc57	0.03777727
97	0x3dc9b721	0.09849382
98	0xbd4ec4ec	-0.050480768
99	0x3d7467eb	0.059669416
100	0xbca68597	-0.020327372
101	0x3b83a291	0.004017182
102	0x3d10fc9a	0.03539715
103	0x3d937121	0.07199312
104	0x3d8d031b	0.06885358
105	0x3c4d23ee	0.012520773
106	0x3d204ef7	0.039137807
107	0x3c7a7498	0.015286587
108	0xbc6a0ca4	-0.01428524
109	0x3d2e803a	0.042602755
110	0xbd0f7aba	-0.03502915
111	0xbbeff1ec	-0.0073225405
112	0xbab6573e	-0.0013911498
113	0x3d52a123	0.051423203
114	0xbd3e5681	-0.046469215
115	0xbd25659b	-0.0403801
116	0x3d0d7d4f	0.03454333
117	0x3c860502	0.01635981
118	0xbc740614	-0.014894027
119	0x3d4eca89	0.05048612
120	0x3d052dcb	0.032514375
121	0x3e24fb7a	0.16111556
122	0x3d1b4880	0.03791094
123	0x3c816347	0.01579441
124	0xbb528280	-0.003212124
125	0x3d346edc	0.044051036
126	0xbc833caa	-0.016020138
127	0x3c56814f	0.013092353
128	0xbd2c1a69	-0.042017374
129	0x3c895ce5	0.016767928
130	0x3d80864e	0.062756166
131	0x3dab8e23	0.0837672
132	0xbd62cce3	-0.055371176
133	0xbb739822	-0.0037169536
134	0xbd6d4ef1	-0.057936613
135	0x3d66932f	0.05629271
136	0x3d35033c	0.044192538
137	0x3da02e01	0.078212745
138	0x3c7ec39f	0.015549569
139	0x3cf7eeb3	0.030265188
140	0x3d5c564f	0.053793248
141	0x3d04b03c	0.032394633
142	0x3cca745c	0.024713688
143	0x3c5f4ba6	0.013628876
144	0x3b605c14	0.003423457
145	0x3d620ffb	0.05519102
146	0x3c2283f6	0.009919157
147	0xbccf07de	-0.025272306
148	0xb942f83b	-0.00018593755
149	0x3d7b7ab3	0.061396312
150	0xbd40a8a0	-0.047035813
151	0x3c023ea7	0.007949508
152	0xbce880a9	-0.028381662
153	0x3d9906c9	0.07471997
154	0x3ce34ad9	0.027745651
155	0x3c710466	0.014710521
156	0x3c49e2a6	0.012322104
157	0xbcd89535	-0.026438335
158	0xb982174b	-0.00024812887
159	0xbbdf59cc	-0.0068161245
160	0x3cf0dcc4	0.029402144
161	0xbd05dd68	-0.032681853
162	0x3de01337	0.10941165
163	0x3d57582c	0.05257432
164	0x3cf94010	0.030426055
165	0x3bfdf843	0.0077505424
166	0xbcdfdc10	-0.027326614
167	0x3d2d5e9a	0.042326547
168	0x3d6b52b4	0.05745192
169	0x3d9b567a	0.075848535
170	0x3d2dfaa0	0.042475343
171	0xbd6591c6	-0.056047224
172	0x3ca7e254	0.020493664
173	0x3dc8a954	0.09797922
174	0xbc90aa0f	-0.017659215
175	0xbd19f38e	-0.037585787
176	0xbd04dd9d	-0.03243791
177	0xbb571281	-0.0032817426
178	0x3c904e56	0.017615478
179	0x3c369ca5	0.011145745
180	0x3d6a7b25	0.057246346
181	0x3c89ae96	0.016806882
182	0xbd1acff5	-0.03779598
183	0x3cee9559	0.029123949
184	0xbd34a632	-0.04410381
185	0x3d4be37d	0.049777497
186	0x3bacbdbf	0.005271643
187	0x3da038cd	0.07823334
188	0xbd36eba3	-0.044658314
189	0x3ccb64c6	0.024828326
190	0x3cd01c92	0.025404248
191	0x3dcabc21	0.09899164
192	0xbd11f256	-0.0356315
193	0x3d028f12	0.031874724
194	0x3d2f688e	0.04282432
195	0xbb151ffa	-0.0022754655
196	0x3ccc2c4a	0.024923462
197	0x3d0ab5ce	0.03386479
198	0x3dcf5e45	0.10125402
199	0xbcc2f8d5	-0.023800293
200	0x3d330e76	0.043714963
201	0x3d82a099	0.06378288
202	0x3d617bf3	0.055049848
203	0xbc01ea6c	-0.007929426
204	0xbd4fe074	-0.050751165
205	0x3cde9779	0.027171837
206	0x3d92f686	0.07175927
207	0xbcf4439e	-0.029817399
208	0x3c960f17	0.018317742
209	0x3d4cea88	0.050028354
210	0x3dbfaccd	0.09359131
211	0xbd1ffb93	-0.03905828
212	0x3c86fcf8	0.016478047
213	0x3c88e8c2	0.01671255
214	0x3c61812e	0.013763709
215	0x3c796385	0.015221481
216	0xbc1630f6	-0.009166947
217	0x3c0f3a1e	0.008741884
218	0x3d676074	0.05648847
219	0xbc007df7	-0.007842532
220	0x3cc4d749	0.024028437
221	0x3db03051	0.086029656
222	0xbd69906f	-0.05702251
223	0x3da1e853	0.079056405
224	0x3bab9d8b	0.0052372864
225	0x3d75774f	0.059928235
226	0xbd9779e8	-0.07396299
227	0x3d3ac068	0.04559365
228	0xbcee4d9e	-0.029089745
229	0x3da01e7e	0.07818316
230	0xbd246403	-0.04013444
231	0x3ce172ce	0.027520563
232	0x3bcc24ae	0.0062299585
233	0xbd25de35	-0.040495116
234	0xbb4b8282	-0.003105313
235	0x3d8ae433	0.06781807
236	0xbc71c1bb	-0.014755662
237	0x3d7823d0	0.06058103
238	0x3d30026b	0.042971056
239	0xbd110b9f	-0.035411473
240	0x3d9a6456	0.07538669
241	0xbd6e2eb3	-0.058150005
242	0x3c05d952	0.008169489
243	0x3dc5d919	0.09660549
244	0x3c5fb17f	0.013653158
245	0xbcdd23a1	-0.026994528
246	0x3da187c2	0.07887222
247	0xbcc9cb86	-0.02463318
248	0x3af26547	0.0018493318
249	0x3d0fda69	0.0351204
250	0x3d4e22af	0.050326046
251	0xbc28fadb	-0.010313715
252	0x3d74dfc7	0.059783723
253	0xbc8c295d	-0.017109567
254	0x3c3b9170	0.011448249
255	0xbc84826f	-0.016175477

network.4.weight f4 [128, 256]
0	0xbce10cc3	-0.027471906
1	0x3dca4a81	0.09877492
2	0x3c1b3fe8	0.009475686
3	0xbd190f63	-0.03736819
4	0x3e6f4c5e	0.23368976
5	0xbe3177ce	-0.17330858
6	0x3df0f9ee	0.1176642
7	0x3b035514	0.0020039724
8	0x3db1dc30	0.086845756
9	0xbcc928f0	-0.024555653
10	0x3c9d92d8	0.01923506
11	0x3bd9237b	0.006626544
12	0xbca7a25a	-0.020463157
13	0xbce6ed6e	-0.028189387
14	0x3ce4d001	0.027931215
15	0xbd8721b1	-0.06598223
16	0xbe24d1c7	-0.16095649
17	0xba494ffe	-0.0007679461
18	0x3d82779e	0.063704714
19	0x3d5d392f	0.054009613
20	0x3d63dcba	0.055630423
21	0x3d9adcc1	0.07561637
22	0x3dffb591	0.12485803
23	0xbc961848	-0.018322125
24	0x3d1bb6a5	0.03801598
25	0x3be2a181	0.0069162254
26	0xbd42990f	-0.04750925
27	0x3d83e506	0.06440167
28	0xbd451e46	-0.048124574
29	0xbce12e3a	-0.027487863
30	0x3d3c99c9	0.0460451
31	0x3d3fb011	0.04679877
32	0xbd8eec19	-0.06978626
33	0xbe1392d0	-0.14411473
34	0x3cbda6b7	0.023150785
35	0xbdb81359	-0.08988065
36	0xbd97dff6	-0.07415764
37	0x3d766224	0.060152188
38	0xbd67b904	-0.05657293
39	0xbda4d407	-0.080482535
40	0x3dabd5ab	0.08390363
41	0xbe16abc5	-0.14713962
42	0x3dbfb59d	0.09360812
43	0xbde77079	-0.11300749
44	0x3d7e1bac	0.06203811
45	0x3c2aaa20	0.0104165375
46	0xb8e79056	-0.00011041823
47	0xbc8bd053	-0.01706711
48	0xbd12b857	-0.03582033
49	0x3c0752da	0.008259499
50	0x3d6a52ec	0.057207987
51	0x3d6a0ef6	0.057143174
52	0x3d961284	0.0732775
53	0x3e46ebc8	0.19425881
54	0x3d299af9	0.04140756
55	0xb9c9a086	-0.00038457307
56	0xbcd70a32	-0.026249979
57	0xbd773526	-0.06035342
58	0x3db4a773	0.08821001
59	0x3dc0f2d6	0.09421317
60	0x3cb7a04c	0.022415303
61	0x3cb0206a	0.021499831
62	0xbbdc7bb1	-0.0067286124
63	0x3e355b1b	0.17710535
64	0xbd77e7d3	-0.06052382
65	0xbc08dd7f	-0.00835359
66	0xbd812544	-0.06305936
67	0xbccc3fd9	-0.024932789
68	0x3e440e6f	0.19146131
69	0x3db7a21e	0.08966468
70	0x3dc0f1c8	0.09421116
71	0xbc85893e	-0.016300794
72	0x3d03ffe4	0.03222646
73	0xbcf45241	-0.029824378
74	0xbb95961d	-0.004565014
75	0xbbef4a3b	-0.00730255
76	0x3da6cf5c	0.081450194
77	0xbcf159df	-0.0294618
78	0x3bd63621	0.0065372144
79	0xbc4a7376	-0.01235663
80	0xbd4218d6	-0.047386967
81	0x3d20001e	0.03906261
82	0xbdfe002e	-0.12402378
83	0xbcc9d6f9	-0.02463864
84	0x3e210fc0	0.15728664
85	0xbc301ba2	-0.010748776
86	0x3cb3ee1c	0.021964125
87	0xbce43a17	-0.02785973
88	0x3cd2e373	0.025743222
89	0x3d1c99ba	0.038232543
90	0x3d4f25f1	0.050573293
91	0xbcc499fc	-0.023999207
92	0x3db7ec14	0.08980575
93	0x3d6ef6d7	0.058340874
94	0x3d82ea92	0.06392397
95	0x3e5df32f	0.21674798
96	0x3e41bba3	0.18919234
97	0xbe301b70	-0.17197967
98	0x3d7d6ec6	0.06187322
99	0x3c242b42	0.010020079
100	0xbd192b24	-0.037394658
101	0x3d64dd76	0.055875264
102	0xbd22e3d2	-0.039768048
103	0x3d486d23	0.048932206
104	0x3d92ac5f	0.071617834
105	0xbbcfd592	-0.0063425982
106	0xbd8a48e9	-0.06752188
107	0x3e2005a0	0.15627146
108	0x3b3ceacb	0.002882647
109	0xbd68580b	-0.05672459
110	0xba0ae543	-0.0005298445
111	0x3d1f20c7	0.03884962
112	0x3d902e33	0.07040062
113	0x3c547717	0.012967846
114	0xbd14012c	-0.03613393
115	0xbdafb153	-0.08578744
116	0x3d18eca8	0.037335068
117	0x3e32c1a8	0.17456686
118	0xbd979e9f	-0.074033014
119	0x3d966337	0.073431425
120	0x3cbda11f	0.023148118
121	0x3bd360ff	0.006450772
122	0x3b89efdb	0.004209501
123	0xbc83a953	-0.016071951
124	0xbb857eff	-0.004073977
125	0x3d64782a	0.05577866
126	0xbe2460db	-0.16052572
127	0xbd38032b	-0.044924896
128	0x3df598ff	0.11992072
129	0xbd950e1f	-0.07278084
130	0x3d91e8e3	0.07124498
131	0xbd1b8303	-0.03796674
132	0xbd319e5e	-0.04336392
133	0x3d6de7d9	0.058082435
134	0x3cb6f526	0.022333693
135	0xbcdb3232	-0.026757333
136	0xbdba6e50	-0.09103072
137	0xbd3c0e8b	-0.045912307
138	0xbdaea5bf	-0.08527707
139	0xbc8040c5	-0.015655885
140	0x3d95b060	0.073090315
141	0x3d8868df	0.066606276
142	0x3c441283	0.011967304
143	0xbdc09805	-0.094039954
144	0xbd4061bd	-0.04696821
145	0x3d3dbe66	0.046324156
146	0xbd1575f1	-0.03648943
147	0x3d48f934	0.049065784
148	0x3e047143	0.12933831
149	0x3e5fa3ad	0.21839781
150	0x3c4a371b	0.01234224
151	0xbd210bc9	-0.03931788
152	0x3e009059	0.12555064
153	0xbc62f8ea	-0.013853291
154	0x3c435965	0.011923169
155	0xbe10a4c5	-0.14125355
156	0xbb8dfa63	-0.004332827
157	0x3de9d571	0.11417664
158	0xbd5c4d3f	-0.053784605
159	0xbe4c90d5	-0.19977124
160	0x3e1a4310	0.15064645
161	0xbdcd5278	-0.10025495
162	0x3cb1eb7c	0.021718733
163	0x3c844b53	0.016149199
164	0xbdaa2b36	-0.08309023
165	0xbd1e3b8a	-0.038631
166	0x3da4d4a0	0.080483675
167	0x3cb3ccbf	0.021948216
168	0xbd5437ab	-0.0518109
169	0xbd409000	-0.04701233
170	0x3d29d557	0.041463222
171	0xbcbbfabc	-0.022946708
172	0x3e4651c1	0.19367124
173	0x3cb9820a	0.022645015
174	0x3d4c7a39	0.049921248
175	0x3d534719	0.051581476
176	0x3d103da8	0.03521505
177	0x3cc23e8c	0.023711465
178	0x3ac9db5f	0.0015400461
179	0xbd827fe5	-0.0637205
180	0xbc7ac577	-0.015305868
181	0x3e10cffc	0.1414184
182	0xbc86339b	-0.01638203
183	0xbd4d6010	-0.05014044
184	0x3d424300	0.047427177
185	0xbc6a180e	-0.014287962
186	0x3d4e9fd4	0.050445393
187	0xbd5e5c02	-0.054286964
188	0xbd8ade74	-0.06780711
189	0x3c33b4a6	0.010968363
190	0xbbfbdc70	-0.0076861903
191	0xbd29e462	-0.04147757
192	0xbd1c3fa1	-0.03814662
193	0x3dcc6be8	0.09981519
194	0xbc0b4e82	-0.008502604
195	0xbd158159	-0.03650031
196	0xbd36f864	-0.044670478
197	0xbd33445e	-0.043766372
198	0xbd7d7fdf	-0.061889526
199	0xbe1a45cc	-0.15065688
200	0xbcb1d79d	-0.021709258
201	0xbd7561de	-0.059907787
202	0xbbbea33d	-0.0058177994
203	0x3d2fd3d7	0.042926636
204	0x3e04426b	0.12915961
205	0x3c5a4ec3	0.013324442
206	0xbd24007f	-0.040039536
207	0x3d55e81e	0.052223317
208	0x3d5705b7	0.052495684
209	0xbd56ae49	-0.052412305
210	0xbdf92336	-0.12164919
211	0x3d2ae97e	0.04172658
212	0x3c1f1e13	0.00971176
213	0x3e1777ce	0.14791796
214	0x3d8369a8	0.06416637
215	0x3c108656	0.008821091
216	0xbd6fd6ae	-0.058554344
217	0x3d92d419	0.07169361
218	0xbd5db869	-0.054130945
219	0xbd0172dc	-0.03160368
220	0x3de2862c	0.110607475
221	0xbd7aa10d	-0.061188746
222	0xbd4ec8b4	-0.050484374
223	0xbbc89e19	-0.0061223623
224	0x3d511392	0.051044054
225	0xbd3539f4	-0.04424472
226	0xbc70bc3a	-0.014693314
227	0xbc51bd06	-0.012801414
228	0x3bd1f6ec	0.006407609
229	0xbbe99c8d	-0.007129258
230	0x398df60e	0.0002707694
231	0x3cdd978f	0.027049808
232	0x3d190127	0.037354615
233	0xbd69f6a3	-0.057119977
234	0x3e10db51	0.14146163
235	0x3cd316f2	0.025767777
236	0x3d1dacbf	0.03849482
237	0xbd458592	-0.048223086
238	0xbe21c51e	-0.1579785
239	0x3e0f6025	0.1400152
240	0xbd727759	-0.05919585
241	0x3b1a34f5	0.00235301
242	0xbccde99e	-0.025135811
243	0xbbebf6e0	-0.0072010607
244	0x3d805819	0.06266803
245	0xbcb27974	-0.021786429
246	0x3d91ddfa	0.07122417
247	0xbd321cfb	-0.04348467
248	0x3d4610e9	0.04835597
249	0x3be7a581	0.00706929
250	0xbcf370c4	-0.029716857
251	0x3df12618	0.11774844
252	0xbda9721f	-0.0827372
253	0xbd26ebe3	-0.040752303
254	0x3cf12700	0.029437542
255	0xbd037a1e	-0.032098882

network.4.bias f4 [128]
0	0x3d1a3127	0.03764453
1	0x3c64c138	0.013962083
2	0x3d1334bd	0.035938967
3	0x3cae7676	0.021296721
4	0x3c4d324c	0.012524199
5	0x3d875ee3	0.06609895
6	0x3d5942bf	0.05304217
7	0x3dc5fb4b	0.09667071
8	0x3d1e12ea	0.038592257
9	0x3e15b9f7	0.14621721
10	0x3d15b8bc	0.03655313
11	0x3d8a9eaa	0.06768544
12	0xbd6d0459	-0.057865474
13	0xbc86213c	-0.01637327
14	0xbd39e84e	-0.04538756
15	0xbcb1a83c	-0.021686666
16	0x3c97f249	0.018548148
17	0x3bdb7e46	0.0066984026
18	0x3d7f85c7	0.06238344
19	0x3d0aeacc	0.033915326
20	0xbccecc9f	-0.025244055
21	0x3c4b764a	0.012418339
22	0x3b7ff9c1	0.0039058777
23	0x3d406c8a	0.04697851
24	0x39a62597	0.00031689994
25	0x3d0b1650	0.033956826
26	0x3d584429	0.052799378
27	0xbc8db7d4	-0.01729957
28	0xbc2c960c	-0.010533821
29	0x3d403926	0.0469295
30	0xbcfcbebd	-0.03085267
31	0x3d844a03	0.06459429
32	0x3d69ffc7	0.057128694
33	0xbd241325	-0.04005732
34	0xbd1da25f	-0.038484927
35	0x3cc56ee4	0.024100728
36	0x3c405946	0.011740034
37	0x3d8399fd	0.06425855
38	0x3bbb0cbb	0.0057083047
39	0x3d6b58eb	0.057457846
40	0xbd5451cb	-0.051835816
41	0xbcf1ed23	-0.02953202
42	0x3b669930	0.0035186522
43	0xbc48feef	-0.012267812
44	0xbd185345	-0.037188787
45	0xbd5a73a1	-0.05333293
46	0xbca28c59	-0.019842314
47	0x3d5f786e	0.05455821
48	0xbd1d8c6c	-0.038463995
49	0xbd2b46a4	-0.041815415
50	0x3cde8c23	0.027166432
51	0xbbde9ffa	-0.006793973
52	0xbd48f96f	-0.049066003
53	0x3dc18647	0.094494395
54	0x3d5d75fe	0.054067604
55	0xbcb0e040	-0.021591306
56	0x3ce3fe40	0.027831197
57	0xbcd87e76	-0.026427489
58	0x3b74d0b3	0.003735584
59	0x3c251e55	0.0100780325
60	0xbd6b3fa0	-0.057433724
61	0xbd0c3688	-0.034231693
62	0x3c8fadea	0.017538983
63	0xbbddb021	-0.006765381
64	0xbcb238ff	-0.021755693
65	0x3d36073c	0.044440493
66	0xbd657115	-0.056016047
67	0x3d3e19ce	0.046411328
68	0xbd2c39bf	-0.04204726
69	0x3d34b62a	0.044119038
70	0x3cbc5dc3	0.022993928
71	0xbcee5902	-0.029095177
72	0x3cc04ead	0.023475016
73	0x3d8153a7	0.063147835
74	0x3d1e2bac	0.038615867
75	0x3caefc7a	0.021360625
76	0xbc65b325	-0.014019762
77	0x3cf6a487	0.03010775
78	0x3e06445b	0.13112013
79	0xbccbf1ee	-0.024895635
80	0xbb8eeb3a	-0.0043615373
81	0x3d47906d	0.04872172
82	0x3d84fa96	0.06493108
83	0x3d8f1275	0.06985942
84	0x3d975afe	0.07390402
85	0xbb7c0c3e	-0.0038459445
86	0x3d514758	0.05109343
87	0xbd1b5ae8	-0.03792849
88	0x3cefaa64	0.029256053
89	0x3dd78273	0.10522928
90	0x3adabb74	0.0016687945
91	0x3d85c5a2	0.06531836
92	0xbd30b0f4	-0.043137506
93	0x3d040742	0.032233484
94	0xbc427218	-0.011868022
95	0xbc1f87c2	-0.009736957
96	0x3dbae1b6	0.09125082
97	0x3cb60b32	0.022222135
98	0x3da8a43d	0.08234451
99	0x3cf799f9	0.030224787
100	0xbba5ccd6	-0.0050598187
101	0xbd714b03	-0.058909427
102	0x3c0916fb	0.008367295
103	0x3caaddc0	0.020857692
104	0xbc899727	-0.016795708
105	0x3d139d62	0.036038764
106	0x3bd12c17	0.0063834297
107	0x3c244f45	0.010028665
108	0x3d572d0c	0.052533194
109	0x3d77ea6c	0.060526296
110	0x3d516c19	0.05112848
111	0x3ce9826a	0.02850457
112	0x3cd9ce98	0.02658777
113	0xbd3ba1f8	-0.045808762
114	0xbc8b3c42	-0.016996507
115	0x3dedb846	0.11607413
116	0x3ca69331	0.020333858
117	0x3db06d1b	0.0861456
118	0xbd7b22bd	-0.061312426
119	0x3b223457	0.0024750435
120	0xbbd0219e	-0.0063516637
121	0x3d5e43a7	0.054263737
122	0xbd01406c	-0.031555578
123	0x3ce2accb	0.027670285
124	0xbcee63f5	-0.029100398
125	0x3e026aea	0.12736097
126	0x3d4a1c12	0.049343176
127	0x3ba77abe	0.0051110676

network.6.weight f4 [5, 128]
0	0x3e34effd	0.17669673
1	0xbe6937e4	-0.22775227
2	0x3d021d13	0.03176601
3	0xbd5f9c4e	-0.054592423
4	0xbe1f3ae7	-0.15549813
5	0xbe3301cd	-0.17481156
6	0xbe5d021c	-0.21582836
7	0x3e7a8b4d	0.24467202
8	0x3d866858	0.06562871
9	0x3e568c93	0.20952062
10	0xbdde0adb	-0.10841914
11	0xbe074107	-0.132084
12	0x3bbdd56e	0.005793265
13	0xbe49c372	-0.19703463
14	0xbe43bb33	-0.1911438
15	0x3e0c15a5	0.13680132
16	0x3b1b10c4	0.0023661116
17	0xbd3b5068	-0.04573098
18	0xbe2a6a77	-0.16642176
19	0xbda0954c	-0.07840976
20	0xbe123fbe	-0.14282128
21	0xbe29f8bf	-0.16598795
22	0xbb83cf66	-0.0040225266
23	0xbd10c6cb	-0.035345834
24	0xbe440e59	-0.19146098
25	0xbc34b3ad	-0.011029166
26	0x3ca55f25	0.02018697
27	0xbda50d06	-0.08059125
28	0xbd7ae119	-0.061249826
29	0xbe1a37bd	-0.15060325
30	0xbd04570f	-0.032309588
31	0x3e7b741a	0.24556008
32	0xbe42a9d6	-0.190101
33	0x3be013c6	0.0068382947
34	0xbd869171	-0.065707095
35	0xbb0aff5b	-0.0021209333
36	0xbe29d7e1	-0.16586258
37	0x3e68c527	0.22731458
38	0xbe3b2fe5	-0.18279989
39	0x3d43cc1e	0.047802083
40	0xbe2e708c	-0.1703512
41	0xbd21decc	-0.039519116
42	0xbe3d4a4e	-0.18485376
43	0xbe37553c	-0.17903608
44	0xbe113b06	-0.14182672
45	0x3c376fed	0.011196119
46	0xbc14e649	-0.009088107
47	0xbe01f76a	-0.12692037
48	0x3d972432	0.073799506
49	0xbc48ebc5	-0.012263243
50	0xbe1b673c	-0.151761
51	0xbe293138	-0.16522682
52	0x3d87eaa8	0.06636554
53	0x3e753e2a	0.23949495
54	0xbe1c3204	-0.15253454
55	0x3d0842fc	0.033267006
56	0x3e2cfc43	0.16893105
57	0x3d1879d8	0.037225574
58	0xbdd6945b	-0.10477515
59	0xbd91480e	-0.070938215
60	0x3e87056e	0.2637133
61	0xbe22397e	-0.15842244
62	0xbd03e609	-0.0322018
63	0xbbfebf1f	-0.0077742483
64	0xbe4ba4f4	-0.19887143
65	0x3d1e3ea5	0.03863396
66	0xbd68c7aa	-0.05683104
67	0xbe5cd4e6	-0.2156559
68	0xbe5d7bf4	-0.21629316
69	0xbb0ac010	-0.0021171607
70	0xbe04f13b	-0.12982647
71	0xbc757bee	-0.01498316
72	0xbd3b2e8d	-0.04569869
73	0xbe1ec19f	-0.15503548
74	0x3d0ac77c	0.03388165
75	0xbe47e305	-0.19520195
76	0xbe4e5ae4	-0.2015186
77	0xbdb18a17	-0.08668917
78	0x3e626b74	0.22111303
79	0x3d282e1d	0.041059602
80	0xbdf337fb	-0.11875912
81	0xbe44f581	-0.19234277
82	0x3e7a1c86	0.24424943
83	0x3e3360bd	0.17517371
84	0x3df2921a	0.11844273
85	0xbe55718f	-0.208441
86	0x3ceab9cc	0.028653048
87	0xbe1e6d4c	-0.15471381
88	0xbdf3e1b9	-0.119082876
89	0x3e8dc0ff	0.27686307
90	0xbe4cdfe3	-0.20007281
91	0x3e17bb08	0.1481744
92	0x3cdc7d2c	0.026915155
93	0x3db5e168	0.088808835
94	0x3d045893	0.032311033
95	0xbdc3edc6	-0.09566836
96	0x3e4fd75b	0.20296995
97	0xbe4e1d59	-0.20128383
98	0x3e7835b0	0.2423923
99	0x3d28a7a5	0.041175503
100	0x3d8f4f75	0.06997577
101	0xbe57e1cb	-0.21082227
102	0xbe4e275a	-0.20132199
103	0xbd522773	-0.051307153
104	0xbe23c7d6	-0.159942
105	0x3e724db7	0.23662458
106	0xbe1a4503	-0.15065388
107	0xbe2400fc	-0.16016
108	0xbe290d3d	-0.16508956
109	0xbdf4219e	-0.119204745
110	0xbe30e694	-0.17275459
111	0xbdd5b820	-0.1043551
112	0x3e95a535	0.29227605
113	0x3d68919c	0.05677949
114	0xbd88e584	-0.06684402
115	0x3e2e3a07	0.17014323
116	0xbe13e6d7	-0.14443527
117	0x3e633f96	0.22192225
118	0xbda1be95	-0.07897679
119	0xbe12be4d	-0.14330406
120	0xbd91a146	-0.071108386
121	0xbe3a0eda	-0.18169728
122	0xbb8a1fbf	-0.00421521
123	0xbe548457	-0.20753609
124	0xbe2b2db1	-0.16716649
125	0x3e6be2ab	0.23035686
126	0x3d86d463	0.06583478
127	0xbe73164b	-0.23738973
128	0x3e1da944	0.15396601
129	0xbca1592e	-0.019695845
130	0x3ca2cee2	0.01987404
131	0xbe239b03	-0.15977101
132	0x3dd97f63	0.1062
133	0xbde5a981	-0.11213971
134	0xbdab7d9d	-0.08373568
135	0x3d107ded	0.035276342
136	0xbc7e5c3a	-0.015524918
137	0x3e8ee3e7	0.2790825
138	0xbe804711	-0.2505422
139	0xbe699012	-0.22808865
140	0x3cdd51d8	0.027016565
141	0xbe0cd288	-0.13752186
142	0xbe3b47e8	-0.18289149
143	0x3e91d009	0.2847903
144	0xbd6de7c0	-0.058082342
145	0xbe2ec527	-0.17067395
146	0xbdbe5ea0	-0.09295392
147	0xbde192f6	-0.11014359
148	0xbdeaae17	-0.11458986
149	0xbe31a37a	-0.17347518
150	0xbcf7ef1d	-0.030265385
151	0xbe538e41	-0.20659734
152	0xbe199dbd	-0.15001579
153	0xbd87a140	-0.06622553
154	0x3d7670c0	0.06016612
155	0x3da86a91	0.08223451
156	0x3d866d4f	0.06563818
157	0xbe638675	-0.2221926
158	0x3e8f2e17	0.2796485
159	0x3e0d3aba	0.13791934
160	0xbe2562ea	-0.16151014
161	0x3eaa621d	0.3327798
162	0x3d0bda3c	0.03414367
163	0x3d1db453	0.03850205
164	0xbe4d199a	-0.20029297
165	0x3e59d7fa	0.21273795
166	0xbd93d562	-0.07218434
167	0x3d42a26b	0.047518175
168	0xbe771318	-0.24128377
169	0x3b707b05	0.003669442
170	0xbe109a91	-0.14121462
171	0xbe497f5b	-0.19677489
172	0xbe491f81	-0.19640924
173	0x3da5ecfb	0.08101841
174	0x3cc248d5	0.02371637
175	0xbe2b896e	-0.16751644
176	0xbdad8919	-0.08473415
177	0xbc1574a2	-0.009122046
178	0xbe35e073	-0.17761402
179	0xbdc5f2bb	-0.09665438
180	0x3ebe1ffa	0.3713377
181	0x3e910a2b	0.2832807
182	0xbe6926b1	-0.22768666
183	0x3cb708ec	0.022343121
184	0x3f24788a	0.6424643
185	0x3cb09ef0	0.021560162
186	0xbe390b6c	-0.18070763
187	0xbe3adbd6	-0.18247923
188	0x3ed4ca09	0.4156039
189	0xbda4e390	-0.080512166
190	0x3d9d1b33	0.076712035
191	0x3d781101	0.06056309
192	0xbe2b98c3	-0.16757493
193	0x3e0e3fee	0.13891575
194	0xbda83138	-0.08212513
195	0xbe08bf51	-0.13354231
196	0xbdfea4bc	-0.12433764
197	0xbd7205c5	-0.059087534
198	0xbe368d91	-0.17827441
199	0x3e9d2406	0.30691546
200	0xbe3be314	-0.18348342
201	0xbe0867e4	-0.13320881
202	0x3cf99407	0.030466093
203	0xbd85de60	-0.06536555
204	0xbe5fa26c	-0.21839303
205	0xbe679953	-0.22617082
206	0x3e6548e5	0.22391088
207	0xbb3cae14	-0.0028790282
208	0xbe5540e2	-0.20825532
209	0xbdfddf94	-0.1239616
210	0x3e9daaab	0.30794272
211	0x3cd88d50	0.02643457
212	0x3e0e4123	0.13892035
213	0xbe6f7ce0	-0.2338748
214	0x3d752b75	0.059855897
215	0xbe287edc	-0.16454643
216	0xbe40d410	-0.18830895
217	0x3e409c16	0.18809542
218	0xbde277ba	-0.11057992
219	0x3e154875	0.14578421
220	0x3d952dc4	0.0728412
221	0x3e553dfc	0.20824426
222	0x3d97dfa4	0.07415703
223	0xbe2a12ac	-0.16608685
224	0x3e60201a	0.21887246
225	0x3e1410de	0.1445956
226	0x3e94b147	0.29041502
227	0xbc00f3ff	-0.007870673
228	0xbd897781	-0.06712247
229	0xbe686730	-0.22695613
230	0xbe31eb31	-0.17374875
231	0xbd9f89cf	-0.07789957
232	0xbe6c86a0	-0.2309823
233	0xbebc9842	-0.36834913
234	0xbe33d597	-0.17561947
235	0xbd779def	-0.06045335
236	0xbd6592d7	-0.05604824
237	0xbde64fef	-0.11245715
238	0xbdda173a	-0.10648961
239	0xbe5791d6	-0.21051726
240	0x3e832191	0.25611547
241	0xbd3d5175	-0.04622026
242	0xbe268764	-0.16262585
243	0x3ea5832f	0.32326648
244	0xbde19584	-0.11014846
245	0x3e54c220	0.20777178
246	0xbe654cd3	-0.22392587
247	0xbe06dc2b	-0.13169925
248	0x3c754b11	0.0149715105
249	0xbe16e1b7	-0.14734541
250	0xbcc982ae	-0.024598446
251	0xbdef6912	-0.116899624
252	0xbe5a3864	-0.21310574
253	0x3e82c888	0.25543618
254	0x3e13fc4e	0.14451715
255	0xbe4ff1df	-0.2030711

network.6.bias f4 [5]
0	0xbb19d0a6	-0.0023470311
1	0x3d2642fc	0.040591225
2	0x3be01708	0.006838683
3	0xbcdca639	-0.02693473
4	0xbd3131eb	-0.043260496
