models/dqn_cart_ep200.pth (torch, 406255 bytes, 8 tensors)

network.0.weight f4 [256, 4]
00000000: fd6b d53e 60ca 5ebe 2522 94be 2f96 c6be
00000010: cefc 7d3e 7166 983e 9bd4 033f 99e6 d53e
00000020: e67a a33d 6843 a9bd 4a80 10bd 40e2 c03e
00000030: bb82 ecbe 0925 59be 3ff4 393e 3c1d 1fbd
00000040: de2b 14bf 976f 01bf d0cb c43e ba51 fdbe
00000050: 1598 febe 55f7 d13e e877 f4be 26e3 f6be
00000060: 17d0 0f3f 98e7 83bc 951c 08be 4b84 233e
00000070: 4e8c dc3e d4a8 ae3d 97f6 9b3c 27f3 9a3c
00000080: 10fd f6bd b346 c93d 0342 6abe 0abb 21bf
00000090: 5323 b33d b3ba 0abf 7a2c 3abe 102d 0d3e
000000a0: b73b f93e 69b2 acbd 615b 9bbe 6c23 933e
000000b0: df10 0cbf 3704 2cbe 3f53 b5bc 5f84 563e
000000c0: b47a 09bf 5568 f1be c736 f4bc b73c ad3e
000000d0: b405 09bf 9d66 79be 072d d63e f349 8abd
000000e0: 2fd7 a53e 8d57 fa3e c033 dabe 358a 9c3e
000000f0: ac7e e53e a246 d0be 5de1 9c3c 149d c73e
00000100: c166 523e f288 69be e951 39be a818 cfbd
00000110: 4533 5d3b 504a b6be f437 653b d357 cfbe
00000120: ff82 963e 2680 16be 0409 a4be 5702 08bf
00000130: 4fb2 0cbf 55a2 b0be d2e8 3cbd 0e4c e9be
00000140: 0cdd 52be a3bf b8be f1f7 25be d02f 98be
00000150: 56f1 903e d294 c2be add4 6b3e df75 dc3d
00000160: ad90 b7be 5e7f 07be fcc4 f8be f2a3 b83e
00000170: ebb1 1dbe 4f33 9a3e 7141 4c3e 58b2 663d
00000180: 9793 aa3d 8aae b1be 253e a93e f9ea 24bf
00000190: 5ab7 bd3e 650b b4be e4cb 003f d921 95bc
000001a0: d079 58be d8b7 a33b 9ea5 b2be a52e 3b3e
000001b0: c92e 83be d276 babd 41c4 b23e 7175 a6be
000001c0: 333a 52be a90f bebe fd12 463b 0f85 923e
000001d0: af82 a2bc 94e1 983e b0fa edbd fdbb 413e
000001e0: 5d97 48be 15ed ad3e df8b 1b3e d6a7 e1be
000001f0: b2ca cf3d 9976 0fbf 3b44 043f cc4c 7d3e
00000200: 26fb 883e 6598 b1bc 3d85 86be 7030 3bbe
00000210: 4222 99bd 0c7e d03e e206 fe3e fd68 093f
00000220: 57d5 f1be abf5 3cbd 68b8 5cbe 06c5 e3bc
00000230: d826 99bd d8d4 1bbf a8d4 dfbc 8370 3fbd
00000240: b192 65be 0b82 f3be ea4c ecbe 5110 853e
00000250: 0089 f23e d47d aa3e 04fb b0bd 6fd6 10bf
00000260: a026 a8be 4eb5 0dbe ffe0 babe 8779 62be
00000270: f6a9 21be 3921 acbe 898d 7d3d d522 4c3e
00000280: f776 2abf 8094 533c 4338 fcbd 5054 a1bb
00000290: c669 763e fdd9 623e 9b51 003f ccc0 943d
000002a0: 0ddf 343f 5bad c5bb 992c 7fbe 466d 0fbe
000002b0: a073 07bf db4a 133f 5006 cbbe c94c 2a3c
000002c0: 31ca 153f 27c9 a93e 8204 c3be 33eb b43b
000002d0: b5cf 8d3e f539 5b3c 4964 f83e 3aba 063f
000002e0: f674 173f 579c 573e d795 503e e6fc 9b3e
000002f0: e2ee 99be d64f 01bf 260e d43d e826 4ebe
00000300: 821f 063f e07d c03e fdc6 fdbd 9bca aabe
00000310: 44b9 053f 8961 e5bd 266a 74be ab82 353b
00000320: e21f 10bf 9698 c63d 4bae 9a3e 7d02 e3be
00000330: fbbf a5bd 8663 c13d 06a1 4a3e af2e d5bd
00000340: 6f17 473e b5df dbbe df92 b3be 05e0 1b3d
00000350: 9374 743e 88bb 913e a436 153f 8abb d43e
00000360: d903 1d3f fd05 d4bd 026b de3e ab73 463c
00000370: fb6d a5bd 9aa5 f1be 7860 29bc 768f 29bd
00000380: 391f 04bf 073a bf3e 4ac7 663d f624 d0bd
00000390: ab26 273f dcf4 14bc d384 ea3c 1d25 fcbe
000003a0: 3936 073f 07c2 85bd 69fd 24be 4387 c8be
000003b0: a156 163e 44f9 cabe 088b 4dbd 35ad b2be
000003c0: f88d 35bf 72fa 8c3e 56f1 4c3e 8660 70be
000003d0: 706d 063f 36a1 d7bb 04a0 a63e 7c65 28be
000003e0: b9a3 e73d 90dd d13b caa1 383e 813b 8f3e
000003f0: 404e 1e3e 231f 833e 9d93 b5be 8cff e53d
0.4168395 -0.21756887 -0.289323 -0.38786456 0.24803469 0.29765657 0.51496285 0.41777495
0.079824254 -0.0826481 -0.035278596 0.37672615 -0.4619349 -0.21205534 0.18159579 -0.03884624
-0.57879436 -0.505609 0.38436747 -0.49476415 -0.49725404 0.41009012 -0.4774773 -0.48220176
0.56176895 -0.016101643 -0.13292153 0.15968435 0.43075794 0.08528295 0.019038482 0.018914772
-0.120599866 0.09827938 -0.22876744 -0.63176024 0.08746972 -0.5419113 -0.18181029 0.13786721
0.4867837 -0.084324665 -0.30343154 0.28737962 -0.54713243 -0.16798483 -0.022134421 0.20948933
-0.53702855 -0.47149912 -0.029811276 0.33835384 -0.5352433 -0.2435555 0.41831228 -0.06752386
0.32390735 0.4889492 -0.42617607 0.30574194 0.44823205 -0.4067889 0.01915043 0.3898703
0.2054701 -0.22806147 -0.18097652 -0.10112125 0.0033752483 -0.3560357 0.0034975978 -0.40496692
0.29396817 -0.14697322 -0.32038128 -0.5312857 -0.5495958 -0.3449885 -0.046120472 -0.45565838
-0.20592135 -0.36083707 -0.16207863 -0.29723978 0.28309125 -0.38004166 0.23030348 0.107646696
-0.35852566 -0.1323218 -0.48587787 0.3606258 -0.15399902 0.3011727 0.19946839 0.056322426
0.08328932 -0.34703475 0.33055225 -0.6442104 0.3705395 -0.35164943 0.5031111 -0.018204616
-0.21140218 0.004996281 -0.3489198 0.18279512 -0.25621632 -0.091046944 0.34915355 -0.32511476
-0.20530014 -0.37121323 0.003022372 0.2861714 -0.019837705 0.29859602 -0.116200805 0.18919368
-0.1958899 0.33969942 0.15190075 -0.4407336 0.10146083 -0.5604034 0.5166661 0.24736327
0.2675411 -0.021679113 -0.26273528 -0.18280196 -0.07477237 0.40721166 0.49614626 0.53675824
-0.47233078 -0.046132725 -0.2155472 -0.027803909 -0.07478112 -0.6087165 -0.027323082 -0.04673816
-0.2241924 -0.47560152 -0.4615243 0.2598901 0.47370148 0.33299124 -0.086416274 -0.565772
-0.3284197 -0.13838693 -0.36499783 -0.22116672 -0.15787491 -0.33619097 0.061902557 0.19935162
-0.66587776 0.012913823 -0.123154186 -0.004923381 0.24063787 0.22153468 0.5012452 0.072633356
0.7065285 -0.0060326285 -0.24919356 -0.14006528 -0.52910805 0.57536095 -0.39653254 0.010394284
0.58511645 0.3316128 -0.38089377 0.005521202 0.2769753 0.013380517 0.48514012 0.5262791
0.59162843 0.21055733 0.2036966 0.30466384 -0.30065066 -0.50512445 0.10354261 -0.20132029
0.5239183 0.37596035 -0.1239147 -0.333577 0.5223582 -0.11200244 -0.23868617 0.0027696292
-0.5629865 0.09697072 0.302111 -0.44337836 -0.08093258 0.09442811 0.19787988 -0.10409295
0.19442533 -0.42944112 -0.3507299 0.03805544 0.23872595 0.28463387 0.582865 0.4154933
0.61333996 -0.10352705 0.43441015 0.012112538 -0.08077618 -0.47196656 -0.010337941 -0.04139658
-0.5161014 0.3734896 0.0563424 -0.101633 0.6529338 -0.009091582 0.028627789 -0.49247065
0.5281711 -0.065311484 -0.16112293 -0.39165697 0.14681484 -0.396433 -0.05018142 -0.3489777
-0.7091975 0.27534825 0.20013937 -0.23474321 0.5251074 -0.006580497 0.32543957 -0.16444963
0.113105245 0.006404586 0.18030468 0.27975085 0.15459538 0.25609693 -0.35464182 0.11230382

network.0.bias f4 [256]
00000000: 8511 b4be 51a6 51be 374d bbbc e5da fe3e
00000010: 0051 86be a3f5 873d fb50 35be 7d06 a3be
00000020: f11f 77be 57c2 f43c 9f3d 20be 2598 8a3e
00000030: 6471 913e 1497 a73e 18d5 a8bc d88c 6a3e
00000040: fe90 c63e a24f 933e 37aa 573e 7fa6 c63e
00000050: e2c8 073e 2e9b 253e 30ce 4a3e 238d 67be
00000060: c6e1 82be 760d be3e 7a7a 8bbd 1b34 47be
00000070: c137 33be 9bc2 c0be 076b 48be 0723 563e
00000080: 7395 893e 59f5 833e 892e 573e 8c85 7bbc
00000090: f51a a73d 4803 b7be 6008 3cbe a52c 3c3b
000000a0: 21e9 8a3c df15 a5bd efee ef3e 2b0c 263d
000000b0: 3150 45be bf64 97be e220 2d3e 545a 3b3e
000000c0: dd74 bebd 4943 a4bc ded1 653d 3f99 a83e
000000d0: a956 e03e 0dd9 6fbe 5991 9e3e 4508 5bbb
000000e0: 433a e53e 4db9 d53e d033 943e 8f9c f93e
000000f0: 9895 d83e 2251 f63e b995 37be fc64 353d
00000100: 7109 863d c4bb b93e 9575 5c3e 3ba0 3e3e
00000110: 7e91 1e3e 7a3e bcbe e4f8 7e3e 6897 e23a
00000120: 8e35 383e 147f d53e b064 bb3e acce a03e
00000130: f54a 72be a10a bdbe 5373 a23e 6333 d53e
00000140: 29ab 62bd f15c 2b3e adfc 12be a4d5 663d
00000150: 27b5 e1be 3a24 db3e 3c4b 67be bd65 213e
00000160: c6d5 cd3e f758 8f3e adcd e1bd 8079 16bd
00000170: 0904 d4bd 56f2 bbbe 58af ebbe 0dfd c7be
00000180: 6767 903e ac3f a0bd 517d c1be d118 dd3e
00000190: d658 0ebc 0958 9a3e 8d28 a8be 5d8d e63e
000001a0: d74f c93e 0de0 213d c1ef a83b 5322 d8be
000001b0: 0481 1f3e 595e e53e 752c 34be 6de1 a2be
000001c0: 73cc 743e 327a 0dbe 5ef7 373e d40e 5dbe
000001d0: 5552 8abd 9504 cd3e 84fc f2bd 642c ce3e
000001e0: 0192 623d 7246 fe3e 46bf d0be 32b5 df3c
000001f0: 0540 23be 0b17 9c3e 72eb b53c 6212 9b3e
00000200: e03d 7fbe 6174 c6bd 8892 bc3e db93 d9be
00000210: ca9f 3abe 3c11 aebe 25dd 803e 184c 833e
00000220: cfca 973e d2d2 d6be eaf0 4bbd 5ed8 84be
00000230: 7468 023f e25c e73e 3fc9 d83e 93a6 e23e
00000240: ebfe e3bd df7c 51be ac68 153d 6232 abbe
00000250: 7c4d b03e fabe e73e 8004 2f3e 0561 b23e
00000260: 2676 413e cdf2 03be 2176 c83e 56f3 d63e
00000270: a542 8ebd cd9a ea3d 5195 6abd 8eb9 d8be
00000280: e186 88bd 900f f03e e088 2d3c c5bf 92be
00000290: 8f0b d93e 0574 24be c2d0 8c3c 6e38 a03e
000002a0: cc2e 833e c3ec 943e 72b1 01bd 0c29 123e
000002b0: f79a fc3e f358 a7bd 1964 bcbd 2b08 123d
000002c0: a3e0 dc3e f4df 603e a4f5 b0be 4a57 ba3d
000002d0: 45d5 273e 5d36 c6bd 21d8 debe 1f25 c7be
000002e0: 7d32 c9be ec62 a13d ff53 853d 9cd3 cc3e
000002f0: 8dde 8bbe 32b4 d9be f2cf 593d 8438 b63e
00000300: 7804 c03e bb16 afbe a12b f4bd 0400 233e
00000310: 3d5c d63e 4d69 d63d 9dec 93bc ae90 203e
00000320: e166 dc3e 843d 8e3e 75e3 ad3e bfac b3be
00000330: 602e 8f3c 2ff0 e13e 4aa6 8ebd 4d34 21be
00000340: 513d b83e eb7d 00be 9d96 f63d 4cb0 8c3e
00000350: 9940 063e ac70 7f3e 2b98 ce3e b359 bd3e
00000360: 1280 2bbe 74b9 c53e 0d3e 713e 7afb 973e
00000370: 267b 04bd adb0 a9bd a0b2 4d3d 8134 0ebe
00000380: c8d7 04be d23e bfbe 282d df3d 89ce b03e
00000390: 3360 243e 131f d53d e1af 9b3e d675 6abe
000003a0: cc40 d2bc d6ba 7b3e 1b74 16be 6f97 3ebd
000003b0: e738 213e 3220 fdbe 06fd c1be 2fdc 813e
000003c0: b026 23be 51f4 c93d 0df5 013f 1230 1d3e
000003d0: f98d 04be d076 743c 79d7 bfbe 90de 8bbd
000003e0: 3911 eabd 790c e8be 92d5 c43e a514 eebe
000003f0: a670 e338 2ba0 3b3e b414 9f3c f208 e83e
-0.35169616 -0.20473601 -0.022863967 0.49776378 -0.26233673 0.06638648 -0.17706673 -0.31840888
-0.24133278 0.029877825 -0.15648507 0.27069202 0.28406823 0.3273245 -0.020609424 0.2290529
0.38782495 0.28771693 0.21061026 0.387989 0.13260224 0.16172478 0.19805217 -0.22612433
-0.25562876 0.37119645 -0.0681047 -0.1945347 -0.17501737 -0.37648472 -0.19572078 0.209118
0.26871833 0.25773123 0.21013846 -0.015351664 0.081594385 -0.3574469 -0.1836257 0.0028713134
0.016956868 -0.08060812 0.4686198 0.040538948 -0.19268872 -0.2956905 0.16907075 0.18296176
-0.09299634 -0.020051615 0.056108348 0.32929417 0.43816116 -0.23422642 0.30970266 -0.0033421677
0.44771013 0.41742936 0.2894578 0.48752257 0.4230163 0.48108774 -0.17928208 0.04428576
0.065447696 0.36276066 0.21529229 0.1861581 0.15485188 -0.36766416 0.24899632 0.0017287554
0.1798918 0.41698515 0.36600256 0.31407678 -0.23661406 -0.36922172 0.3172861 0.41640767
-0.055339012 0.16734673 -0.143542 0.056356087 -0.4408352 0.42801076 -0.22587293 0.15761466
0.4020216 0.27997562 -0.11025558 -0.036736965 -0.10352332 -0.36708325 -0.46032214 -0.3906025
0.2820389 -0.078246444 -0.3779092 0.43182996 -0.008688172 0.3014529 -0.32843438 0.45029727
0.39318725 0.039520312 0.005155534 -0.42213687 0.1557656 0.44798544 -0.17595084 -0.3181261
0.23906116 -0.13816145 0.17965457 -0.21587688 -0.06753985 0.40042558 -0.1186457 0.40268242
0.05531502 0.4966312 -0.4077093 0.02730808 -0.1594239 0.3048633 0.022206996 0.30287462
-0.24925947 -0.09690166 0.36830544 -0.42495617 -0.18225017 -0.33997524 0.2516872 0.25643992
0.29646918 -0.41957718 -0.0497903 -0.25946325 0.5094063 0.4518805 0.4234104 0.4426771
-0.11132606 -0.20457791 0.036476776 -0.33436877 0.34434116 0.4526289 0.1709156 0.34839645
0.18892726 -0.1288559 0.39152625 0.41982526 -0.06946305 0.11455307 -0.057271305 -0.42329067
-0.06666351 0.46886873 0.010591716 -0.28661934 0.4239163 -0.16059883 0.017189387 0.31293052
0.2562164 0.29086885 -0.031663366 0.1427347 0.4933698 -0.081712626 -0.091987796 0.03565232
0.43140134 0.21960431 -0.3456241 0.0909868 0.1638995 -0.09678338 -0.43524268 -0.3889551
-0.39296332 0.07880196 0.065101616 0.40005195 -0.2731823 -0.4252029 0.053176828 0.35589993
0.3750341 -0.3419703 -0.11922384 0.15917975 0.41867247 0.10469303 -0.018057162 0.15680191
0.4304724 0.27781308 0.33962598 -0.35092732 0.017478168 0.44128558 -0.06965311 -0.15742607
0.3598428 -0.12548034 0.12040446 0.27478254 0.1311058 0.24945325 0.4035047 0.36982498
-0.16748074 0.38618052 0.23558827 0.2968405 -0.032344006 -0.08285651 0.05021918 -0.13887216
-0.12972939 -0.37352616 0.10897285 0.34532574 0.16052322 0.104063176 0.30407622 -0.22896513
-0.025665663 0.24582991 -0.14692728 -0.046531137 0.15744363 -0.49438626 -0.37888354 0.253633
-0.15932727 0.09861053 0.5076454 0.15350369 -0.12944783 0.014920905 -0.3746908 -0.0682956
-0.11429066 -0.45322016 0.3844419 -0.46500126 0.00010845186 0.18322818 0.019419052 0.45319325

network.2.weight f4 [256, 256]
00000000: 3dee b43d 5756 bcba 7a07 063c 2c3d 72bb
00000010: fc82 233d e619 a6bd 9a85 843d 0b55 3bbd
00000020: addd 8dbd 62ba 403d d872 6e3c ec62 6c3d
00000030: 35df 59bc 846e 14bd 329c 673d cde1 903d
00000040: 0f99 15bd bd2c 2c3d afe4 5cbc c7a6 4d3d
00000050: 42fc 14bd a009 503d 1df4 99bd 3a38 203e
00000060: 2455 26be 20d4 733d 844b 80bd a1d9 05bc
00000070: 471b d93a b1cc 453c ccf8 50bc 952e 43bd
00000080: c57b 113d 33c5 b0ba 060e e53b 073e 1b3e
00000090: d389 9dbd 8c04 bfbb edb6 5a3d a2a9 253c
000000a0: 96e1 e23d a6b8 37be 0a51 8abc 8d88 503d
000000b0: 6d2c ad3d da9e 933d 2340 a4bc e3bd c93c
000000c0: ec95 903d f95a 193e 8a13 c43d 77c5 c4bc
000000d0: 3654 ed3c 7a94 cbbd 22c0 653d e71f b63d
000000e0: c146 97bc 128e 203c 5590 90bc 8624 453d
000000f0: bb99 e13b 0562 063b 4e5e 903d 6c1f c13b
00000100: 228e a13c 289e 53bd fcbb 203c cf1d 1fbd
00000110: 1f69 05bc c75a dabc c9e6 9f3d 78ab 03bc
00000120: f1b1 0c3d b73f 003d ece8 5a3c 32e6 3f3d
00000130: fac4 17bd ab94 a4bb 599c 03bd eecb c73c
00000140: da9b 6a3d 7b83 243d 747d a53c b833 cf3d
00000150: 660d d73b 54b7 8a3d af60 8f3e 22dc 153d
00000160: 1b87 113d a568 46bb 8707 9bba 9d2e a93d
00000170: bb31 d6bd cf59 ba3c 283f 173e e057 ad3c
00000180: fbf8 fdbc 6e4f 00bd de37 45be c212 69bd
00000190: 2bb5 363d 99a3 473d c381 b53d 62a0 6f3d
000001a0: 876a 1dbd 733e b7bc e5cb b33d 063d 07bd
000001b0: b933 9a3d 2715 753d 037a 5dbe 6a32 983d
000001c0: 1597 27bc 11fc 293c b491 2cbd 361b 223e
000001d0: 28ea 193e 6629 bf3b 9dfb 0dbe db44 7f3d
000001e0: 5f64 c53d 7018 893c 150e c63c c164 683d
000001f0: 10ae fe3d 074e 8a3d 3d56 5a3b e2a0 83bd
00000200: 65ff 7d3d 4878 f53c 8292 f53c c2a2 0ebd
00000210: 3504 de3c cf62 363e 224c 753c 0eb2 863d
00000220: 2a51 8abc c89a 8abd 1658 12bd 4297 8b3d
00000230: b5cc edbc f9e8 24bd 7093 093d 78ca 453c
00000240: 673d 183e ad85 d33d 0aa6 72bd 4df2 883d
00000250: c457 c53c dfad 523d a9ff ec3c dbf6 443d
00000260: 5e0c 90ba 1128 3d3d c78e 1c3c 4c90 5f3d
00000270: 085f 143e db6e 9dbd d714 bd3c 22f6 e6bd
00000280: 82eb 2f3c ad94 aabc 81ca a03d e439 e23d
00000290: 91f8 103c 430a ad3d 0711 c23d 708f c2bc
000002a0: ac96 393d b7c3 24bc ca85 4f3e 26b5 0ebc
000002b0: 9701 0dbd 5a69 8f3c ee66 2e3d 1264 d23d
000002c0: 5473 923c c8c7 c0bc cbfc b23e a672 d7bc
000002d0: 7c09 2ebd 5bab 8f3d 24dd d83d 952b 7dbe
000002e0: 8337 ab37 f383 c43d 93b1 c33d 820e 3e3d
000002f0: 7d40 3a3e 3084 033e 45dc 913d bd17 3c3d
00000300: 8ef2 353d 1fe7 523d dbfe 92bd f7a2 f83c
00000310: 80cf bebc 7be8 563c 15e9 1e3e b08b 35bc
00000320: a87a 18bd ddeb 00bd e250 ecbc ea5c 1d3e
00000330: 1e9a 97bc eaf2 863d 5731 af3d 66f0 d33d
00000340: 746c 3fbd a92f e53c 3afa d6bc 658b f4bb
00000350: 4098 afba 474a 0ebd 52b2 313d ff6f 323d
00000360: 3adf 173d 0ee1 b83b 2bb8 283c 540f 3f3d
00000370: ef18 b13d 856a 0b3c 8bc9 cf3d 5a46 843d
00000380: 2b6f 5e3d b8fd 4a3e 2550 d2bb 07df a43a
00000390: 853e 903d c7fc 1e3d a118 583c f5af 3cbe
000003a0: 853b cb3c e689 e6bc d198 73bd 15df c1bc
000003b0: 9d5f c7bc 8557 933c 58c1 413e 7c08 f1bc
000003c0: 2a47 bf3d 719d 19bb c5a9 353d 0a96 143d
000003d0: 1d59 2c3d 223a 093e b315 ad3b 6fbc 003e
000003e0: 4bd6 ca3a afcd ea3d a920 6d3d d9b7 c53d
000003f0: ae9f df3d 98ce 953d 8257 b63d fd12 c6bc
0.08834503 -0.0014368993 0.0081804935 -0.003696273 0.03991984 -0.081104085 0.06470795 -0.0457354
-0.06927047 0.04705275 0.014553748 0.057711527 -0.013297846 -0.03623821 0.056545444 0.07074318
-0.03652292 0.042034853 -0.013482257 0.05020788 -0.036373384 0.05079043 -0.07517264 0.15646449
-0.16243416 0.05952847 -0.062644035 -0.008169563 0.0016563915 0.012072728 -0.01275463 -0.047651846
0.035518426 -0.0013486504 0.006990197 0.1516038 -0.076923035 -0.0058293995 0.053397108 0.010111244
0.11078183 -0.17941532 -0.016884346 0.050911475 0.08455739 0.07208033 -0.020050114 0.024626678
0.07059845 0.1497611 0.09574039 -0.02401994 0.028970819 -0.09940429 0.056091435 0.08892804
-0.018466355 0.009799497 -0.017646948 0.048130535 0.006884781 0.0020505202 0.07049237 0.0058936384
0.019721095 -0.0516645 0.009810444 -0.038846787 -0.008142739 -0.026654614 0.07807691 -0.008036487
0.034349386 0.031310763 0.013361197 0.04685039 -0.037053086 -0.0050226054 -0.032131527 0.024389233
0.057277538 0.040164452 0.020201422 0.101172864 0.0065628765 0.06773248 0.2800345 0.036586888
0.035529237 -0.0030274775 -0.0011827805 0.08260844 -0.10458704 0.022747902 0.14770186 0.021160066
-0.031002512 -0.03132575 -0.19259593 -0.056902654 0.04460637 0.048740003 0.08862641 0.058502562
-0.03843167 -0.022368645 0.08779124 -0.03301718 0.075293966 0.059834626 -0.21628575 0.07431491
-0.010228892 0.010375039 -0.04213114 0.15830693 0.1503073 0.0058337925 -0.13865514 0.062321525
0.09638285 0.016735286 0.024176637 0.05673671 0.124355435 0.06753164 0.0033315562 -0.0642717
0.06201114 0.029964581 0.029977087 -0.034823187 0.027101615 0.1781113 0.014971765 0.0657693
-0.016884405 -0.067678034 -0.035728537 0.068159595 -0.029028276 -0.040261243 0.033587873 0.012072198
0.14867173 0.10328231 -0.05924038 0.0668684 0.024089701 0.051435348 0.028930502 0.048086982
-0.0010990014 0.04618079 0.009555525 0.05458097 0.14489377 -0.0768716 0.023081226 -0.11277415
0.010737302 -0.020822847 0.078511246 0.11046198 0.008848325 0.08449223 0.09475904 -0.023750037
0.045309708 -0.010056428 0.2026588 -0.008710181 -0.034425344 0.01750629 0.04257863 0.10272993
0.017877258 -0.023532763 0.3495849 -0.026299786 -0.042489514 0.07015105 0.10589054 -0.24723656
2.0410638e-05 0.0959548 0.09555354 0.046400554 0.18188663 0.12843394 0.07122091 0.045921076
0.04442077 0.051489946 -0.07177516 0.030351145 -0.023292303 0.013116951 0.15518601 -0.011080667
-0.03722635 -0.031474937 -0.028847162 0.15367475 -0.018506106 0.06589301 0.08554333 0.10348587
-0.04673429 0.027976828 -0.026242364 -0.007462906 -0.0013396814 -0.034738805 0.04338295 0.04356384
0.03707812 0.005642063 0.010297815 0.046645477 0.08647334 0.008509283 0.10145863 0.06458731
0.054305237 0.19823349 -0.0064182454 0.0012578674 0.07043175 0.038815286 0.013189466 -0.18426497
0.024808655 -0.028141927 -0.05947191 -0.023665944 -0.024337584 0.017986069 0.18921411 -0.029422991
0.09339745 -0.002343979 0.044351358 0.0362759 0.042077173 0.13401082 0.0052821278 0.12571882
0.0015475241 0.11465012 0.057892475 0.09654207 0.10919128 0.07314795 0.089034095 -0.024178976

network.2.bias f4 [256]
00000000: 94e3 51bd 3166 3dbd 6967 11bc 348f 813c
00000010: 7ebc 183d 39a8 f73c 8df8 3dbd 5391 a63d
00000020: b55d 8aba 643c 3cbd 66d7 75bb ba19 943d
00000030: 0fe5 a83b 5030 1cbb d929 d63c 03d7 3c3d
00000040: 7b11 2c3d 6156 9ebb d22a 06bd 2ede fdbb
00000050: 0f7c 963d 25c8 57bc 6723 4cbd fe72 8d3d
00000060: 091c 353b b3d4 973b 82e9 3fbc 76a0 1d3b
00000070: 6740 373d 9138 5e3d b223 94bb 7ea8 5d3d
00000080: b9d2 8ebb 38bb 55bd 6ec8 cebc 1b9c 02bd
00000090: f126 c1bc ac0d 7abd 3549 173d cdd5 813b
000000a0: 1d81 37bd f0a8 e83c 89a1 e8bc fecb 8cbc
000000b0: 640d be3c 68be 8f3c d5f7 6abd 03ac 62bd
000000c0: 55da 753d c28b 553c a070 723c 9168 47ba
000000d0: d00e b73b 51e4 b33c 8ac2 703d 6d9c 813d
000000e0: f9fa 283d 5a77 32bd dce0 d9bc 5ea0 03bd
000000f0: 7d51 023d 9648 bc3c dd31 bf3c 3722 523d
00000100: 9462 7d3b a4cd bbbc 6ed1 ad3d 383b 08bd
00000110: 612f 08bd 032e 19bd f761 193d 6a09 24bc
00000120: 6eac 5a3d 9491 403d 386a 3ebd 87ee cf3b
00000130: 6e14 873c 7469 a73d 2a6d 573d 010a 9a3c
00000140: 8c90 653d 61ad 52bd 63a7 e7ba 687b f2bc
00000150: aba1 38bd af6d ec3c 16f1 aa3c 77e3 e5bc
00000160: 1c40 5f3d 411b abbc 8e01 aabc 557b 00bd
00000170: 80ca d53c 0a87 56bd e960 db3c 5991 2fbd
00000180: 0929 dd3c 4c5b a73d bd22 74bd ec00 ba3c
00000190: 35fc 14bd 5170 46bc c8c5 a03c 49b5 8d3d
000001a0: edd0 513d 5287 513c 0ac4 c13c 4465 843b
000001b0: 7da2 1abd 8f84 043d 8924 3dbd ccf5 f4bb
000001c0: 1ff2 bf3c 631a 153d 855d 59bd cffb 4cbd
000001d0: 6245 ec3b b3a8 2b3c 94a9 2bbc c541 2f3d
000001e0: 75d6 af3c 414b 043e d07b 923c 7535 843c
000001f0: af70 97bc 4185 0f3d 1e9a 38bd 75ec 043c
00000200: 47f7 00bd dae8 743b fe68 633d 34bf 8c3d
00000210: 8580 67bd c69c 6cbc d152 72bd d476 4d3d
00000220: f0f7 cd3c 1b8d 963d 62d2 e53b 29f1 ae3c
00000230: ac78 273d 5943 d03c 158b 05bc 3d24 95bc
00000240: dd08 7a3b 3023 353d e1f8 46bb a8d3 24bd
00000250: c11a b93b 5865 653d bd61 46bd d510 053c
00000260: 09e3 20bd f4a8 5d3d c5a0 8b3c 602a e83c
00000270: b4d9 973a eb69 1cbd e0c0 bbbb 8ea9 a1bb
00000280: 128b 943c 5c7e 74bd ecf3 913d 80d8 0c3d
00000290: cea3 4b3c 822b dabc f4ad 13bd 83a8 093d
000002a0: 2cf9 3b3d 823c 8f3d 88bd 313d 8d03 60bd
000002b0: 0ce3 3e3c 9c5f 963d 80ee 1ebd fa15 1dbd
000002c0: 37c9 00bd 066c a4bc c270 933c 593b 213c
000002d0: 057f 6f3d ae34 dd3b 61f2 1dbd 3888 9f3c
000002e0: 174b 50bd 8636 bf3c 4c5b 27bb 727d 783d
000002f0: 3b9f 86bd 3191 cb3b f67f d43c 3696 df3c
00000300: 96a3 44bd 477d cd3c 98e4 203d 0875 53bc
00000310: ae8f d03c 4799 bf3c 63f5 b83d ccbc febc
00000320: f12a 213d b687 5a3d 0237 583d b343 a3bc
00000330: d3f9 53bd cfb7 ed3c 9656 533d 6993 31bd
00000340: f676 edbc 07f3 2f3d 0c5f aa3d 76dd 50bd
00000350: 3841 603c 733e 193c 09a7 033c a3b7 7e3c
00000360: e57b 1fbd ab65 cf3b 3385 3d3d 2550 03bc
00000370: 2a99 193c 0d4b 753d 4f94 6ebd 23c4 9f3d
00000380: 693c 5bbc d57d 2a3d 2195 6abd 5d07 193d
00000390: 7e51 f3bc 71e3 133b add6 27bd 33f0 aa3b
000003a0: ff8b b7bc df50 29bd 0340 2fbc 15f1 e63c
000003b0: e8f6 45bc d65f 053d b975 c43c 8341 28bd
000003c0: 86b9 8b3d 8a56 7dbd 850e 52bb bfdc 8c3d
000003d0: 8f08 8e3b 43d7 e1bc 4213 7d3d c65e 04bd
000003e0: aecd 23bc 1a8e f83c 50e4 343d 7ded ddbc
000003f0: 7d82 c63c 8bfb 8ebc 7c3f 863a b2eb b7bc
-0.051242426 -0.046240035 -0.008874753 0.015815355 0.037289135 0.030231582 -0.046379615 0.08133187
-0.0010556491 -0.04595603 -0.003751242 0.072314695 0.005154259 -0.0023832507 0.026143001 0.04610349
0.04200886 -0.0048320745 -0.03275568 -0.007747433 0.07347881 -0.013170277 -0.04983845 0.06906699
0.0027635118 0.00463351 -0.011713387 0.002405194 0.044739153 0.054253165 -0.004520857 0.054115765
-0.004358616 -0.0521805 -0.025242057 -0.031887155 -0.023578139 -0.061048195 0.03693505 0.0039622546
-0.044800866 0.028400868 -0.028397338 -0.017187115 0.023199745 0.017546847 -0.057365257 -0.055339824
0.06002267 0.013033809 0.01479736 -0.0007606829 0.0055864826 0.021959456 0.058779277 0.06328664
0.04125497 -0.043570854 -0.02659648 -0.03213536 0.031815995 0.02298383 0.023339206 0.05130216
0.0038663493 -0.022925206 0.08487211 -0.0332596 -0.03324831 -0.037397396 0.037446942 -0.01001201
0.053387098 0.047013834 -0.046488017 0.0063455733 0.016489234 0.081744105 0.05259434 0.018803598
0.056046054 -0.05143488 -0.0017673786 -0.02959986 -0.045076054 0.028860895 0.020866912 -0.028062565
0.0545045 -0.02088702 -0.020752694 -0.03136762 0.026097536 -0.052374877 0.026779609 -0.042863224
0.026997106 0.0817171 -0.05960344 0.022705518 -0.036373336 -0.012111739 0.01962556 0.06919343
0.051224638 0.0127886105 0.023653049 0.004040392 -0.037752617 0.03235298 -0.04617742 -0.0074755903
0.023430882 0.036402117 -0.053067703 -0.05004483 0.0072104195 0.010477233 -0.010477442 0.042787332
0.021464566 0.12919332 0.017881304 0.016138772 -0.018486349 0.03503919 -0.045068853 0.008113016
-0.031485822 0.0037370236 0.05552005 0.068724066 -0.05651905 -0.014441675 -0.05916101 0.05016215
0.02514264 0.073511325 0.007013605 0.021355228 0.040886566 0.025422739 -0.0081508355 -0.018205756
0.0038152256 0.04422301 -0.0030360746 -0.040240914 0.0056489413 0.056004852 -0.048433054 0.008121689
-0.039279018 0.054116204 0.017044434 0.028340518 0.0011585266 -0.03818695 -0.0057297796 -0.0049335426
0.01813272 -0.05969082 0.071266025 0.034386158 0.012429191 -0.026632074 -0.036054567 0.03360797
0.045891926 0.06993963 0.04339364 -0.054690886 0.011650812 0.07342455 -0.03880167 -0.038351037
-0.031441893 -0.02007104 0.017998103 0.00984081 0.058470745 0.0067506647 -0.03856123 0.019474134
-0.05085286 0.023341428 -0.0025536595 0.06066651 -0.065733396 0.0062123765 0.025939923 0.027293306
-0.04800757 0.025084151 0.039280504 -0.01290632 0.025459137 0.023388518 0.09031179 -0.031095885
0.039347593 0.05335208 0.052786835 -0.019929742 -0.051751923 0.02901831 0.051596247 -0.043353472
-0.028987389 0.04295638 0.0831891 -0.05099245 0.013687424 0.009353268 0.00803543 0.015546712
-0.038936514 0.0063292584 0.046269607 -0.008014713 0.009374896 0.059886027 -0.058246907 0.07801082
-0.013381102 0.04162391 -0.057271127 0.037360538 -0.029701944 0.0022565986 -0.040976215 0.0052166223
-0.022405623 -0.04133689 -0.010696414 0.028191129 -0.012082793 0.0325621 0.023981916 -0.0410781
0.06822495 -0.06185011 -0.0032052111 0.068780415 0.0043345164 -0.027568465 0.061785944 -0.032316945
-0.009997768 0.030341197 0.04416305 -0.027090782 0.024232144 -0.01745393 0.0010242308 -0.022451255

network.4.weight f4 [128, 256]
00000000: 1362 37bd 4a4d 2a3d cb46 78bb 00fe 56bd
00000010: 589e 703d 6de4 aebc c464 833d 7b1f f53c
00000020: ccec 903d 99f3 2c3d 650c cd3c 2a9a 313d
00000030: 0415 abbc e8c6 ebbc b0dc b93b b722 c4bc
00000040: 4783 43bd 7bb9 a83c 2610 d23c cf92 c83c
00000050: b01d 4f3d 11b4 813d f956 c13c 75ea 03bd
00000060: 598f 953c 71a0 d1bc 35ac 46bd 10ac 0b3d
00000070: d991 aebc bf88 0abd 69c2 403d 37c3 433d
00000080: eb0c 91ba 4008 60bd 1a43 e33c a5b8 6abd
00000090: 9bad 8bbd dd94 7b3d 2b3f 5bbd f549 81bd
000000a0: c93c 8dbc 0641 87bd d928 f2bc bfe5 a1bd
000000b0: 31c2 873b e1ae 123d ec61 dbbc 81a2 8ebc
000000c0: 1717 0bbd 0825 0a3c f75c 6a3d d612 6f3d
000000d0: 24af 1f3d d708 2d3d 2efc 493d b503 663b
000000e0: 3f81 dbbc 0f75 7cbd 2f11 343d 44a5 863c
000000f0: 3a7f 4b3d 5b6e 9b3c 532f e1bb 41f0 973d
00000100: 5680 4fbd adaf 0bbc fe4f b3bb 2493 69bd
00000110: 46f2 b0bc 8922 8b3d d53d 033d 5f96 86bc
00000120: 6f79 d63c d5ad 3fbd 8908 21bd abee 00bd
00000130: 5498 6d3d 3cf2 843b 8d7d 333c 8b6e c53b
00000140: ae1a 8fbd deb8 4bbd 1127 3cbd ba1d cebc
00000150: a35a 823d afe7 2dbc 04b1 b73c d756 15bd
00000160: 1524 1d3d a842 e93c aa93 933c c9e2 dabc
00000170: df4d 793d ff84 fd3c e556 043d 4343 983a
00000180: d2f6 1ebc cd8c 85bd c3c7 283d 23d3 ed3c
00000190: f0b7 28bd 0065 463d 6c9f 2ebd 44ae 583d
000001a0: 89aa 673d f638 d4bb 1675 39bd a039 873d
000001b0: af65 a2bc 7dc8 3abd f988 7dbc 7193 223d
000001c0: d2fe 2cbd e489 ebbc 4828 86bc 8073 7fbd
000001d0: 2a6f 273d 308c 863d 4d41 2dbd c83f 1c3d
000001e0: 6aa5 083d 0fc1 bd3c 70ba 373c 817b 86bc
000001f0: 8f15 1ebc f033 f0bc 34e1 81bd c022 abbc
00000200: 8149 5b3d 0efc 4fbd a291 7dbd 2456 09bd
00000210: 4661 35bd c22a f33c 0eb8 ba3c 12d9 13bd
00000220: 4989 f2bc 8fca 07bc e5f3 99bd 4ed7 27bd
00000230: 3d52 3a3d aec6 80bc a621 94bb ce76 e8bc
00000240: e374 44bd fa0f 2d3d a105 e3bc 2114 1c3d
00000250: c183 433d 07ef 033d 9764 b13c 737e 24bd
00000260: b25f f23c f907 dabc b22a 153d efd5 13bc
00000270: 3461 0cbd 60d7 d73c 22a9 36bd fc25 87bd
00000280: 72ad ed3c b2ca 58bb 7b00 0f3d 4438 5d3b
00000290: 5ff5 26bd c922 43bd 18e2 a6bc 5c44 f0bb
000002a0: 3a5e 5abd a7a4 b1bc 724a 2d3d 6d08 c0bc
000002b0: 86de 3d3b 6f43 6e3c 6d12 e53c 7daa 573d
000002c0: 1460 133d 4538 293c 7622 ce3a e3a4 9d3c
000002d0: 8b0d 80bc fc87 163c c905 89bc 55df 5bbd
000002e0: cfee e8bc dd38 48bc a3ec 623c e0bc 5ebd
000002f0: 98fe dfbc 080b ddbb 3ca1 00bc 2734 4fbd
00000300: c133 bbbb 363e 2fbd d9bd 5e3b 1777 23bc
00000310: 4cbb 3abd 3e62 72bd 791a 24bd a66d f4bc
00000320: 8726 1cbd 96a9 3ebd 92f4 ebbc 26c2 6c3d
00000330: 7a04 203d e9ce 4dbd 9471 72bc 515c a43c
00000340: 1ccd 473d 4acc c6bc 781d aabc d9a0 d038
00000350: b011 dabc 07f6 333d 58d4 543d c2a8 133c
00000360: aebb 1dbc f150 533d ae2f 50bd 0a45 04bd
00000370: df80 3d3d 18f0 e6bc 182c 53bd 68f7 b8ba
00000380: 45d5 a33c cc04 4cbd 3f64 613b fa31 893b
00000390: 505a d63b f7e4 94bc 42f9 9039 181f 3c3c
000003a0: a5d8 063d 83fa 6ebd 675a 373d a1aa 47b9
000003b0: 8d34 29bd 5d26 de3b f711 69bd 83ac 2ebd
000003c0: 7e0e b8bc e557 b43c 7fd3 643c 2570 2fbc
000003d0: 515d 4d3d 5c3c b6bc 24f9 f23b 0ea8 6cbd
000003e0: 3bd0 873b 2b7f 2f3b 211f 30bc 5888 563b
000003f0: 9d2a 9e3b 8d5e 2abd ef6a 5d3c 780e 1ebd
-0.044771265 0.041577615 -0.0037883993 -0.052488327 0.05874476 -0.021349156 0.06415704 0.029922238
0.070764154 0.0422245 0.025030324 0.043359913 -0.020884044 -0.02878137 0.00567206 -0.023942335
-0.047732618 0.020596256 0.025642466 0.024484066 0.05056542 0.06333173 0.023601042 -0.032206018
0.01825683 -0.0255892 -0.048504073 0.03409964 -0.02130978 -0.033821817 0.047060404 0.047793593
-0.0011066472 -0.054695368 0.027741957 -0.057304997 -0.06820222 0.061421264 -0.05352704 -0.06312934
-0.017240899 -0.06604199 -0.029560493 -0.07905149 0.0041430225 0.03581131 -0.026780091 -0.017411472
-0.033957567 0.0084316805 0.057217564 0.058367573 0.038985386 0.04224476 0.049312763 0.0035097424
-0.026795028 -0.061635073 0.0439617 0.016436227 0.04968188 0.01897352 -0.0068720966 0.07418872
-0.0506595 -0.008525771 -0.0054721823 -0.05702509 -0.0215999 0.067936964 0.03204139 -0.016429124
0.02618095 -0.04679664 -0.03931478 -0.03147761 0.0580066 0.004057197 0.010955227 0.0060251406
-0.069875106 -0.04973685 -0.045935694 -0.02516066 0.06364944 -0.01061432 0.022423275 -0.03645977
0.03836449 0.028474167 0.018014748 -0.026719468 0.06086528 0.030947207 0.03230943 0.0011616725
-0.009702401 -0.06520996 0.041206133 0.029031342 -0.04119104 0.048436165 -0.042632505 0.052900568
0.05655912 -0.006476517 -0.045277677 0.06602788 -0.019823877 -0.045601357 -0.015474551 0.039691392
-0.042235203 -0.028752275 -0.01637663 -0.06236601 0.0408775 0.065697074 -0.042298604 0.038146764
0.033360876 0.023163347 0.011213884 -0.016416313 -0.009648695 -0.02932164 -0.06341782 -0.020890594
0.053536896 -0.050777487 -0.061906464 -0.033529416 -0.04428222 0.029683474 0.022792842 -0.036095686
-0.029606478 -0.00828804 -0.07517222 -0.040976815 0.045488585 -0.015719738 -0.004520613 -0.028376963
-0.047963034 0.042251565 -0.027712645 0.038105134 0.047733072 0.032210376 0.02165441 -0.040159654
0.029586647 -0.02661513 0.03641767 -0.009023174 -0.034272388 0.026347816 -0.04459489 -0.06599042
0.02901337 -0.00330798 0.034912568 0.003375546 -0.040761348 -0.047640596 -0.020371482 -0.007332368
-0.053312518 -0.021684958 0.042307325 -0.023441518 0.0028971746 0.014542445 0.027962888 0.052652825
0.0359803 0.010328357 0.0015726823 0.019243663 -0.015631458 0.009187695 -0.016726391 -0.053679783
-0.028434185 -0.0122205885 0.013850364 -0.054379344 -0.02734308 -0.0067457 -0.007850941 -0.050586846
-0.0057129567 -0.04278394 0.003398767 -0.009977124 -0.045588776 -0.059175722 -0.04006431 -0.02983744
-0.03812268 -0.04654845 -0.028803144 0.057802342 0.03906677 -0.050246153 -0.014797587 0.020063551
0.048779592 -0.024267334 -0.020766005 9.948173e-05 -0.026619762 0.0439358 0.05196032 0.009012403
-0.009627266 0.051590864 -0.05082672 -0.032292403 0.04626548 -0.028190657 -0.051555723 -0.0014111819
0.019999156 -0.049809262 0.0034392027 0.004186866 0.006541528 -0.018175585 0.00027651532 0.011482023
0.032921452 -0.058344375 0.04476395 -0.00019041683 -0.041309882 0.0067794756 -0.0569019 -0.04264499
-0.022467848 0.022014568 0.01396644 -0.01070789 0.05013782 -0.022245578 0.007414954 -0.057777457
0.004144696 0.002677868 -0.010749609 0.0032735076 0.0048268572 -0.041594077 0.0135142645 -0.038588017

network.4.bias f4 [128]
00000000: 99ab 463d 85a7 c0bb 2957 163d 2690 853c
00000010: c9f8 e13c f5bf 793d d62b 423d a622 943d
00000020: 7684 213d 1438 e33d bbd4 223d b401 8a3d
00000030: 4666 70bd d6c4 92bc fa0d 52bd 3da2 d8bc
00000040: 3a37 9b3c 877a c33a 4354 6e3d 23b2 d73c
00000050: 7622 06bd 56c6 333c dfce 823b b09f 4d3d
00000060: 1042 9bbb 7ee8 0d3d f088 693d 1eb4 90bc
00000070: 839b 2fbc 0b51 453d b6e0 80bd 26c9 193d
00000080: 99d2 573d d2fe 5ebd aa08 21bd 0a82 c93c
00000090: 78a2 093c b404 2d3d 88ad be3a cb5c 703d
000000a0: efee 5abd 03f1 f6bc 1a9b 99ba 17b0 5dbc
000000b0: 2f34 29bd 4327 5fbd cf1e a4bc 9fdf 523d
000000c0: 85f0 20bd 51dd 2ebd 8c29 cc3c 12bd 88bc
000000d0: c228 59bd 9899 853d 4c2b 5f3d 28a3 b4bc
000000e0: f0b9 ac3c 1b10 ddbc 904b 3f3b 58b6 103c
000000f0: 4620 b8bc b6d1 1fbd 56d0 923c c363 e2bb
00000100: c0b0 cabc 936d 003d 3431 6abd d3de 213d
00000110: 5cf0 46bd b78e 243d 100b af3c 8b57 09bd
00000120: bd16 a93c 8d34 6f3d 569e 213d 3b35 423c
00000130: 11fa 7dbc 7a3f 083d e2cb de3d 5255 d0bc
00000140: 15cc 04bc 239c 393d 2184 243d 8657 393d
00000150: c40f 0d3d 9232 64bb bcaa 553d 762d 2dbd
00000160: 54df f53c abf0 b33d d732 1dbb 18dd 203d
00000170: bd68 34bd b490 eb3c 3e85 46bc b5d3 153b
00000180: 97c8 a13d 5cdd bd3c 1ad7 983d d3ef fc3c
00000190: 803f a9bb 1f18 72bd 2464 a33b 6d72 a03c
000001a0: 6a44 acbc 47f7 8ebb 64c0 413b 88e4 543b
000001b0: f885 463d eac7 683d 3e87 293d e6b3 da3c
000001c0: 0555 673b 43a8 3fbd f570 a5bc 3320 c13d
000001d0: f41d 483c 51d6 8e3d 000b 76bd 5f91 efb7
000001e0: 2b38 d6bc 068a 433d 9a12 04bd 399f b13c
000001f0: 6c1c dbbc d790 cd3d d7d4 1a3d 81f4 963b
0.048503492 -0.005879345 0.036704216 0.016304087 0.02758445 0.06097408 0.047405086 0.07233171
0.039432965 0.110946804 0.039753657 0.06738606 -0.058691286 -0.017916124 -0.05128286 -0.026444549
0.018947233 0.0014913835 0.058185827 0.02633006 -0.03274771 0.01097258 0.003991946 0.050201118
-0.0047381 0.03464555 0.05701536 -0.017664012 -0.010718229 0.04817299 -0.0629286 0.037545346
0.052691076 -0.054442234 -0.039314903 0.02459814 0.008400552 0.042240813 0.0014547566 0.058682244
-0.05345052 -0.03014422 -0.0011719198 -0.013530753 -0.04130953 -0.054480802 -0.020034222 0.051482793
-0.039291877 -0.042691533 0.024922155 -0.016691718 -0.053017385 0.06523436 0.05448465 -0.022050455
0.021084756 -0.026985219 0.0029189326 0.008832537 -0.022476327 -0.039018355 0.017921608 -0.006908865
-0.024742484 0.031354498 -0.05717583 0.039519142 -0.04856907 0.040175166 0.02136758 -0.033530753
0.020640725 0.058399726 0.03945764 0.011853511 -0.015501515 0.03326366 0.10878731 -0.025431309
-0.008105298 0.04531492 0.04016507 0.045249484 0.034438863 -0.0034820181 0.052164778 -0.042279683
0.030013718 0.08786138 -0.0023986602 0.03927335 -0.0440452 0.028755523 -0.012116728 0.0022861783
0.078995876 0.023176841 0.07462902 0.030876076 -0.0051650405 -0.059105035 0.004986303 0.019585812
-0.021028716 -0.004362974 0.0029564137 0.0032484848 0.048467606 0.056831278 0.041388743 0.02669711
0.0035298478 -0.046791326 -0.020195464 0.0942997 0.012214173 0.06974471 -0.060069084 -2.8558714e-05
-0.02614983 0.04773905 -0.032244302 0.021682369 -0.026746951 0.10037392 0.037800636 0.004606784

network.6.weight f4 [5, 128]
00000000: 47d7 a93d ff3f 32be 41ef 043d 8150 8cbc
00000010: 3cce b1bd 487c 0bbe c907 2ebe 9267 383e
00000020: 863a 893d e4fa 083e f461 9ebd a8e7 c5bd
00000030: 94e8 c13b d4af 1bbe ad4c 16be 56f4 3b3d
00000040: 0b35 1e3b e5b1 9abb 8a3f 02be 3c06 2cbd
00000050: c93c d9bd f102 0dbe 94a1 86bb 77e0 55bb
00000060: 9e4e 20be 9576 38bc cfd1 a83c b07f a8bd
00000070: 2c1c 80bd e2aa e7bd 944d 9fbd efeb f43d
00000080: 17b2 16be 2279 413d 9f63 89bd 89d1 0dbb
00000090: d9ff 06be 41ed 063e 7d6d 0dbe 44df 473d
000000a0: b400 0ebe 7651 25bd c85e 10be 090a 1abe
000000b0: 38c1 dcbd d532 3b3c c34a 22bc bd94 bcbd
000000c0: 9e46 9a3d 6e20 4dbc 6ef0 f6bd 17ed f1bd
000000d0: 6708 ecbc a2c1 5f3d 8f63 f2bd 2a15 0b3d
000000e0: 7fc2 0fbd 449c 1b3d e08e 98bd f805 25bd
000000f0: 04bd c43d 5321 f3bd 37b8 06bd 4d28 02bc
00000100: ec79 22be afca f63c c2c0 6dbd 9716 37be
00000110: 9af4 38be 0f96 61bd 2fd1 c3bd b159 aebc
00000120: d163 72bc 13bc ebbd aa99 0d3d 7fef 1cbe
00000130: 0d1f 2bbe a5cc 73bd ba4c 173e c7a0 2b3d
00000140: ed7d 9bbd 063b 20be da25 303e 41ff a3bd
00000150: 778d bb3d 66af 32be acbd ef3c eb98 ecbd
00000160: 1752 afbd 46ed 493e 6dcc 2abe 309d a03d
00000170: ce30 e13c 7103 eebc c12a 073d 0c2c 99bd
00000180: 6f9a 2a3d 9489 fdbd a2ae 163e 4f1a 2c3d
00000190: e171 923d d8d9 30be 1f8a 2abe c84e 97bc
000001a0: 58e9 e1bd d277 203c 6d84 d9bd 6ea8 edbd
000001b0: 9616 06be 63f4 a4bd 21b9 05be 2f9c 90bd
000001c0: 24e8 613e 1a87 6d3d 01be 08bd ed99 c03d
000001d0: c1d7 cebd d532 0f3e 9852 3cbd 71b0 debd
000001e0: b268 20bd 7843 14be edf1 8cbb c4b5 29be
000001f0: 7db3 11be f750 1e3e 7c9b 133c bb81 2dbe
00000200: 060f ae3d addd 01bd 8c41 a63c f009 f2bd
00000210: eb85 6ebc fcde 88bd 7ef8 1cbd e95d 90bc
00000220: f2f3 81bc de5d 4f3e e2b2 10be 03d0 37be
00000230: 7a05 e23c 5d9a a4bd 8ad3 10be f273 353d
00000240: f3ec 72bd 3d9d 01be ab8c 46bd acdb 8dbd
00000250: 6983 8bbd 0260 0bbe a63a fdbc f915 2bbe
00000260: 3f60 ecbd 6e73 8abd 63a4 7b3d 3bdd ab3d
00000270: 7d3f 893d f2ba 33be a57e a33d d372 383d
00000280: 6de4 e2bd 1f71 093e 6aac 0e3d 691c 213d
00000290: 4996 23be 7f92 9d3d 93b2 99bc 91b5 463d
000002a0: 2727 49be e57e 753b 3842 d5bd 6a07 26be
000002b0: e4bc 19be a55f a93d de28 cf3c 23ba 0bbe
000002c0: 014c b1bd 0e97 18bc 3530 0ebe b6bb 76bd
000002d0: 2c72 1f3e 433a c03d 9076 3ebe d4cb ba3c
000002e0: 520c b53e d861 b43c caab 15be 471b 16be
000002f0: 6fe3 c83d 15a1 0cbd f973 a03d a85e 7d3d
00000300: ca22 f1bd 7365 1f3d e2a3 abbd 7282 bfbd
00000310: c57d adbd e625 a1bd cdff 0fbe 332a f03d
00000320: e40e 13be 4a58 b9bd 25e8 fe3c 9e50 c8bc
00000330: 4f07 3bbe 1370 39be 1ef3 133e 3ac1 40bb
00000340: 1f6e 21be a4bb b8bd 2a1f 723e ac68 32bc
00000350: d04d 2d3d 4d16 45be c34a 7a3d d6e1 f6bd
00000360: 9282 19be b3a9 f83d 2187 91bd 5fe3 ba3d
00000370: 3050 983d d6b9 833d 1002 9b3d f8d9 e3bd
00000380: db19 893a 4119 653d 6bb7 473e 2dc6 03bc
00000390: af49 8cbd 9b63 2dbe e9a7 09be dffc 3dbd
000003a0: cee5 33be 717a 59be 1631 febd 5617 05bc
000003b0: f662 adbc 6608 92bd 17eb a7bd 4ec6 2dbe
000003c0: 8deb 3e3e 9b64 41bd 56c4 f7bd 6947 7c3e
000003d0: 9525 a3bd b886 e93d 9368 3abe e8bd b3bd
000003e0: 45d9 f6bb 8733 d1bd f3c2 cdbc 7105 89bd
000003f0: fc70 31be 41cf 413e b66c 3f3d d727 f0bd
0.08293014 -0.17407225 0.032454733 -0.017128231 -0.08681914 -0.13621628 -0.16995157 0.18008259
0.067006156 0.13376957 -0.07733527 -0.096633255 0.005917618 -0.15203792 -0.14677687 0.045887314
0.0024140503 -0.0047209137 -0.1271955 -0.041998133 -0.10607297 -0.13770653 -0.004108617 -0.0032635012
-0.1565499 -0.011258741 0.020607857 -0.082274795 -0.06255373 -0.1131189 -0.07778469 0.11959063
-0.14716373 0.047234662 -0.06708454 -0.0021639785 -0.13183536 0.13176443 -0.13811298 0.048796907
-0.13867456 -0.04036089 -0.14098656 -0.1504289 -0.10779041 0.0114256935 -0.00990552 -0.09208057
0.075330004 -0.012519939 -0.12057577 -0.118127994 -0.0288126 0.054628022 -0.118353955 0.03395573
-0.035097595 0.037990823 -0.07449126 -0.040288895 0.09606364 -0.118715905 -0.032890525 -0.007944179
-0.15866822 0.030125944 -0.058045156 -0.17879711 -0.18062058 -0.055074748 -0.09561383 -0.021283003
-0.014794306 -0.11510482 0.034570374 -0.15325736 -0.16711064 -0.059521336 0.14775363 0.041901376
-0.07592378 -0.15647516 0.17201939 -0.0800767 0.09157842 -0.17449722 0.029265247 -0.11552604
-0.08560579 0.19719419 -0.16679545 0.07842481 0.027489092 -0.029054375 0.032999758 -0.074791044
0.041651186 -0.123797566 0.14715055 0.042017277 0.07150627 -0.17270601 -0.16654252 -0.018470183
-0.11030835 0.009794192 -0.10620961 -0.11604391 -0.13094553 -0.080544256 -0.13058902 -0.0706104
0.22061211 0.05799017 -0.033384327 0.09404359 -0.100997455 0.13984235 -0.045977205 -0.10873497
-0.039162345 -0.14478862 -0.0043013007 -0.16573244 -0.14228626 0.15460573 0.009009238 -0.1694402
0.08498959 -0.031705547 0.020294927 -0.11818302 -0.014558296 -0.06683156 -0.038322918 -0.017622905
-0.015863393 0.20250651 -0.14130738 -0.17950444 0.027590502 -0.08037255 -0.14143196 0.044300027
-0.059308004 -0.12657638 -0.048473995 -0.06926665 -0.06812174 -0.13610843 -0.030911755 -0.167076
-0.11541795 -0.06760298 0.06143607 0.08391806 0.067015626 -0.17551783 0.0798314 0.04503138
-0.11078725 0.13422059 0.034832396 0.039333735 -0.15975298 0.076939575 -0.018761909 0.048513
-0.19643842 0.0037459668 -0.10413021 -0.16213766 -0.15013462 0.08270196 0.025288042 -0.13645224
-0.08657075 -0.009313358 -0.13885577 -0.06023761 0.15570897 0.093861125 -0.18599916 0.022802271
0.35360962 0.022019312 -0.14616314 -0.14658843 0.098090045 -0.034333307 0.0783462 0.06185785
-0.117742136 0.03891511 -0.083808675 -0.09351052 -0.08471254 -0.07868557 -0.14062424 0.11726799
-0.14361149 -0.09050043 0.031116555 -0.024452504 -0.18264507 -0.18109159 0.1444821 -0.0029412047
-0.15764664 -0.090201646 0.236447 -0.0108892135 0.042310536 -0.19246788 0.061106455 -0.120547935
-0.14991215 0.121417426 -0.07105852 0.09125399 0.074371696 0.0643193 0.07568753 -0.111255586
0.0010459976 0.055932287 0.19503562 -0.008042854 -0.068499915 -0.16932528 -0.13442959 -0.046383735
-0.17568132 -0.21238114 -0.12411706 -0.0081232395 -0.021165352 -0.07130508 -0.08199137 -0.16970178
0.18644543 -0.047215085 -0.12097995 0.24636616 -0.079661526 0.11402649 -0.18203954 -0.08776456
-0.0075332248 -0.10214906 -0.025117373 -0.06690491 -0.17328256 0.18926717 0.046734534 -0.11726349

network.6.bias f4 [5]
00000000: 7cfe 00bc a304 153d 8428 5dba bb93 fabc
00000010: 05c2 33bd
-0.007873174 0.036381375 -0.0008436518 -0.030588022 -0.043886203
