models/dqn_cart_ep600.pth (torch, 406255 bytes, 8 tensors)

network.0.weight f4 [256, 4]
0	0x3ebedb24	0.37276566
1	0xbe909964	-0.28242028
2	0xbe8f3fc9	-0.27978352
3	0xbedccb3f	-0.43123814
4	0x3e8285f0	0.2549281
5	0x3ea09e68	0.31370854
6	0x3f0faaaf	0.5611982
7	0x3eb0032e	0.34377426
8	0x3dbad6c2	0.09122993
9	0xbd64efd5	-0.055892784
10	0xbdb73a57	-0.08946674
11	0x3ed78f97	0.42101738
12	0xbef5b5cb	-0.4799026
13	0xbe7d45af	-0.24733613
14	0x3e3b13f1	0.18269326
15	0xbcda5418	-0.026651427
16	0xbf1823e3	-0.5942976
17	0xbf15284f	-0.5826463
18	0x3ebe4ef2	0.37169605
19	0xbf03d434	-0.5149567
20	0xbf01745c	-0.50568175
21	0x3efae8bc	0.49005687
22	0xbeec96dd	-0.4620885
23	0xbefa743d	-0.48916808
24	0x3f0f7dda	0.5605141
25	0xbcb9c8c1	-0.022678735
26	0xbe361775	-0.17782386
27	0x3e1266d2	0.14297035
28	0x3f1537a7	0.58288044
29	0x3d99cead	0.075101234
30	0xbdc40d8d	-0.09572897
31	0x3d08567c	0.033285603
32	0xbe377c5a	-0.1791853
33	0x3d6ce7c9	0.057838235
34	0xbe691a86	-0.22764024
35	0xbf23d0fb	-0.63990754
36	0x3ddf818e	0.109133825
37	0xbf116a97	-0.5680327
38	0xbe4445e8	-0.19167292
39	0x3e058a33	0.13041
40	0x3ee315b9	0.4435251
41	0xbe08ac48	-0.1334697
42	0xbe8a1123	-0.269662
43	0x3eb2c579	0.34916285
44	0xbf260d24	-0.648638
45	0xbe811285	-0.25209442
46	0x3bb5d012	0.0055484856
47	0x3e7a788e	0.2446005
48	0xbf276165	-0.6538299
49	0xbf081ec5	-0.5317195
50	0x3d0fdf74	0.03512521
51	0x3eadacd1	0.3392091
52	0xbf1a4f87	-0.602776
53	0xbe9ae60d	-0.3025364
54	0x3ec51a7b	0.38496765
55	0xbd75a448	-0.059971124
56	0x3eabd140	0.33558083
57	0x3f0f2e89	0.5593038
58	0xbee3884a	-0.44439918
59	0x3e94dd18	0.2907493
60	0x3ee925ed	0.45536748
61	0xbed8768e	-0.4227795
62	0x3cc6a922	0.02425057
63	0x3eba806d	0.36426106
64	0x3e4a4c38	0.19755638
65	0xbe731804	-0.2373963
66	0xbe3ef476	-0.18647942
67	0xbdce9d43	-0.10088589
68	0xbc3d54c7	-0.011555857
69	0xbebf0f30	-0.37316275
70	0x3c78e2ba	0.015190775
71	0xbed42e85	-0.41441742
72	0x3e8a5831	0.2702041
73	0xbe033b09	-0.12815489
74	0xbea461f5	-0.32105985
75	0xbf109460	-0.564764
76	0xbf1fb1ba	-0.62380564
77	0xbebbb0cd	-0.36658326
78	0xbd956b5b	-0.07295867
79	0xbee57f6a	-0.44823772
80	0xbe5fc0db	-0.21850912
81	0xbec77ee1	-0.38963988
82	0xbe1bab3f	-0.15202044
83	0xbea19412	-0.3155828
84	0x3e84d303	0.2594224
85	0xbeee7e3c	-0.46580684
86	0x3e4aeb7f	0.19816397
87	0x3d666c95	0.056255896
88	0xbea86d69	-0.32895973
89	0xbdf88c56	-0.12136142
90	0xbf009eae	-0.50242126
91	0x3ed0e7b5	0.40801778
92	0xbd8998c0	-0.06718588
93	0x3eabe1dd	0.33570758
94	0x3e57cdea	0.21074644
95	0x3d0829d8	0.03324303
96	0x3e23ff51	0.16015364
97	0xbeba929a	-0.36439973
98	0x3ea830e2	0.32849795
99	0xbf30fc4c	-0.69134974
100	0x3eb920e0	0.36157894
101	0xbed174c3	-0.40909395
102	0x3ef92465	0.4866058
103	0xbd96b941	-0.07359553
104	0xbe8f1ce2	-0.27951723
105	0xbcbe19f9	-0.023205744
106	0xbea4f5e0	-0.32218838
107	0x3e278c87	0.163622
108	0xbe870cde	-0.26377004
109	0xbe8451bb	-0.25843605
110	0x3eccb26b	0.39979872
111	0xbeb74c64	-0.3580047
112	0xbe27284f	-0.1632397
113	0xbec1af74	-0.37829173
114	0xbca8b5c2	-0.020594481
115	0x3e8a66d7	0.27031586
116	0xbca05c78	-0.019575343
117	0x3e96ed62	0.29477984
118	0xbdeada60	-0.11467433
119	0x3e3f31bc	0.18671316
120	0xbe0a269b	-0.1349129
121	0x3ea17edc	0.315421
122	0x3de3e2a9	0.11127216
123	0xbf01a032	-0.50635064
124	0x3d995918	0.074876964
125	0xbf11ea47	-0.56998104
126	0x3f0a8a24	0.54117036
127	0x3e7c1c18	0.24620092
128	0x3eaba79d	0.33526316
129	0xbbc605cc	-0.0060431715
130	0xbe807d04	-0.2509538
131	0xbe525c2c	-0.20542973
132	0xbcb79f00	-0.022414684
133	0x3ecf306d	0.40466633
134	0x3ef58107	0.47950003
135	0x3f13dfb2	0.57763207
136	0xbf1902ec	-0.59770083
137	0xbd7ea958	-0.062173218
138	0xbe1934cd	-0.14961548
139	0xbd1e3b76	-0.038630925
140	0xbd8642c4	-0.06555703
141	0xbf295a1f	-0.6615314
142	0x3914cf34	0.00014191569
143	0xbd6d0d5a	-0.05787406
144	0xbe8dd9d3	-0.2770525
145	0xbf04405d	-0.5166071
146	0xbed4fcfe	-0.41599268
147	0x3eac3be2	0.33639437
148	0x3efdb75e	0.4955396
149	0x3eaac0e6	0.33350295
150	0xbd8e54e7	-0.069497876
151	0xbf1b9e7d	-0.6078871
152	0xbee7c500	-0.45267487
153	0xbdb2f26a	-0.08737643
154	0xbebfd0fd	-0.37464133
155	0xbe906775	-0.2820393
156	0xbe4c5b07	-0.19956599
157	0xbec0506f	-0.37561366
158	0x3e0773a3	0.13227706
159	0x3e46fdd9	0.19432773
160	0xbf294083	-0.6611406
161	0xbbcee3b9	-0.0063137677
162	0xbc790f69	-0.015201428
163	0xbc0f94c5	-0.008763497
164	0x3e962663	0.29326162
165	0x3e4bea56	0.19913611
166	0x3f0231bb	0.5085713
167	0x3d5e5eac	0.054289505
168	0x3f55a0cd	0.8344849
169	0x3c92f310	0.017938167
170	0xbe8b76cf	-0.2723908
171	0xbe3a8231	-0.18213727
172	0xbee2e756	-0.4431712
173	0x3f194701	0.5987397
174	0xbee36d44	-0.444193
175	0x3b8a2e1c	0.0042169224
176	0x3f125956	0.57167566
177	0x3ea6bfc7	0.3256819
178	0xbec5cd4b	-0.3863319
179	0xbc591a37	-0.013250879
180	0x3e6f4bac	0.2336871
181	0x3cf788f7	0.030216677
182	0x3ef1d95a	0.4723614
183	0x3f0c8735	0.5489381
184	0x3f13c116	0.577165
185	0x3e583657	0.21114479
186	0x3e5fefb7	0.21868788
187	0x3e95312e	0.29139084
188	0xbe964b10	-0.29354143
189	0xbf09d087	-0.5383381
190	0x3d97cb9f	0.074118845
191	0xbe88d571	-0.26725343
192	0x3f0049ff	0.5011291
193	0x3ea3d9ae	0.32002014
194	0xbde63868	-0.112412274
195	0xbec5b549	-0.38614872
196	0x3ef1aa7f	0.4720039
197	0xbdd84240	-0.10559511
198	0xbe93610b	-0.28784975
199	0xbb31f61a	-0.0027154745
200	0xbf0b81ab	-0.5449473
201	0x3c993216	0.01870064
202	0x3e9b1501	0.30289462
203	0xbeec516c	-0.4615587
204	0xbdf5158c	-0.11967
205	0x3d8e807e	0.06958102
206	0x3e60428f	0.2190039
207	0xbde3ac11	-0.111168034
208	0x3e1225a4	0.14272171
209	0xbeef01ad	-0.46680966
210	0xbeb1e9d0	-0.34748697
211	0x3d1af3e5	0.037830252
212	0x3e6ce915	0.23135789
213	0x3e9c27e8	0.30499196
214	0x3f2319cd	0.63711244
215	0x3ea614e6	0.3243782
216	0x3f1f63be	0.6226157
217	0xbe1412e0	-0.14460325
218	0x3ecb0176	0.39649552
219	0x3bfd0d0a	0.0077225016
220	0xbd8d26ee	-0.06892191
221	0xbf07029e	-0.5273837
222	0x3b00afaf	0.0019635966
223	0xbd64ce4e	-0.05586081
224	0xbf0b2168	-0.5434785
225	0x3ecc65e9	0.399215
226	0x3d9b2efc	0.07577321
227	0xbdf5acf6	-0.1199588
228	0x3f757ce7	0.9589371
229	0xbd7945e0	-0.060857654
230	0x3d849790	0.06474221
231	0xbf0883bc	-0.5332601
232	0x3f3299fb	0.69766206
233	0xbd473f71	-0.048644487
234	0xbdc3740d	-0.09543619
235	0xbecb69e0	-0.39729214
236	0x3de3346b	0.11093982
237	0xbee2d935	-0.4430634
238	0xbd5b2e34	-0.05351086
239	0xbeb48f85	-0.35265747
240	0xbf5896be	-0.84605014
241	0x3e6b0831	0.22952344
242	0x3e62038f	0.2207167
243	0xbe4f3104	-0.20233542
244	0x3f00db85	0.5033496
245	0xbc0dd4f6	-0.008656731
246	0x3ea93ff5	0.33056608
247	0xbe3ec81f	-0.18631028
248	0x3dbd0c54	0.09230867
249	0x3dcaaada	0.098958686
250	0x3d753036	0.05986043
251	0x3ec1d417	0.37857124
252	0x3e061876	0.13095269
253	0x3e898201	0.26856998
254	0xbec84df7	-0.39121982
255	0x3d8cbd52	0.068720475

network.0.bias f4 [256]
0	0xbeb9cade	-0.36287588
1	0xbe3a233a	-0.181775
2	0xbba596d4	-0.0050533805
3	0x3eff9f2e	0.49926132
4	0xbe83da1b	-0.2575234
5	0x3dd4199b	0.10356446
6	0xbe1b2cfc	-0.15153879
7	0xbe5a44f6	-0.21315369
8	0xbe8432b5	-0.25819936
9	0x3cfd1471	0.030893536
10	0xbe45f3f2	-0.19331339
11	0x3e6e288f	0.2325766
12	0x3e90197b	0.2814444
13	0x3eb466a8	0.3523457
14	0x3b7597aa	0.0037474432
15	0x3e7ac046	0.24487409
16	0x3ec4f2b0	0.38466406
17	0x3e9cdbae	0.30636352
18	0x3e677204	0.22602087
19	0x3ebdeee7	0.3709633
20	0x3e044ecb	0.12920682
21	0x3e384267	0.1799408
22	0x3e3f0163	0.18652873
23	0xbe6a3086	-0.22870073
24	0xbe5c710e	-0.21527502
25	0x3ec02b44	0.3753301
26	0xbda66226	-0.08124189
27	0xbe2a4987	-0.16629611
28	0xbe44540c	-0.19172686
29	0xbebe385a	-0.37152368
30	0xbe51e755	-0.20498402
31	0x3e4d4a3a	0.20047846
32	0x3e895f2f	0.26830432
33	0x3e84cdd4	0.25938284
34	0x3e1e73a2	0.15473798
35	0x3b80d238	0.00393131
36	0x3d33c194	0.043885782
37	0xbeb26a1a	-0.34846574
38	0xbe0a33cb	-0.1349632
39	0x3d401525	0.046895165
40	0x3cb416ed	0.021983588
41	0xbd9bbc86	-0.07604317
42	0x3edfc5b8	0.43705535
43	0x3d3fa3c4	0.04678704
44	0xbe2d0e61	-0.16900016
45	0xbe97dfa8	-0.29662824
46	0x3e2a3d3c	0.16624922
47	0x3e6b20eb	0.22961776
48	0xbdba5477	-0.09098142
49	0x3a9719fb	0.0011528129
50	0x3dd13c56	0.10216586
51	0x3eac18ed	0.33612767
52	0x3eebbe5a	0.46043664
53	0xbe4f8194	-0.20264274
54	0x3ea42fc1	0.32067683
55	0x3c943cde	0.01809543
56	0x3edae2e8	0.4275124
57	0x3eb0100d	0.34387246
58	0x3e917574	0.28409922
59	0x3f00fce6	0.5038589
60	0x3ec9bab3	0.39400253
61	0x3ef8f93f	0.4862766
62	0xbe1c5cf7	-0.15269838
63	0x3cbf743c	0.023370855
64	0x3c7cf68b	0.01543964
65	0x3eb57130	0.35437918
66	0x3e2cfe3b	0.16893856
67	0x3e46f2d9	0.19428577
68	0x3e381a38	0.17978752
69	0xbece2510	-0.4026265
70	0x3e856425	0.26052967
71	0x3c8fe3da	0.017564703
72	0x3e2e1a67	0.17002259
73	0x3edcb4fb	0.43106827
74	0x3ebc998c	0.36835897
75	0x3eb02696	0.3440444
76	0xbe51d1bf	-0.20490168
77	0xbeb77703	-0.35832986
78	0x3e9cee1f	0.30650422
79	0x3ec0216d	0.37525502
80	0xbc914b01	-0.01773596
81	0x3dfdf968	0.12401086
82	0xbdec5165	-0.11538962
83	0x3d46ee6d	0.048567224
84	0xbedec6dc	-0.43511093
85	0x3eebfea3	0.4609271
86	0xbe6886b8	-0.22707641
87	0x3e25aa67	0.16178285
88	0x3edf087c	0.4356116
89	0x3e9747e6	0.29547042
90	0xbd481474	-0.04884763
91	0xbca56543	-0.020189887
92	0xbdeeb998	-0.11656493
93	0xbeb99a1a	-0.36250383
94	0xbef52588	-0.47880197
95	0xbec572cc	-0.38564146
96	0x3e9252a7	0.28578684
97	0xbd9ffda8	-0.07812053
98	0xbea926c0	-0.33037376
99	0x3ed44cc9	0.41464832
100	0x3bda53aa	0.0066628056
101	0x3e9f85cb	0.31156763
102	0xbea57a7c	-0.3232001
103	0x3ee786d7	0.45220062
104	0x3ec72409	0.3889468
105	0x3d26f23f	0.040758368
106	0xbbfd822c	-0.007736465
107	0xbeb4d8ce	-0.3532166
108	0x3e2ab8f1	0.16672112
109	0x3eedff5b	0.46483883
110	0xbe4b23b3	-0.19837837
111	0xbe9ecbdf	-0.31014916
112	0x3e7b6c84	0.24553114
113	0xbe084bff	-0.1331024
114	0x3e1b68a4	0.15176636
115	0xbe43d8e2	-0.19125703
116	0xbddc8132	-0.107668296
117	0x3ebc5a1f	0.36787507
118	0xbdfff6ba	-0.12498231
119	0x3ec701fa	0.38868695
120	0x3dc8921e	0.09793495
121	0x3efc547a	0.492832
122	0xbed57ac6	-0.4169523
123	0x3dd960db	0.10614177
124	0xbe30edaa	-0.17278162
125	0x3ea536da	0.3226841
126	0x3cf0c6b9	0.029391633
127	0x3ea01b38	0.31270766
128	0xbe710d1e	-0.2354016
129	0xbde92d72	-0.11385621
130	0x3e9c22dd	0.3049535
131	0xbeba1de4	-0.3635093
132	0xbe44fc1a	-0.19236794
133	0xbea7e6d5	-0.32793298
134	0x3e5424c7	0.20717154
135	0x3e7cdbd6	0.24693236
136	0x3e8fbb5c	0.2807263
137	0xbed8f933	-0.42377624
138	0xbc0bcfe7	-0.0085334545
139	0xbe7abd89	-0.24486364
140	0x3f123e26	0.5712608
141	0x3ef10dc4	0.47080815
142	0x3ed345dc	0.41264236
143	0x3ee7a350	0.45241785
144	0xbda8e4ce	-0.08246766
145	0xbe3456fe	-0.1761131
146	0x3d91151a	0.07084103
147	0xbe94c580	-0.2905693
148	0x3eb0ab6b	0.34505782
149	0x3eee78af	0.4657645
150	0x3e2c95f1	0.16854073
151	0x3ebe3847	0.3715231
152	0x3e471d53	0.1944478
153	0xbe3eb2cc	-0.18622893
154	0x3ebeda6a	0.37276012
155	0x3ee627ef	0.44952342
156	0xbd28a3ce	-0.04117184
157	0x3dd62d17	0.10457819
158	0xbd82fd6c	-0.06395993
159	0xbee0549e	-0.43814558
160	0xbd957e84	-0.072995216
161	0x3ef7437e	0.4829368
162	0x3d4ffd9a	0.050778963
163	0xbe8e37e2	-0.2777701
164	0x3edc2389	0.4299586
165	0xbdbd004f	-0.092285745
166	0x3d67965c	0.05653988
167	0x3eaa499a	0.3325928
168	0x3e7ef43f	0.2489786
169	0x3e98a327	0.29811975
170	0xbc8eeec7	-0.017447842
171	0x3e08639d	0.1331925
172	0x3f076024	0.52881074
173	0xbd4bf776	-0.049796544
174	0xbdb9a5da	-0.09064837
175	0x3d20c998	0.039254755
176	0x3eea710b	0.4578937
177	0x3e4e7f36	0.20165715
178	0xbeb45506	-0.35221118
179	0x3da50f31	0.08059538
180	0x3e3313a9	0.17487969
181	0xbd9d8fd1	-0.076934464
182	0xbee0ca6a	-0.4390443
183	0xbecb934f	-0.39760825
184	0xbecbfe35	-0.39842382
185	0x3dca53df	0.098792784
186	0x3d8f6631	0.07001913
187	0x3ece4056	0.4028346
188	0xbe7eb17c	-0.24872392
189	0xbecefb8e	-0.40426296
190	0x3d0a5b70	0.033778608
191	0x3eabcbed	0.3355402
192	0x3ec62a2b	0.38704047
193	0xbeb914f7	-0.36148807
194	0xbde8627c	-0.113469094
195	0x3e4a669f	0.1976571
196	0x3f00ee04	0.50363183
197	0x3e0638bd	0.13107581
198	0x3c876de3	0.01653189
199	0x3e30f282	0.1728001
200	0x3ee23658	0.44182086
201	0x3e9744ce	0.2954468
202	0x3eb8ca79	0.36091974
203	0xbea144be	-0.3149776
204	0x3c621859	0.01379975
205	0x3edc00c0	0.42969322
206	0xbcdc5454	-0.02689568
207	0xbe2b8081	-0.16748239
208	0x3ed54cfd	0.416603
209	0xbdafbe66	-0.085812375
210	0x3e092625	0.13393457
211	0x3e9c3b30	0.30513906
212	0x3e181aa8	0.14853919
213	0x3e4b083f	0.19827364
214	0x3ecf0653	0.40434512
215	0x3ec3376c	0.3812822
216	0xbe224e3a	-0.15850154
217	0x3ec6cf58	0.38830066
218	0x3e81a875	0.25323835
219	0x3e96bf62	0.29442888
220	0xbd041e36	-0.032255374
221	0xbdb377c4	-0.08763078
222	0x3d219709	0.03945068
223	0xbe03ddb2	-0.12877539
224	0xbde30e02	-0.11086656
225	0xbecbc2ac	-0.3979696
226	0x3dbfba03	0.09361651
227	0x3ea895a8	0.3292668
228	0x3e1b1bdb	0.15147345
229	0x3dd5f0a7	0.104462914
230	0x3e9a7a4a	0.30171424
231	0xbe7c7829	-0.24655212
232	0xbba1eff4	-0.0049419347
233	0x3e63a741	0.22231771
234	0xbe1f13f9	-0.15534963
235	0xbd1db907	-0.038506534
236	0x3e327395	0.17426904
237	0xbf087356	-0.5330099
238	0xbea74cef	-0.32675883
239	0x3e791168	0.24323046
240	0xbe1b5904	-0.15170676
241	0x3dffae34	0.124843985
242	0x3f0bbf80	0.5458908
243	0x3e15bc61	0.14622642
244	0xbe148a89	-0.14505972
245	0x3c5a1e25	0.013312851
246	0xbec38a77	-0.38191578
247	0xbdd1ebd4	-0.10250059
248	0xbdc46cbb	-0.09591051
249	0xbef82f54	-0.48473608
250	0x3ebb83ae	0.366239
251	0xbee9ab33	-0.45638427
252	0x3b989400	0.004656315
253	0x3e3e322d	0.18573828
254	0x3d1129e8	0.035440356
255	0x3eef393f	0.46723363

network.2.weight f4 [256, 256]
0	0x3dd89107	0.10574537
1	0x3c857cbf	0.016294835
2	0x38ab7f87	8.177669e-05
3	0x3c34ef30	0.011043355
4	0x3d830e19	0.06399173
5	0xbd9c8714	-0.076429516
6	0x3c8d34be	0.017237063
7	0xbe3a7c03	-0.18211369
8	0xbdd1a136	-0.10235827
9	0x3d1de4ea	0.038548388
10	0x3bcfb5b5	0.0063388
11	0x3d696286	0.056978725
12	0xbc4ca5de	-0.012490718
13	0xbd1dc85f	-0.038521167
14	0x3d7ed900	0.062218666
15	0x3d94b822	0.07261683
16	0xbccdb587	-0.025110973
17	0x3d6abdcb	0.057309907
18	0xbbaaf787	-0.005217496
19	0x3d791875	0.06081434
20	0x3c165df2	0.009177672
21	0x3d93a2dd	0.07208798
22	0xbda5ea46	-0.08101325
23	0x3e2cbbfe	0.16868588
24	0xbe5babfa	-0.21452323
25	0x3d8aaf9c	0.06771776
26	0xbd7b37b8	-0.061332434
27	0x3c461153	0.012089091
28	0xbc541a7d	-0.012945768
29	0x3c434270	0.011917695
30	0xbd9a29a2	-0.07527472
31	0xbd49b065	-0.04924049
32	0x3ce8463d	0.028353805
33	0xba5b60fd	-0.00083686394
34	0x3bec2eb1	0.0072077145
35	0x3e3e8d8b	0.18608682
36	0xbdaffadd	-0.0859277
37	0xbc666e3b	-0.014064367
38	0x3d93528a	0.071934775
39	0x3b66d3b9	0.0035221411
40	0x3d7828be	0.06058573
41	0xbe4b5e33	-0.19860153
42	0xbcd1addb	-0.025595596
43	0x3d6dec25	0.058086533
44	0x3d854ba7	0.0650857
45	0x3dd9067d	0.10596941
46	0xbd092bf0	-0.033489168
47	0x3d4aa26b	0.0494713
48	0x3d6c5062	0.057693847
49	0x3e0febfa	0.14054862
50	0x3dac3306	0.084081694
51	0xbc622bd6	-0.013804397
52	0x3d24cf95	0.04023703
53	0xbdb0fa83	-0.08641531
54	0x3d652d7e	0.055951588
55	0x3dff6e9e	0.124722704
56	0xbc61544b	-0.013753007
57	0xbcacfc3e	-0.021116372
58	0xbd1aee62	-0.037824996
59	0x3d7a1c96	0.061062418
60	0x39edfb1f	0.00045391262
61	0x3c2e4366	0.010636186
62	0x3e2bab7a	0.16764632
63	0x3c7a5657	0.015279374
64	0x3cbebdb3	0.023283815
65	0xbd4bba2c	-0.049738094
66	0xbd06cf22	-0.03291238
67	0xbd0cb85e	-0.034355514
68	0xbcba4867	-0.022739602
69	0xbdf7be99	-0.120969005
70	0x3db27fba	0.08715768
71	0xbc0752af	-0.008259459
72	0x3d378741	0.044806723
73	0x3d1d7de2	0.03845013
74	0x3cc0086e	0.02344152
75	0x3d5b313f	0.05351376
76	0xbd66046d	-0.056156565
77	0xbd8a17d3	-0.06742825
78	0xbcd7c901	-0.026340963
79	0x3c968bb6	0.018377166
80	0x3d987b82	0.07445432
81	0x3d2bb1b4	0.041917518
82	0x3c78731d	0.015164164
83	0x3dd77c03	0.105217
84	0x3bd45120	0.0064793974
85	0x3d9c2675	0.076245226
86	0x3ec30944	0.38093007
87	0x3be6e824	0.0070467163
88	0x3d4b4257	0.049623813
89	0x3b64aed9	0.0034894256
90	0x3d43fe32	0.04784984
91	0x3d867ca1	0.0656674
92	0xbe223c88	-0.15843403
93	0x3cb80193	0.022461688
94	0x3e3670c5	0.17816456
95	0x3cab2e1a	0.020896006
96	0xbce31995	-0.02772216
97	0xbcdac820	-0.026706755
98	0xbe5955c0	-0.21224117
99	0xbd60d1ac	-0.05488746
100	0x3d2a924f	0.041643437
101	0x3d510464	0.051029578
102	0x3db14901	0.086565025
103	0x3d8d27a0	0.068923235
104	0xbd180e88	-0.037123233
105	0xbc4e9060	-0.012607664
106	0x3db6f4c2	0.089334026
107	0xbcbc614f	-0.02299562
108	0x3d9238dc	0.07139751
109	0x3d8a2f23	0.06747272
110	0xbe7f8758	-0.24953973
111	0x3da2f18a	0.07956226
112	0xbca4497d	-0.020054573
113	0x3d0b71ed	0.034044195
114	0xbd095ad2	-0.03353388
115	0x3e279782	0.1636639
116	0x3e2a3b0f	0.16624092
117	0xba67d823	-0.00088441576
118	0xbe208309	-0.15674986
119	0x3d8587ea	0.06520064
120	0x3dc70d9e	0.09719394
121	0x3cce1c1b	0.025159886
122	0xbc35250c	-0.011056196
123	0x3db526f0	0.08845317
124	0x3e190586	0.14943513
125	0x3d8a112b	0.06741556
126	0xbc4c31ed	-0.012463075
127	0xbd4dd16c	-0.05024855
128	0x3d99b43d	0.07505081
129	0x3cae83ee	0.021303143
130	0x3cd9ffc0	0.026611209
131	0xbdc74157	-0.097292595
132	0xbc1b0a83	-0.009462955
133	0x3e4ade6f	0.19811414
134	0x3c4281c4	0.011871759
135	0x3d5080a3	0.050903928
136	0xbcd9ca9e	-0.026585873
137	0xbdb3aa39	-0.08772702
138	0xbd1b442a	-0.037906803
139	0x3d8cedd1	0.068812974
140	0xbc8a4744	-0.016879685
141	0xbd073017	-0.033004846
142	0x3d0ea47c	0.034824833
143	0x3c4fcde1	0.012683363
144	0x3deb2884	0.11482337
145	0x3da549f9	0.0807075
146	0xbd7f19cc	-0.06228046
147	0x3d901d48	0.07036835
148	0x3cf88ca0	0.030340493
149	0x3d857427	0.06516295
150	0x3ccda9b9	0.025105344
151	0x3d4dfd86	0.050290607
152	0xbb90800f	-0.004409797
153	0x3d5738cb	0.052544396
154	0x3c458717	0.012056134
155	0x3d4d9b44	0.0501969
156	0x3deb6b15	0.11495034
157	0xbdb4d64b	-0.08829936
158	0x3c080af7	0.0083033955
159	0xbe44a2cb	-0.19202726
160	0x3cbb4067	0.022857858
161	0xbcd5a6f1	-0.02608058
162	0x3d9ac28d	0.07556639
163	0x3dc8fd54	0.098139435
164	0x3c884ffb	0.0166397
165	0x3df3ff45	0.11913923
166	0x3dc7d3f4	0.09757224
167	0xbc9d2cbd	-0.019186372
168	0x3d6695f2	0.056295343
169	0xbbc46a5d	-0.005994125
170	0x3e4db444	0.20088297
171	0xbc883828	-0.01662834
172	0xbcb11aab	-0.021619162
173	0xbc25e2b6	-0.010124853
174	0x3cbf8de3	0.023383087
175	0x3db84c32	0.08998908
176	0x3ccb9d65	0.024855325
177	0xbcb04a2e	-0.021519747
178	0x3ee02382	0.4377709
179	0xbcc5f9ba	-0.02416693
180	0xbca690b6	-0.020332675
181	0x3da5b020	0.08090234
182	0x3deb9197	0.115023784
183	0xbe80b659	-0.2513912
184	0xbd943736	-0.07237093
185	0x3d624a3c	0.055246577
186	0x3dd560db	0.10418864
187	0x3d23a944	0.039956346
188	0x3e2c0666	0.16799316
189	0x3e4cf781	0.2001629
190	0x3ca2dfa2	0.019882027
191	0x3d4573a7	0.048205998
192	0x3d4636f5	0.048392255
193	0x3c34a7f1	0.0110263685
194	0xbd87de3f	-0.06634187
195	0x3d1f310d	0.038865138
196	0xbbb7dba1	-0.0056108986
197	0x3aab082f	0.0013048704
198	0x3e0f93bb	0.14021198
199	0xbc73fe24	-0.014892135
200	0xbcdc285f	-0.02687472
201	0xbc9fd4eb	-0.019510707
202	0xbca64bb9	-0.02029978
203	0x3e049505	0.12947471
204	0xbc02c957	-0.0079825735
205	0x3d8d5d61	0.06902576
206	0x3d9964b7	0.07489913
207	0x3ddf0ca3	0.10891082
208	0xbd19b0ee	-0.03752225
209	0x3bc5710f	0.0060254405
210	0xbd3b22c3	-0.04568745
211	0x3a7ed5e8	0.00097212056
212	0xbc6a8451	-0.014313773
213	0xbd45b6c9	-0.04827002
214	0x3d1fcf62	0.039016135
215	0x3d6653f5	0.05623241
216	0x3d0491ba	0.03236554
217	0x3c309be1	0.010779352
218	0x3c8b7434	0.017023183
219	0x3d5d0f9f	0.053969976
220	0x3d82e044	0.063904315
221	0xbd22f915	-0.039788324
222	0x3de3abfb	0.11116787
223	0x3d40a60d	0.04703336
224	0x3d39f394	0.04539831
225	0x3e33682b	0.17520206
226	0xbc0c3bb3	-0.008559155
227	0x3af13df3	0.0018405303
228	0x3d6f2549	0.058385167
229	0x3d436a45	0.04770877
230	0x3c9bd3b9	0.019021856
231	0xbe5a0e1c	-0.21294445
232	0x3cc47752	0.023982678
233	0xbc9a85ee	-0.01886269
234	0xbd83aa69	-0.064289875
235	0xbd39522b	-0.045244377
236	0xbcdb8362	-0.026796047
237	0x3c0e3001	0.008678437
238	0x3e93511c	0.2877282
239	0xbd14331d	-0.036181558
240	0x3dba4d2d	0.09096751
241	0xbc3c28e3	-0.0114843575
242	0x3d7fe600	0.062475204
243	0x3cc935d3	0.024561798
244	0x3d4374df	0.04771888
245	0x3e0c755f	0.13716649
246	0xbcb07aa7	-0.02154286
247	0x3e0bf431	0.1366737
248	0x3c0d614f	0.008629157
249	0x3dc1a844	0.09455922
250	0x3d8f5346	0.06998305
251	0x3df22258	0.11822957
252	0x3dfeeb3d	0.12447212
253	0x3d860915	0.06544701
254	0x3dc83e81	0.09777547
255	0xbc0fdbbc	-0.008780416

network.2.bias f4 [256]
0	0xbd217d3a	-0.039426066
1	0xbcfc242a	-0.030778963
2	0x3c049636	0.008092454
3	0x3cd051a9	0.025429564
4	0x3d379faa	0.044830002
5	0x3ce022de	0.027360376
6	0xbd38dea0	-0.045134187
7	0x3daa0872	0.08302392
8	0xba0cefb4	-0.0005376295
9	0xbccc2374	-0.02491925
10	0x3b422d52	0.0029629064
11	0x3d9d6218	0.076847255
12	0x3ba6bed8	0.0050886683
13	0xbb1a3c1e	-0.0023534368
14	0x3d040e01	0.032239918
15	0x3d84609b	0.064637385
16	0x3d374142	0.04473997
17	0xbb4e5b1b	-0.0031487409
18	0xbd0c7739	-0.034293387
19	0xbb0b6b27	-0.0021273585
20	0x3dd0ba87	0.10191827
21	0xbc3a9468	-0.011387922
22	0xbd9607fb	-0.07325741
23	0x3dc200ad	0.09472785
24	0x3c8cf9e8	0.017209008
25	0x3c249cba	0.010047132
26	0xbc3d5f41	-0.011558355
27	0x3c32b9ec	0.010908585
28	0x3d426b14	0.0474654
29	0x3d75ae0f	0.05998045
30	0xbbf821fc	-0.0075724106
31	0x3d5aba33	0.05340023
32	0xb8d1e244	-0.00010008042
33	0xbd0d9623	-0.03456701
34	0xbca32bc0	-0.019918323
35	0xbcaa1ea8	-0.020766571
36	0xbc914e04	-0.017737396
37	0xbd76d586	-0.060262226
38	0x3d651c9c	0.055935487
39	0x3c1d9a27	0.009619272
40	0xbd19d6ed	-0.037558485
41	0x3d0c369d	0.03423177
42	0xbcbe6b86	-0.02324463
43	0xbbd86f29	-0.006605048
44	0x3d0ede55	0.03488
45	0x3cbfbb6a	0.023404796
46	0xbd56a2eb	-0.052401464
47	0xbd5fbdb8	-0.05462429
48	0x3daf3a4c	0.08556041
49	0x3c52cf7c	0.012866851
50	0x3cc29937	0.0237547
51	0xba44de50	-0.0007509934
52	0x3c371739	0.01117497
53	0x3cc2c6cf	0.02377644
54	0x3dc53f39	0.096311994
55	0x3da1162d	0.07865558
56	0x3d26d4c2	0.040730245
57	0xbd3c2312	-0.045931883
58	0xbcaf71f0	-0.021416634
59	0xbd39bd95	-0.045346815
60	0x3d0d1f7a	0.034453847
61	0x3d08fbea	0.03344337
62	0x3cbca79c	0.023029141
63	0x3d69e7a2	0.057105668
64	0x3c7d028e	0.015442504
65	0xbcb97568	-0.022638991
66	0x3da8b819	0.08238239
67	0xbd0679ee	-0.032831125
68	0xbd547741	-0.051871542
69	0xbd1c919c	-0.0382248
70	0x3d33a5c7	0.04385927
71	0x3a8da2bd	0.0010805946
72	0x3d5818d2	0.052758045
73	0x3d3eec97	0.04661235
74	0xbd0843a1	-0.03326762
75	0x3d81a3fc	0.06330106
76	0x3cb2663d	0.021777267
77	0x3dae2825	0.08503751
78	0x3d724a96	0.059153162
79	0x3d027e23	0.031858575
80	0x3d799829	0.060936127
81	0xbd6f4018	-0.058410734
82	0xbbe2206b	-0.006900837
83	0xbcef5b18	-0.029218242
84	0xbd1cf815	-0.038322527
85	0x3d5af134	0.053452685
86	0x3ca8cadf	0.020604549
87	0xbc55a289	-0.01303924
88	0x3d756846	0.059913896
89	0xbc571690	-0.013127938
90	0xbc5cf870	-0.0134869665
91	0xbc4f17b3	-0.012639928
92	0x3cd31934	0.025768854
93	0xbd2e96d4	-0.04262431
94	0x3cedab26	0.029012274
95	0xbd156d00	-0.036480904
96	0x3d022ac4	0.031779066
97	0x3dba7746	0.09104781
98	0xbd5b1aea	-0.053492464
99	0x3d4ff8c0	0.050774336
100	0xbccc696d	-0.024952615
101	0xba5af93e	-0.000835318
102	0x3cf45e68	0.029830173
103	0x3d8ff9a0	0.07030034
104	0x3d803169	0.06259424
105	0x3c4ecb0c	0.012621652
106	0x3d0345f3	0.03204913
107	0x3c36a34e	0.011147333
108	0xbcb45fef	-0.022018401
109	0x3d219596	0.039449297
110	0xbd210f11	-0.03932101
111	0xbbf1d57c	-0.0073801856
112	0x3b87a900	0.0041400194
113	0x3d41b595	0.04729231
114	0xbd4b52fd	-0.04963969
115	0xbd337560	-0.04381311
116	0x3cce00af	0.02514681
117	0x3c821d0a	0.015882988
118	0xbc0d3f51	-0.008621053
119	0x3d43e6ae	0.047827415
120	0x3cd352a7	0.025796248
121	0x3e1b4562	0.15163186
122	0x3d04c261	0.032411937
123	0x3c827348	0.015924111
124	0xbc043412	-0.008069055
125	0x3d2f43c8	0.04278925
126	0xbce29ebb	-0.02766358
127	0x3c292d3d	0.010325727
128	0xbd3126b2	-0.043249793
129	0x3c7bc023	0.015365633
130	0x3d765e0e	0.06014829
131	0x3da25974	0.07927218
132	0xbd64923a	-0.055803515
133	0xbbde6779	-0.0067872372
134	0xbd6f3281	-0.058397774
135	0x3d5fc196	0.054627977
136	0x3d2c6c0a	0.04209522
137	0x3da1496a	0.07875331
138	0x3c8922c0	0.016740203
139	0x3ce96d24	0.028494425
140	0x3d4f2631	0.05057353
141	0x3cfd7b47	0.030942572
142	0x3c5a5081	0.013324858
143	0x3b82c2fc	0.003990529
144	0x3b76d0ff	0.0037661192
145	0x3d57001c	0.05249034
146	0x3b98c075	0.0046616145
147	0xbcf92bd7	-0.030416412
148	0x3b0c61de	0.0021420638
149	0x3d6f17bf	0.058372255
150	0xbd20d088	-0.03926137
151	0x3c034ea8	0.008014359
152	0xbcf26527	-0.029589249
153	0x3d8a9ed8	0.06768578
154	0x3cd8b098	0.026451394
155	0x3c86c157	0.016449613
156	0x3c25d8f7	0.010122529
157	0xbd00344f	-0.031299885
158	0xbba9fe06	-0.0051877527
159	0xbb4f59af	-0.003163915
160	0x3cdea304	0.027177341
161	0xbd2e5561	-0.042561892
162	0x3dc3a809	0.095535345
163	0x3d41651e	0.047215573
164	0x3cb103fd	0.021608347
165	0xbb448f2f	-0.002999257
166	0xbd075409	-0.033039127
167	0x3d283e27	0.041074898
168	0x3d578ad9	0.05262265
169	0x3d982046	0.07428031
170	0x3d2f654c	0.042821214
171	0xbd5d1542	-0.05397535
172	0x3c86e810	0.016468078
173	0x3db7be25	0.08971814
174	0xbcd132b7	-0.025536878
175	0xbd1b21c8	-0.037874013
176	0xbd05ed9e	-0.032697313
177	0xbc0a05a4	-0.008424196
178	0x3c917c90	0.017759591
179	0x3c9086c6	0.01764239
180	0x3d6c5eb5	0.057707507
181	0x3c57ab06	0.013163334
182	0xbd1bfe2f	-0.038084205
183	0x3cdc7896	0.026912969
184	0xbd30f418	-0.043201536
185	0x3d269388	0.04066804
186	0x3b720a41	0.0036932381
187	0x3d947f2b	0.07250818
188	0xbd511318	-0.0510436
189	0x3c990ba3	0.018682307
190	0x3cd1c3b0	0.025606006
191	0x3da4f043	0.08053639
192	0xbd2b5b82	-0.041835316
193	0x3cf13a70	0.02944681
194	0x3d29d6dc	0.04146467
195	0xbbcc3b0c	-0.006232625
196	0x3ccdd368	0.02512522
197	0x3d00ce83	0.031446945
198	0x3dcd6c66	0.10030441
199	0xbcff0d0e	-0.031134155
200	0x3d36c77b	0.044623833
201	0x3d7813a3	0.060565602
202	0x3d64eaeb	0.055888098
203	0xbc358390	-0.01107873
204	0xbd4c10ea	-0.049820818
205	0x3cccce45	0.0250007
206	0x3d8f56d7	0.06998985
207	0xbd0754fe	-0.03304004
208	0x3b07af9b	0.0020704034
209	0x3d3f172b	0.046652954
210	0x3db0e6fb	0.08637806
211	0xbd2dc18a	-0.0424209
212	0x3c913bf4	0.017728783
213	0x3c85dc9d	0.016340548
214	0x3c50c5c3	0.012742463
215	0x3c7b654e	0.015343977
216	0xbccaecc3	-0.0247711
217	0x3c01288a	0.0078832
218	0x3d56c49f	0.052433606
219	0xbc018df8	-0.007907383
220	0x3cbd681d	0.023120934
221	0x3d9d3c20	0.076774836
222	0xbd6b73ff	-0.05748367
223	0x3da84f1f	0.08218216
224	0x3a9bb6d2	0.0011880046
225	0x3d61ca4f	0.055124577
226	0xbd8f43b4	-0.06995335
227	0x3d325fd0	0.043548405
228	0xbcf0312e	-0.029320326
229	0x3d70b30b	0.0587645
230	0xbd25b076	-0.04045149
231	0x3ca105bb	0.019656053
232	0xbb6abb56	-0.0035817227
233	0xbd272aa8	-0.040812165
234	0xbb89a47f	-0.0042005177
235	0x3d641d7f	0.055692192
236	0xbc42af4e	-0.011882616
237	0x3d49247c	0.04910706
238	0x3d28b6a4	0.041189805
239	0xbd12e4b5	-0.035862643
240	0x3d944d7d	0.07241342
241	0xbd6b5fab	-0.057464283
242	0x3b641e78	0.00348082
243	0x3db4571c	0.08805677
244	0x3c3d5526	0.0115559455
245	0xbcdee8f8	-0.027210698
246	0x3da2e77a	0.07954307
247	0xbcd56874	-0.026050784
248	0xba5313f0	-0.0008051982
249	0x3d0c91af	0.034318622
250	0x3d450d8c	0.048108622
251	0xbc74ab93	-0.014933485
252	0x3d404863	0.046944033
253	0xbc8d395e	-0.017239269
254	0x3bfc4e67	0.007699776
255	0xbc6f17cd	-0.014593077

network.4.weight f4 [128, 256]
0	0xbcdfd420	-0.027322829
1	0x3db42895	0.08796803
2	0x3be980b6	0.0071259392
3	0xbd557389	-0.052112136
4	0x3e1e84dc	0.1548037
5	0xbde791b4	-0.113070875
6	0x3df30838	0.11866802
7	0x3be9d581	0.0071360474
8	0x3dbc1613	0.09183898
9	0x3ccf96f2	0.025340531
10	0x3d02afa1	0.031905774
11	0x3c900687	0.017581237
12	0xbca8eecd	-0.020621682
13	0xbce8b2c5	-0.028405556
14	0x3ce22eeb	0.027610263
15	0xbd4ea104	-0.050446525
16	0xbdebc333	-0.11511841
17	0x3b77668a	0.0037750327
18	0x3d2a1144	0.041520372
19	0x3d74c521	0.05975831
20	0x3d553b93	0.052058768
21	0x3d9ebe22	0.07751109
22	0x3dff9400	0.12479401
23	0xbcb60a9a	-0.022221852
24	0x3d04b3b2	0.032397933
25	0x3b95a57e	0.0045668473
26	0xbd4421f4	-0.047883943
27	0x3d8eb142	0.06967403
28	0xbd303fb2	-0.043029495
29	0xbcbb1b02	-0.022840027
30	0x3d3e22ae	0.046419792
31	0x3d4138f6	0.047173463
32	0xbd9daf51	-0.076994546
33	0xbdd87e90	-0.10571015
34	0x3cd1e349	0.025621073
35	0xbd50446a	-0.050846495
36	0xbd807ea5	-0.062741555
37	0x3d7845b4	0.06061335
38	0xbd5bb2b1	-0.05363721
39	0xbd94f0da	-0.07272501
40	0x3d0d725e	0.034532897
41	0xbe13f7df	-0.14450024
42	0x3c968259	0.018372701
43	0xbdd50f69	-0.1040333
44	0x3d29459a	0.041326143
45	0x3ce589f8	0.02801989
46	0x3c194322	0.009354385
47	0xbc8ce054	-0.017196812
48	0xbd119739	-0.035544608
49	0x3c0862db	0.00832435
50	0x3d2b683b	0.04184745
51	0x3d6bf286	0.057604335
52	0x3d939f49	0.072081156
53	0x3d265abc	0.040613875
54	0x3d38fb3f	0.045161482
55	0x3b486996	0.0030580512
56	0xbcd8b150	-0.026451737
57	0xbd7922ba	-0.060824133
58	0x3d99dc89	0.07512767
59	0x3da350d2	0.079743996
60	0x3cdc334f	0.026879935
61	0x3cb65283	0.022256142
62	0xbbde4108	-0.0067826547
63	0x3e013ab3	0.12620048
64	0xbd7054ee	-0.058674745
65	0xbc09ed80	-0.008418441
66	0xbd088fbc	-0.0333402
67	0xbcbc8ec1	-0.02301729
68	0x3dfcae88	0.12337977
69	0x3dc73ef3	0.097288035
70	0x3d89e3ff	0.0673294
71	0xbb6409b7	-0.003479583
72	0x3d1b9498	0.037983507
73	0xbd271efe	-0.04080104
74	0xbcc1b923	-0.02364785
75	0xbcb916d6	-0.022593897
76	0x3da5306e	0.08065878
77	0xbce80452	-0.028322373
78	0x3c7a5047	0.015277929
79	0xbb036696	-0.002005016
80	0xbd1543e7	-0.03644171
81	0x3c3d981b	0.011571909
82	0xbd862be8	-0.06551343
83	0xbccb6174	-0.024826743
84	0x3de596e5	0.112104215
85	0xbc1a4c85	-0.009417658
86	0x3cb558c8	0.02213706
87	0xbceba652	-0.028765831
88	0x3d346134	0.044038013
89	0x3d222470	0.03958553
90	0x3d3ca10a	0.046052016
91	0xbca22d38	-0.019796953
92	0x3dc2fd5a	0.09520979
93	0x3d976cd4	0.07393804
94	0x3d45ada2	0.048261292
95	0x3e089dcb	0.13341443
96	0x3ddb5243	0.107090496
97	0xbddddf20	-0.10833573
98	0x3d8b7aae	0.06810509
99	0x3c8790a3	0.01654846
100	0xbceae35f	-0.028672872
101	0x3d6712b7	0.056414332
102	0xbd0a3c3d	-0.033748854
103	0x3d09b044	0.033615366
104	0x3d8cb548	0.06870514
105	0xbbd17cb0	-0.0063930377
106	0xbd90c4ce	-0.070687875
107	0x3deb12ea	0.11478217
108	0xbaf94a78	-0.0019019386
109	0xbd2f48d4	-0.042794064
110	0x3af11274	0.001839234
111	0x3d206d3a	0.039166667
112	0x3ce53f4d	0.027984286
113	0xbb1a318c	-0.0023528067
114	0xbcd5ffe9	-0.026123004
115	0xbd96644c	-0.07343349
116	0x3d240a4e	0.04004889
117	0x3df95433	0.12174263
118	0xbd8f2e51	-0.06991256
119	0x3d856194	0.06512752
120	0x3b779145	0.0037775796
121	0x3c485f57	0.012229762
122	0x3c8efcc1	0.017454507
123	0xbc84b954	-0.016201653
124	0xbcac52a4	-0.0210355
125	0x3c755ef4	0.014976252
126	0xbdcbfdb5	-0.099605
127	0xbd2ff6ec	-0.042960092
128	0x3dd562ea	0.10419257
129	0xbdbf8d21	-0.0935309
130	0x3b3c3195	0.0028716077
131	0xbcf759e9	-0.03019424
132	0xbd33090a	-0.043709792
133	0x3d6b2ae1	0.05741394
134	0x3cb85fd2	0.022506628
135	0xbc3d5f3f	-0.011558353
136	0xbd732230	-0.059358776
137	0xbcc882cd	-0.024476433
138	0xbdb3f7d9	-0.087875076
139	0xbc614d51	-0.013751344
140	0x3d8b6866	0.06807022
141	0x3ce5650a	0.02800228
142	0x3be8c7c3	0.0071038916
143	0xbdc02c4f	-0.09383451
144	0xbd41eaa2	-0.047342904
145	0x3d5da40c	0.054111525
146	0xbd0e07bb	-0.03467534
147	0x3d52a3e1	0.05142582
148	0x3df3d8bb	0.119065724
149	0x3e0f9de3	0.14025073
150	0x3cdd0908	0.026981845
151	0xbd22583c	-0.039634928
152	0x3dd26b90	0.10274422
153	0xbc8629a8	-0.016377285
154	0x3cf54b1b	0.02994304
155	0xbd9d8bfe	-0.07692717
156	0xbc0c3147	-0.0085566705
157	0x3d9a993c	0.075487584
158	0xbcdb21dd	-0.026749546
159	0xbe3848e1	-0.17996551
160	0x3da693e8	0.0813368
161	0xbd2cd7f7	-0.042198148
162	0x3cecefa9	0.028922873
163	0x3c4efda1	0.012633712
164	0xbdc58bc5	-0.096457995
165	0xbd1a2b68	-0.03763905
166	0x3d0255df	0.031820174
167	0x3cac88b9	0.021061288
168	0xbd19170b	-0.03737549
169	0xbcdcf361	-0.02697152
170	0x3d2b21ca	0.04178027
171	0xbcbd7e2c	-0.023131453
172	0x3dd63356	0.1045901
173	0x3cb74ec5	0.022376427
174	0x3d31ab6a	0.043376364
175	0x3d54ee37	0.051984992
176	0x3d116be2	0.035503276
177	0x3ccec9fa	0.025242794
178	0x3acb6630	0.0015518125
179	0xbcab3ba3	-0.02090246
180	0xbc7cc740	-0.015428364
181	0x3d8467ae	0.06465088
182	0xbc87439c	-0.01651173
183	0xbd33bc46	-0.043880723
184	0x3d0a584b	0.03377561
185	0xbc429c4b	-0.011878083
186	0x3d4301f4	0.047609285
187	0xbd3e4677	-0.04645392
188	0xbd63954b	-0.0555623
189	0x3be0bc17	0.0068583596
190	0xbbfdde39	-0.0077474383
191	0xbd44c336	-0.04803773
192	0xbd1ab3ca	-0.037769116
193	0x3c9cb2c9	0.01912822
194	0xbbbc25c2	-0.005741806
195	0xbd10aab6	-0.035319053
196	0xbd386310	-0.04501635
197	0xbd2acfd8	-0.04170212
198	0xbd33cf9c	-0.043899164
199	0xbdf223ad	-0.11823211
200	0xbc280272	-0.010254489
201	0xbd2a94b6	-0.041645728
202	0xbb3df367	-0.002898419
203	0x3d8209b0	0.06349504
204	0x3dcdaafd	0.10042379
205	0xbcaa1adc	-0.02076476
206	0xbccd1062	-0.025032226
207	0x3d2f5239	0.042803023
208	0x3d4f4106	0.05059912
209	0xbd3c60c9	-0.04599074
210	0xbdf1a4b4	-0.11798993
211	0x3ce2e702	0.027698044
212	0xbb7221bf	-0.0036946384
213	0x3dcce25d	0.10004113
214	0x3d92ce3e	0.07168244
215	0x3c11b490	0.008893147
216	0xbd307db1	-0.04308862
217	0x3d59f2b6	0.053209983
218	0xbd2cc2c9	-0.04217795
219	0xbd0282dd	-0.031863082
220	0x3db19352	0.08670677
221	0xbd27a838	-0.04093191
222	0xbd506fd2	-0.05088789
223	0xbdd1a50b	-0.102365576
224	0x3d63fcba	0.05566094
225	0xbd2695ef	-0.04067033
226	0x3d9dcb01	0.077047355
227	0xbc70a0b3	-0.014686751
228	0x3bd39e0a	0.0064580487
229	0xbc82b165	-0.015953729
230	0x398f060f	0.000272796
231	0x3cb2fc76	0.021848898
232	0x3d22719f	0.03965914
233	0xbd6bda33	-0.057581138
234	0x3dc70859	0.09718389
235	0x3c8fa671	0.01753542
236	0x3b062aa3	0.002047219
237	0xbc41f891	-0.011839048
238	0xbe000207	-0.12500773
239	0x3c749bc6	0.014929717
240	0xbd515bc3	-0.0511129
241	0x3cc41b2d	0.02393874
242	0xba60e868	-0.0008579553
243	0xbb61c2bc	-0.0034448346
244	0x3d6de73f	0.05808186
245	0xbcb3e420	-0.021959364
246	0x3d819653	0.063275
247	0xbd203192	-0.039109774
248	0x3d27c244	0.04095675
249	0x3ca0622b	0.01957806
250	0xbcd2f571	-0.025751801
251	0x3d4f1db3	0.050565433
252	0xbcdc02bb	-0.02685677
253	0xbd283856	-0.04106935
254	0x3d211048	0.039322168
255	0xbd94780e	-0.07249461

network.4.bias f4 [128]
0	0x3d299bf0	0.04140848
1	0x3bdd04e3	0.0067449673
2	0x3d1462f7	0.036227193
3	0x3cad79a6	0.02117617
4	0x3c5cf489	0.013486036
5	0x3d875c71	0.06609429
6	0x3d52fbee	0.05150979
7	0x3db802ed	0.08984933
8	0x3d1f5e3f	0.03890824
9	0x3e0cbec1	0.13744642
10	0x3d1038e9	0.035210524
11	0x3d88f984	0.06688216
12	0xbd6ee7e9	-0.058326636
13	0xbc93bcd6	-0.01803438
14	0xbd43e038	-0.047821254
15	0xbc6c6125	-0.014427458
16	0x3c992083	0.01869226
17	0x3b9c8aaa	0.004777272
18	0x3d7cc0af	0.061707195
19	0x3d078df4	0.03309436
20	0xbccc317a	-0.024925936
21	0x3c476009	0.012168893
22	0x3b810cb2	0.003938281
23	0x3d456ed4	0.048201397
24	0xbaf81336	-0.0018926624
25	0x3d0c2651	0.03421623
26	0x3d59eb47	0.053202894
27	0xbc8ec7d5	-0.017429272
28	0xbc2df2fb	-0.010617013
29	0x3d439dc6	0.047757886
30	0xbd0930cf	-0.033493813
31	0x3d63cf91	0.055617873
32	0x3d5da6f6	0.054114304
33	0xbd12502a	-0.03572098
34	0xbd1ee273	-0.038790178
35	0x3cc6f7c9	0.024288075
36	0x3c2766ac	0.01021735
37	0x3d6cd12d	0.057816673
38	0x3bd5bea7	0.0065229717
39	0x3d6d3c7b	0.057919007
40	0xbd54abee	-0.051921777
41	0xbcf3d0b3	-0.029762601
42	0x3ab3d28c	0.0013719364
43	0xbc4e9afc	-0.012610193
44	0xbd1b337c	-0.037890896
45	0xbd5c38f8	-0.053765267
46	0xbca3d8cc	-0.020000838
47	0x3d5b4d36	0.05354043
48	0xbd1eca4e	-0.03876715
49	0xbd2c9317	-0.042132463
50	0x3cdb0bed	0.026739085
51	0xbc25b0d1	-0.010112957
52	0xbd496ec9	-0.04917792
53	0x3d99b9cf	0.07506143
54	0x3d5683e3	0.05237187
55	0xbcb24aec	-0.021764241
56	0x3cd08197	0.025452418
57	0xbcda2594	-0.026629247
58	0x3b5bf5fc	0.0033563366
59	0x3c1e29ae	0.009653492
60	0xbd583242	-0.052782305
61	0xbd0a3c7e	-0.033749096
62	0x3c90dc24	0.017683096
63	0xbbdf7578	-0.0068194233
64	0xbcbecaa3	-0.023289984
65	0x3d443cd6	0.04790958
66	0xbd67366c	-0.056448385
67	0x3d3734e2	0.044728167
68	0xbd316142	-0.043305643
69	0x3d195102	0.03743077
70	0x3cb61d28	0.0222307
71	0xbcc2a990	-0.023762494
72	0x3cba90d5	0.02277414
73	0x3d7c8686	0.06165173
74	0x3d1f781f	0.038932916
75	0x3c9f46c9	0.019442933
76	0xbc77bb70	-0.015120372
77	0x3cfb9527	0.03071077
78	0x3e0039bb	0.12522022
79	0xbccd990c	-0.025097392
80	0xbbb2a626	-0.0054519353
81	0x3d3f7fcc	0.046752736
82	0x3d6ebe35	0.058286864
83	0x3d72a232	0.059236713
84	0x3d7b4d1c	0.061352834
85	0xbba6ee05	-0.005094292
86	0x3d52ee76	0.051496945
87	0xbd21a828	-0.039467007
88	0x3cf33b72	0.029691432
89	0x3dce40ec	0.100709766
90	0x3a0cb07b	0.0005366874
91	0x3d6cb3c8	0.05778864
92	0xbd321ba0	-0.043483377
93	0x3cfc59a6	0.030804466
94	0xbc43fafd	-0.011961696
95	0xbc113a0e	-0.008863939
96	0x3db15533	0.086588286
97	0x3cab134d	0.020883227
98	0x3da66346	0.08124404
99	0x3cf98ddb	0.03046315
100	0xbba71949	-0.00509945
101	0xbd742d8a	-0.059613742
102	0x3bd74a4d	0.0065701366
103	0x3c9be8e4	0.01903195
104	0xbca48845	-0.02008451
105	0x3cb4c655	0.022067228
106	0x3bdf29a6	0.006810385
107	0x3c1c47c9	0.009538599
108	0x3d504022	0.05084241
109	0x3d79bd6a	0.060971655
110	0x3d4e7d19	0.05041227
111	0x3ce822b2	0.028336857
112	0x3ca74cfe	0.020422455
113	0xbd3d1e02	-0.046171196
114	0xbc8a7cf4	-0.016905285
115	0x3ddfed42	0.10933925
116	0x3c89d10c	0.016823314
117	0x3da33f0c	0.079710096
118	0xbd782df0	-0.060590684
119	0x3b37bf61	0.0028037655
120	0xbc2d9443	-0.01059443
121	0x3d5c84c5	0.053837556
122	0xbd02506d	-0.03181498
123	0x3cd797cc	0.0263175
124	0xbcedf4f5	-0.029047469
125	0x3df7da22	0.121021524
126	0x3d5eb9db	0.054376464
127	0x3b7f078a	0.0038914406

network.6.weight f4 [5, 128]
0	0x3e0c3b28	0.13694441
1	0xbe609f98	-0.2193588
2	0x3d032d14	0.03202541
3	0xbd26d814	-0.040733412
4	0xbe0c1786	-0.13680848
5	0xbe24e17a	-0.16101637
6	0xbe4ba4bd	-0.19887061
7	0x3e64f817	0.22360264
8	0x3d877859	0.06614751
9	0x3e3db302	0.18525317
10	0xbdc76b75	-0.09737293
11	0xbdf1f086	-0.11813454
12	0x3bbf5e53	0.0058401017
13	0xbe37c0fb	-0.1794471
14	0xbe324107	-0.17407618
15	0x3de875d6	0.113506004
16	0x3b1c3efe	0.0023841257
17	0xbcf9f2fe	-0.030511376
18	0xbe1ba974	-0.1520136
19	0xbd841d8d	-0.06450949
20	0xbe03e658	-0.12880838
21	0xbe1f8aca	-0.15580288
22	0xbb84df67	-0.004054952
23	0xbcbb44ce	-0.022859957
24	0xbe362b24	-0.17789894
25	0xbc361e59	-0.011115634
26	0x3ca6ab98	0.020345494
27	0xbda65979	-0.08122534
28	0xbd7ce2e2	-0.06173981
29	0xbe0c7c28	-0.13719237
30	0xbd77d259	-0.060503338
31	0x3e49455a	0.19655362
32	0xbe327223	-0.17426352
33	0x3c0634e0	0.008191317
34	0xbd87a172	-0.0662259
35	0xbb0c0f5c	-0.002137146
36	0xbe1caf1f	-0.15301178
37	0x3e32edb3	0.17473488
38	0xbe2a0ae1	-0.16605712
39	0x3d455503	0.048176777
40	0xbe232472	-0.15931872
41	0xbd232b3f	-0.039836165
42	0xbe2b8f77	-0.16753946
43	0xbe2cb8d3	-0.1686738
44	0xbe050885	-0.12991531
45	0x3c38da99	0.0112825865
46	0xbc161483	-0.009160164
47	0xbde8378b	-0.11338719
48	0x3d98526c	0.07437596
49	0xbc4a74aa	-0.012356916
50	0xbe0fff36	-0.14062199
51	0xbe163e59	-0.14672221
52	0x3ca493f8	0.020090088
53	0x3e131be6	0.14366111
54	0xbe0ef8e8	-0.13962138
55	0x3d0952fd	0.03352641
56	0x3d97f65b	0.074200355
57	0x3d19a812	0.0375138
58	0xbdbf2f1e	-0.09335159
59	0xbd71450d	-0.058903743
60	0x3e5f9d47	0.2183734
61	0xbe130938	-0.14358985
62	0xbd04f60a	-0.032461204
63	0xbc006620	-0.0078368485
64	0xbe3ca77d	-0.18423267
65	0x3cfded28	0.030996874
66	0xbd6aa072	-0.05728192
67	0xbe4df6cf	-0.20113681
68	0xbe50917b	-0.20367996
69	0xbcef9e80	-0.029250383
70	0xbdef0b7c	-0.11672112
71	0xbc3740f5	-0.011184921
72	0xbd0ca180	-0.034333706
73	0xbe0ffc6b	-0.14061134
74	0x3d0bd77d	0.034141053
75	0xbe37bb19	-0.17942466
76	0xbe4093ee	-0.1880643
77	0xbd9a93a9	-0.07547695
78	0x3e475a18	0.19467962
79	0x3d297a90	0.04137665
80	0xbdd4b493	-0.10386004
81	0xbe366a37	-0.17813955
82	0x3e626d19	0.2211193
83	0x3d455645	0.048177976
84	0x3de16962	0.11006428
85	0xbe48542e	-0.19563362
86	0x3cec9d5c	0.028883629
87	0xbe0ff343	-0.1405764
88	0xbdd97015	-0.10617081
89	0x3e801fa4	0.2502414
90	0xbe4093e5	-0.18806417
91	0x3e0032bd	0.12519355
92	0x3cde4283	0.027131325
93	0x3d18032a	0.037112392
94	0x3d056894	0.032570437
95	0xbdb465d3	-0.08808484
96	0x3e07bc9e	0.13255545
97	0xbe436652	-0.19082001
98	0x3e4cfa5d	0.20017381
99	0x3d29f418	0.04149255
100	0x3d907daf	0.07055222
101	0xbe49b9f2	-0.19699839
102	0xbe413838	-0.18869102
103	0xbd163867	-0.036674883
104	0xbe10b179	-0.141302
105	0x3e02299a	0.12711182
106	0xbe0980be	-0.13428017
107	0xbe1325f2	-0.14369944
108	0xbe1c7015	-0.15277131
109	0xbdd6e5be	-0.104930386
110	0xbe1efea6	-0.15526828
111	0xbdbc9843	-0.09208729
112	0x3e89951f	0.26871583
113	0x3d6a66ca	0.057226934
114	0xbd5e7f53	-0.054320645
115	0x3e13cc23	0.1443334
116	0xbe022e80	-0.12713051
117	0x3e4083d2	0.18800285
118	0xbd877310	-0.06613743
119	0xbe060f36	-0.1309174
120	0xbd8b24a3	-0.06794097
121	0xbe2bf6c5	-0.16793354
122	0xbb8b2fc0	-0.0042476356
123	0xbe44f866	-0.19235381
124	0xbe2125bd	-0.15737052
125	0x3e52b4d1	0.20576788
126	0x3d5ed985	0.05440666
127	0xbe57a1d2	-0.21057823
128	0x3e239bde	0.15977427
129	0xbcede9a4	-0.029042073
130	0x3ca41b55	0.020032564
131	0xbe11f306	-0.14252862
132	0x3d5da5f5	0.054113347
133	0xbdc2e34c	-0.0951601
134	0xbd88eafe	-0.06685446
135	0x3c8eb4fe	0.017420288
136	0xbc8031c5	-0.015648732
137	0x3e81ec29	0.25375488
138	0xbe4f0855	-0.20218022
139	0xbe58ff34	-0.21191102
140	0x3cdf172f	0.027232734
141	0xbdf17776	-0.117903635
142	0xbe2cfd79	-0.16893567
143	0x3e93539c	0.28774726
144	0xbd6fcb50	-0.058543503
145	0xbe1f40ce	-0.15552065
146	0xbd9e32d8	-0.077245414
147	0xbdc3c8ab	-0.09559759
148	0xbdc486d2	-0.095960274
149	0xbe228f0a	-0.15874878
150	0xbcf9e851	-0.030506285
151	0xbe437a6a	-0.19089666
152	0xbe0d9c10	-0.13829064
153	0xbd88b141	-0.066744335
154	0x3d785450	0.06062728
155	0x3da9b704	0.082868606
156	0x3d877d50	0.06615698
157	0xbe4f899c	-0.20267338
158	0x3e755bed	0.23960848
159	0x3dc9797f	0.09837627
160	0xbe157c10	-0.14598107
161	0x3e98d54d	0.29850236
162	0x3d0cea3d	0.034403075
163	0x3d1ef632	0.03880901
164	0xbe3ee138	-0.18640602
165	0x3e1d6cfe	0.15373608
166	0xbd5687d1	-0.05237562
167	0x3d442b50	0.04789287
168	0xbe6629be	-0.22476861
169	0x3b725e95	0.0036982645
170	0xbe02eb4f	-0.12785076
171	0xbe3ae665	-0.18251951
172	0xbe37151d	-0.17879148
173	0x3da7396e	0.08165251
174	0x3cc3d1ba	0.023903716
175	0xbe208124	-0.15674263
176	0xbdaef3c5	-0.08542589
177	0xbc16a2dc	-0.009194102
178	0xbe2733a0	-0.16328287
179	0xbdaabd40	-0.08336878
180	0x3e8e8857	0.27838394
181	0x3e437c7d	0.19090457
182	0xbe59b72e	-0.21261284
183	0x3cb87398	0.022516057
184	0x3efe7027	0.4969494
185	0x3cb2099c	0.021733098
186	0xbe2c84f2	-0.1684759
187	0xbe2cbe53	-0.16869478
188	0x3ea0a496	0.3137557
189	0xbd808861	-0.06276012
190	0x3d9e4dc2	0.07729675
191	0x3d7a0c53	0.06104691
192	0xbe187122	-0.14886907
193	0x3dda2689	0.10651881
194	0xbda97dab	-0.082759224
195	0xbdf783b4	-0.12085667
196	0xbde209aa	-0.110369995
197	0xbd6ddf87	-0.0580745
198	0xbe280b9e	-0.16410682
199	0x3e926f41	0.28600505
200	0xbe2c5ea5	-0.16832979
201	0xbdf28080	-0.11840916
202	0x3cfb95d0	0.030711085
203	0xbd50fcd0	-0.05102235
204	0xbe53498d	-0.20633526
205	0xbe549f2c	-0.20763844
206	0x3e4c0f42	0.19927695
207	0xbb3e36f9	-0.0029024465
208	0xbe426c90	-0.18986726
209	0xbde843b2	-0.11341037
210	0x3e92abb6	0.2864663
211	0xbd4f778c	-0.05065112
212	0x3dbbab6f	0.09163558
213	0xbe60f681	-0.21969034
214	0x3d770f05	0.060317058
215	0xbe17b853	-0.14816408
216	0xbe321306	-0.1739007
217	0x3e2f3e9d	0.17113729
218	0xbdc622fb	-0.09674641
219	0x3e00cf32	0.12579039
220	0x3d965bfe	0.07341765
221	0x3e02e24c	0.12781638
222	0x3d990dde	0.07473348
223	0xbe109a56	-0.14121374
224	0x3daf7c30	0.08568609
225	0x3dce8871	0.10084618
226	0x3e8444d9	0.25833777
227	0xbc020400	-0.007935524
228	0xbd8a8782	-0.06764127
229	0xbe5079de	-0.20358989
230	0xbe24c517	-0.16090809
231	0xbd879d9f	-0.06621861
232	0xbe59de55	-0.21276219
233	0xbeaaec4d	-0.33383408
234	0xbe1f27fb	-0.15542595
235	0xbd2bc3c8	-0.04193476
236	0xbd3b255c	-0.045689926
237	0xbdc4b2a2	-0.09604384
238	0xbdcb8b88	-0.09938723
239	0xbe48af8f	-0.1959822
240	0x3e71aa65	0.23600157
241	0xbd3eda5a	-0.046594955
242	0xbe14eba0	-0.14543009
243	0x3e99cc0c	0.30038488
244	0xbdcd257c	-0.10016915
245	0x3e30b15e	0.1725516
246	0xbe53aad5	-0.20670636
247	0xbdecb374	-0.115576655
248	0x3bc445d9	0.005989772
249	0xbe060661	-0.13088371
250	0xbccb0b93	-0.024785792
251	0xbdcaaa95	-0.09895817
252	0xbe497004	-0.19671637
253	0x3e6f8e7d	0.23394199
254	0x3e11d560	0.14241552
255	0xbe2ad2f8	-0.1668204

network.6.bias f4 [5]
0	0xbb5b52ab	-0.0033466022
1	0x3d23bbd5	0.039974052
2	0x3b94cc0d	0.0045409263
3	0xbcde937d	-0.027169937
4	0xbd35fb62	-0.04442919
