models/dqn_cart_ep400.pth (torch, 406255 bytes, 8 tensors)

network.0.weight f4 [256, 4]
0	0x3ecf5ff3	0.4050289
1	0xbe828a95	-0.25496355
2	0xbe906de3	-0.28208837
3	0xbecf791e	-0.40522093
4	0x3e844610	0.25834703
5	0x3e9affef	0.30273387
6	0x3f0ad17d	0.54225904
7	0x3ebcc111	0.36866048
8	0x3da02cba	0.07821031
9	0xbd83f6fe	-0.064435944
10	0xbd6f45ba	-0.058416106
11	0x3ed4c8ec	0.4155954
12	0xbef06868	-0.46954656
13	0xbe6cf41f	-0.2314
14	0x3e38f3c4	0.18061739
15	0xbcffc19e	-0.031220254
16	0xbf1a3a4d	-0.6024521
17	0xbf1022ef	-0.56303304
18	0x3ebc0868	0.36725163
19	0xbf049bce	-0.5180024
20	0xbf03c510	-0.5147257
21	0x3ee9d50d	0.45670357
22	0xbeea944e	-0.45816272
23	0xbefe802c	-0.49707162
24	0x3f0ef0cb	0.5583617
25	0xbcc5d620	-0.024149954
26	0xbe26a4da	-0.16273823
27	0x3e159807	0.14608775
28	0x3f07031b	0.52739114
29	0x3d319883	0.043358337
30	0xbd8487d2	-0.06471218
31	0x3dc47919	0.0959341
32	0xbe2517b4	-0.16122323
33	0x3d88831a	0.06665631
34	0xbe65f5ff	-0.22457121
35	0xbf29361c	-0.6609819
36	0x3dda1552	0.10648598
37	0xbf0ee9f6	-0.55825746
38	0xbe38a53a	-0.18031779
39	0x3e02f5ac	0.12789029
40	0x3eefe8ac	0.46857202
41	0xbdf581d1	-0.11987651
42	0xbe9497f1	-0.29022172
43	0x3ea72095	0.32642046
44	0xbf16f90a	-0.58973753
45	0xbe5e8d87	-0.21733676
46	0xbcd90737	-0.026492698
47	0x3e832851	0.25616696
48	0xbf14fe79	-0.58200794
49	0xbef95fae	-0.4870581
50	0xbb45bd15	-0.0030172516
51	0x3eb9385b	0.36175808
52	0xbf134f1b	-0.5754258
53	0xbe9076ab	-0.28215536
54	0x3ed41596	0.4142272
55	0xbda68983	-0.08131697
56	0x3ea45ef0	0.32103682
57	0x3f01676d	0.5054844
58	0xbedff16a	-0.43738872
59	0x3e9d560c	0.3072971
60	0x3ee8087f	0.45318982
61	0xbed50dd8	-0.41612124
62	0x3cc9144d	0.024545813
63	0x3ec06d9c	0.37583625
64	0x3e4c85a7	0.1997286
65	0xbe719a40	-0.23593998
66	0xbe3e1eca	-0.18566433
67	0xbdcd254a	-0.10016878
68	0xbbcf28ff	-0.006322026
69	0xbebb4f19	-0.36583784
70	0x3bcb05bf	0.0061957533
71	0xbed162bc	-0.4089564
72	0x3e87baee	0.26509804
73	0xbe1516ba	-0.14559451
74	0xbea53741	-0.32268718
75	0xbf137bfe	-0.5761107
76	0xbf19b34b	-0.60039204
77	0xbeb28629	-0.3486798
78	0xbd310185	-0.04321434
79	0xbeecbae3	-0.46236333
80	0xbe630e8c	-0.22173518
81	0xbebccf7f	-0.36877057
82	0xbe262fac	-0.16229123
83	0xbe9a8570	-0.3017993
84	0x3e840d0e	0.2579121
85	0xbee180c0	-0.4404354
86	0x3e549541	0.20760061
87	0x3d944e7a	0.07241531
88	0xbea71668	-0.32634282
89	0xbe0c4c3d	-0.13700958
90	0xbefe62b0	-0.49684668
91	0x3ec93613	0.39299068
92	0xbdda9fd9	-0.1067502
93	0x3ea81acd	0.32832947
94	0x3e597590	0.21236253
95	0x3d1da3c0	0.038486242
96	0x3e043099	0.12909164
97	0xbeae6c80	-0.34067154
98	0x3e9c40ad	0.30518094
99	0xbf2e4692	-0.6807643
100	0x3eb97131	0.3621917
101	0xbec892e6	-0.39174575
102	0x3ef828f8	0.48468757
103	0xbd539802	-0.051658638
104	0xbe6f7acf	-0.23386692
105	0xbc66042c	-0.014039081
106	0xbeace6e3	-0.33769903
107	0x3e31d183	0.17365079
108	0xbe82554e	-0.25455707
109	0xbe479e33	-0.19493942
110	0x3ebb1258	0.36537433
111	0xbeb28b5c	-0.34871948
112	0xbe2e2152	-0.17004898
113	0xbebfb579	-0.3744314
114	0xbc989dc7	-0.018629922
115	0x3e8b015a	0.2714947
116	0xbca1411b	-0.019684365
117	0x3e97bd3c	0.29636562
118	0xbdec26f0	-0.11530864
119	0x3e403ff1	0.18774392
120	0xbe1a4c3c	-0.15068144
121	0x3ea62f1b	0.32457814
122	0x3deef7e0	0.11668372
123	0xbf02c597	-0.5108275
124	0x3db9a872	0.090653315
125	0xbf10eed7	-0.5661444
126	0x3f08abf3	0.53387374
127	0x3e7e920d	0.24860401
128	0x3e9b4adb	0.30330548
129	0xbbb89afb	-0.0056337095
130	0xbe848423	-0.25882062
131	0xbe535ed6	-0.20641646
132	0xbd589b06	-0.052882217
133	0x3ec8f2de	0.39247793
134	0x3efba06b	0.49145827
135	0x3f0f40ff	0.5595855
136	0xbf09851e	-0.53718746
137	0xbd6bba50	-0.05755073
138	0xbe397eac	-0.18114728
139	0xbcf443ae	-0.029817428
140	0xbd5d8df2	-0.054090448
141	0xbf24a124	-0.6430838
142	0xbca648a9	-0.020298319
143	0xbd812fdd	-0.06307957
144	0xbe727aa5	-0.23679598
145	0xbf01c3de	-0.50689495
146	0xbedd5f57	-0.432368
147	0x3e9ffe5f	0.31248757
148	0x3ef7b510	0.48380327
149	0x3eab61c6	0.33473033
150	0xbd93dedf	-0.07220244
151	0xbf1a2af5	-0.602218
152	0xbed4b5ef	-0.41545054
153	0xbe02564e	-0.12728235
154	0xbec55cc9	-0.38547352
155	0xbe830771	-0.25591615
156	0xbe2b6f68	-0.16741717
157	0xbeb49d4b	-0.35276255
158	0x3de4ff82	0.11181547
159	0x3e4d8171	0.20068909
160	0xbf295405	-0.6614383
161	0xb9c00142	-0.0003662203
162	0xbd96a5de	-0.073558554
163	0xbc1b8873	-0.009492981
164	0x3e8a98ea	0.2706979
165	0x3e597d3e	0.21239182
166	0x3f036d85	0.5133899
167	0x3d51a0ba	0.05117867
168	0x3f422171	0.7583228
169	0x3c73932d	0.014866632
170	0xbe867451	-0.26260617
171	0xbe2b379d	-0.16720434
172	0xbefe433e	-0.49660677
173	0x3f1525e9	0.5826097
174	0xbed774dc	-0.42081344
175	0x3c1ab631	0.009442852
176	0x3f1318e7	0.5745987
177	0x3ea75de7	0.3268883
178	0xbec68bdd	-0.38778582
179	0xbc4c4fb4	-0.012470175
180	0x3e810d11	0.2520528
181	0x3cb78379	0.022401558
182	0x3ef03bd7	0.46920654
183	0x3f0ee4fe	0.55818164
184	0x3f13a7fc	0.576782
185	0x3e4e94c4	0.20173937
186	0x3e558e46	0.20855054
187	0x3e96f5d1	0.29484418
188	0xbe96b456	-0.2943446
189	0xbf076150	-0.5288286
190	0x3d87e034	0.0663456
191	0xbe6667ef	-0.22500585
192	0x3f048115	0.51759464
193	0x3eab3a33	0.3344284
194	0xbde55f12	-0.11199774
195	0xbec3a614	-0.38212645
196	0x3efa9500	0.48941803
197	0xbde057a7	-0.10954218
198	0xbe8b293c	-0.27179897
199	0x3ba87e35	0.005141998
200	0xbf102216	-0.5630201
201	0x3d50d03b	0.050979834
202	0x3e9ab007	0.30212423
203	0xbee8f43a	-0.4549883
204	0xbddeac69	-0.108727284
205	0x3da7d0c0	0.08194113
206	0x3e565f05	0.20934685
207	0xbde1e754	-0.110304505
208	0x3e2d0660	0.16896963
209	0xbee62c85	-0.4495584
210	0xbeaf25a4	-0.34208405
211	0x3d29045b	0.04126392
212	0x3e79d61f	0.24398087
213	0x3e93d555	0.28873697
214	0x3f1cde7f	0.61277
215	0x3eb7e555	0.35917154
216	0x3f1d3a05	0.61416656
217	0xbe081213	-0.13288145
218	0x3ed0e01f	0.4079599
219	0x3b3faec9	0.0029248467
220	0xbd688189	-0.05676416
221	0xbf0207df	-0.5079326
222	0xbc07e020	-0.008293182
223	0xbd717a79	-0.05895469
224	0xbf07ecbe	-0.53095615
225	0x3ec7acaa	0.3899892
226	0x3d863118	0.06552333
227	0xbdf69656	-0.12040393
228	0x3f4fac9f	0.81122774
229	0xbcb44263	-0.022004312
230	0x3d2db8df	0.042412635
231	0xbf0fa1a3	-0.56106013
232	0x3f1aa4c5	0.6040767
233	0xbd319522	-0.043355115
234	0xbdf212c5	-0.11819986
235	0xbed9368d	-0.4242443
236	0x3deda439	0.116035886
237	0xbedc237f	-0.4299583
238	0xbd6ef0df	-0.05833518
239	0xbeb2af3f	-0.34899327
240	0xbf48a6f3	-0.78379744
241	0x3e81c6a5	0.25346866
242	0x3e633405	0.22187813
243	0xbe7751cc	-0.24152297
244	0x3f01a148	0.5063672
245	0xbc2c9865	-0.010534381
246	0x3ea66202	0.3249665
247	0xbe3854ae	-0.18001053
248	0x3d9861d7	0.074405365
249	0x3d240cec	0.040051386
250	0x3dd71944	0.10502866
251	0x3eb7fe66	0.35936278
252	0x3e0a28a3	0.13492064
253	0x3e819f85	0.25317016
254	0xbebf4d67	-0.3736374
255	0x3db67c85	0.08910469

network.0.bias f4 [256]
0	0xbeb87d7d	-0.3603324
1	0xbe495937	-0.19662939
2	0xbc5bbee2	-0.013412209
3	0x3efee6cc	0.4978546
4	0xbe7676d7	-0.24068771
5	0x3db0a4e2	0.08625199
6	0xbe21d580	-0.158041
7	0xbe64c1b7	-0.22339521
8	0xbe6fda8d	-0.23423214
9	0x3cf34961	0.029698076
10	0xbe239572	-0.15974978
11	0x3e79a288	0.24378407
12	0x3e945bb0	0.28976202
13	0x3ea94d9e	0.3306703
14	0xb996b039	-0.00028741526
15	0x3e75435b	0.23951475
16	0x3ec57a78	0.3857
17	0x3e9a9d14	0.30197966
18	0x3e586207	0.21131144
19	0x3ebf8a77	0.37410328
20	0x3e080bfc	0.13285822
21	0x3e344aec	0.17606705
22	0x3e43726e	0.1908662
23	0xbe65b954	-0.22433978
24	0xbe7588e1	-0.23977996
25	0x3ec0916a	0.37610942
26	0xbd94e816	-0.072708294
27	0xbe38d4bc	-0.18049902
28	0xbe425c9e	-0.18980643
29	0xbebf468f	-0.3735852
30	0xbe3c05d0	-0.18361592
31	0x3e48fc0e	0.19627401
32	0x3e893fcf	0.26806495
33	0x3e8257fc	0.25457752
34	0x3e38543d	0.18000884
35	0xbbc142d3	-0.0058978586
36	0x3d86a91e	0.06575225
37	0xbeae7b8e	-0.3407864
38	0xbe0cbbb7	-0.13743483
39	0x3cc30cb7	0.023809774
40	0x3cc780a1	0.024353327
41	0xbd99934c	-0.07498798
42	0x3eea3bc6	0.4574873
43	0x3d33c0ec	0.043885157
44	0xbe32b4b8	-0.17451751
45	0xbe9513f0	-0.29116774
46	0x3e31645c	0.1732344
47	0x3e671c6e	0.22569439
48	0xbdaf387d	-0.08555696
49	0x3a820f85	0.0009922838
50	0x3da64456	0.08118503
51	0x3ea9d33a	0.33168966
52	0x3ee9a087	0.45630285
53	0xbe63d393	-0.22248678
54	0x3ea2ee9e	0.31822675
55	0x3c1c47d3	0.009538609
56	0x3edee52b	0.43534216
57	0x3eb5f589	0.3553889
58	0x3e90ab0d	0.282555
59	0x3efe894d	0.49714127
60	0x3ecce1b1	0.4001594
61	0x3ef7de8d	0.4841198
62	0xbe186031	-0.14880444
63	0x3ce890dd	0.028389389
64	0x3d0eeb01	0.034892086
65	0x3eb500d1	0.35352185
66	0x3e3b53f5	0.18293746
67	0x3e45924b	0.19294088
68	0x3e2df05d	0.16986223
69	0xbec89384	-0.39175045
70	0x3e842b84	0.2581445
71	0x3c3e1df4	0.011603821
72	0x3e314359	0.17310847
73	0x3edb9196	0.4288451
74	0x3ebbe217	0.3669593
75	0x3eaa58b3	0.33270797
76	0xbe6e8128	-0.23291457
77	0xbeb7c54b	-0.3589271
78	0x3ea1e0fc	0.31616962
79	0x3ec875af	0.39152285
80	0xbce7bbd1	-0.0282878
81	0x3e150f0d	0.14556523
82	0xbe0d778b	-0.13815133
83	0x3d4edef9	0.050505612
84	0xbedffea3	-0.4374896
85	0x3ee5a582	0.44852835
86	0xbe5acba2	-0.21366742
87	0x3e206096	0.15661845
88	0x3eda7684	0.42668545
89	0x3e967fb7	0.29394314
90	0xbdb2224c	-0.08697948
91	0xbd07ae8a	-0.033125438
92	0xbdd4f849	-0.10398919
93	0xbeba9386	-0.36440676
94	0xbeeed89d	-0.46649638
95	0xbec68101	-0.38770297
96	0x3e90ee7d	0.28306952
97	0xbd995c53	-0.074883126
98	0xbeb40d72	-0.35166508
99	0x3ed9e6a7	0.42558786
100	0xbbb5dd47	-0.00555006
101	0x3e9d5ee1	0.3073645
102	0xbea4eb67	-0.32210848
103	0x3ee49505	0.44644943
104	0x3eca2bb3	0.39486465
105	0x3d2e4c55	0.042553265
106	0xbbeb2441	-0.0071759527
107	0xbeb9c605	-0.3628389
108	0x3e28ebaa	0.16496149
109	0x3ee9ab7d	0.45638648
110	0xbe48e752	-0.19619492
111	0xbe9e429d	-0.30910197
112	0x3e774970	0.24149108
113	0xbe06e30f	-0.13172553
114	0x3e2f9b57	0.17149101
115	0xbe4ec5ea	-0.20192686
116	0xbdbfed97	-0.093714885
117	0x3ec3b603	0.382248
118	0xbe0073ef	-0.12544225
119	0x3ecb95eb	0.39762816
120	0x3dab609f	0.083680384
121	0x3efc084d	0.49225083
122	0xbecfad64	-0.40561974
123	0x3d9abf1c	0.075559825
124	0xbe24d9de	-0.16098735
125	0x3ea4079c	0.32037055
126	0x3ceaddd1	0.028670223
127	0x3e9f1b5c	0.3107556
128	0xbe6d2ce9	-0.23161663
129	0xbdd2a1f2	-0.10284795
130	0x3ea73052	0.32654053
131	0xbec50c29	-0.3848584
132	0xbe3eb43a	-0.18623438
133	0xbeb0d5e1	-0.34538177
134	0x3e64edea	0.22356382
135	0x3e7b75a1	0.2455659
136	0x3e939bf0	0.28829908
137	0xbed5c616	-0.4175269
138	0xbcf9dc58	-0.030500576
139	0xbe8036f0	-0.25041914
140	0x3f0b0b0f	0.5431375
141	0x3eec1662	0.46110827
142	0x3ed5f7da	0.41790658
143	0x3ee621b1	0.4494758
144	0xbdbb917a	-0.09158607
145	0xbe3dd6a5	-0.18538912
146	0x3d555171	0.05207962
147	0xbe971790	-0.29510164
148	0x3eb13cda	0.3461674
149	0x3eeb79c7	0.45991346
150	0x3e2a2127	0.16614209
151	0x3eba25a2	0.36356837
152	0x3e5076b7	0.20357786
153	0xbe1fe982	-0.1561642
154	0x3ec1620e	0.37770122
155	0x3ee166ba	0.44023687
156	0xbd54afc9	-0.051925454
157	0x3dd5cf5f	0.104399435
158	0xbd803043	-0.06259205
159	0xbedf0c67	-0.4356415
160	0xbd814f58	-0.06313962
161	0x3ef4f12b	0.47840247
162	0x3d0493d4	0.032367542
163	0xbe844283	-0.25831994
164	0x3ed7a94a	0.42121345
165	0xbdb715ef	-0.089397304
166	0x3d42d29d	0.047564138
167	0x3ea9809d	0.33105937
168	0x3e826750	0.25469446
169	0x3e94b081	0.29040912
170	0xbcbbec97	-0.022939963
171	0x3e1125c7	0.14174567
172	0x3f0506df	0.5196361
173	0xbd85f0a5	-0.0654004
174	0xbdc189a1	-0.09450079
175	0x3d460a98	0.048349947
176	0x3ee3e4ae	0.44510406
177	0x3e5d4df4	0.21611768
178	0xbeb1e272	-0.34743077
179	0x3dbaa018	0.09112567
180	0x3e32d6fb	0.17464821
181	0xbd8b505e	-0.06802438
182	0xbedcebbc	-0.431486
183	0xbec6550b	-0.38736758
184	0xbec97ce4	-0.39353096
185	0x3db22ecb	0.08700331
186	0x3d93dfdf	0.072204344
187	0x3ecee3f4	0.4040829
188	0xbe8589fd	-0.2608184
189	0xbed1eca6	-0.4100086
190	0x3d069887	0.032860305
191	0x3eb608b1	0.35553506
192	0x3ec48cdd	0.3838872
193	0xbeb9c536	-0.36283273
194	0xbdeb72be	-0.11496495
195	0x3e45099c	0.19241947
196	0x3eebed4b	0.46079478
197	0x3de9bd89	0.11413104
198	0x3c637c7d	0.013884661
199	0x3e28c675	0.16481955
200	0x3ede3fd4	0.43408072
201	0x3e93ced4	0.28868735
202	0x3eb5350e	0.3539204
203	0xbea9ec54	-0.33188117
204	0x3c573d18	0.0131371245
205	0x3eded533	0.43522033
206	0xbcda335f	-0.026635824
207	0xbe248fa2	-0.16070417
208	0x3eca4d54	0.39512122
209	0xbdcd4ea4	-0.10024765
210	0x3e0b5b94	0.13609153
211	0x3e9464b8	0.28983092
212	0x3e122621	0.14272358
213	0x3e607925	0.21921213
214	0x3eccc8ba	0.39996892
215	0x3ec227f0	0.37921095
216	0xbe256f6d	-0.16155787
217	0x3ec6fb33	0.38863525
218	0x3e7be2db	0.24598257
219	0x3e93e550	0.2888589
220	0xbce3c57c	-0.027804129
221	0xbdc79fd1	-0.097472794
222	0x3d1be3c5	0.038059015
223	0xbe07d6a8	-0.13265479
224	0xbde77f9d	-0.11303637
225	0xbec19d79	-0.37815455
226	0x3dc754b7	0.09732955
227	0x3ea82e5d	0.32847872
228	0x3e19ceee	0.15020344
229	0x3de3033b	0.110846005
230	0x3e99d9e4	0.3004905
231	0xbe7aec59	-0.24504222
232	0xbc78cc79	-0.015185469
233	0x3e6eef66	0.23333511
234	0xbe237d72	-0.15965822
235	0xbd1b448b	-0.037907165
236	0x3e2a2a56	0.16617712
237	0xbf06308b	-0.5241782
238	0xbeb02142	-0.34400374
239	0x3e7d8fda	0.24761906
240	0xbe253ef4	-0.16137296
241	0x3df16e6e	0.11788641
242	0x3f05415a	0.52052844
243	0x3e17fe90	0.14843202
244	0xbe09f2a2	-0.13471463
245	0x3c9448cd	0.01810112
246	0xbebc814f	-0.36817405
247	0xbdb9f3eb	-0.09079727
248	0xbdcfce22	-0.101467386
249	0xbeeb8b65	-0.46004787
250	0x3ebd17c3	0.3693219
251	0xbeecef98	-0.46276546
252	0xbb18d7a2	-0.0023321887
253	0x3e3cfdb8	0.18456161
254	0x3cb65e67	0.022261811
255	0x3ee6adbc	0.45054424

network.2.weight f4 [256, 256]
0	0x3dd90fe7	0.10598736
1	0x3c54112f	0.01294355
2	0xba76a70e	-0.00094090484
3	0x3be0615b	0.006847543
4	0x3d74e071	0.059784357
5	0xbd99b0e8	-0.07504445
6	0x3cb4884e	0.022037651
7	0xbdd8667a	-0.10566421
8	0xbdd04bce	-0.101707086
9	0x3d239d8c	0.03994517
10	0x3b686300	0.00354594
11	0x3d808978	0.0627622
12	0xbbe3ccfd	-0.0069519267
13	0xbd1bfb2d	-0.038081337
14	0x3d711870	0.058861196
15	0x3d918212	0.07104887
16	0xbcef3d39	-0.029203998
17	0x3d568770	0.052375257
18	0xbbc26f53	-0.005933681
19	0x3d6d31de	0.057908885
20	0xbba7549d	-0.0051065222
21	0x3d8489e9	0.06471617
22	0xbd9f3d69	-0.07775385
23	0x3e28bf8f	0.16479324
24	0xbe4178c3	-0.18893723
25	0x3d85913e	0.065218434
26	0xbd6eb875	-0.05828138
27	0x3ba9df89	0.005184118
28	0xbc22c4b3	-0.009934592
29	0x3c4450a5	0.011982118
30	0xbd8bb02f	-0.06820714
31	0xbd3e4b6a	-0.04645864
32	0x3cf85a52	0.030316506
33	0xbb57a311	-0.0032903592
34	0x3c594bbb	0.013262684
35	0x3e350b5c	0.17680115
36	0xbda836c8	-0.08213574
37	0xbc6da176	-0.014503827
38	0x3d8e5560	0.06949878
39	0x3c20b26c	0.009808164
40	0x3daf2117	0.08551233
41	0xbe4c6a45	-0.19962414
42	0xbcbcb5c5	-0.023035893
43	0x3d79eed3	0.061018776
44	0x3d8d68b2	0.06904735
45	0x3dcfde63	0.10149839
46	0xbd0644d6	-0.03278049
47	0x3d2a3447	0.04155376
48	0x3d9008c7	0.07032924
49	0x3e144985	0.1448117
50	0x3db598f1	0.08867062
51	0xbc9dd759	-0.019267725
52	0x3d17b6e1	0.03703964
53	0xbdb30022	-0.0874026
54	0x3d5b614c	0.053559586
55	0x3de9f676	0.11423962
56	0xbc830c72	-0.015997145
57	0xbc11a7e0	-0.008890122
58	0xbd009c5a	-0.03139911
59	0x3d672964	0.056435958
60	0x3a9528d6	0.0011379968
61	0x3b89e90c	0.0042086896
62	0x3dfc0070	0.12304771
63	0x3c49911b	0.012302662
64	0x3cbe2042	0.023208741
65	0xbd4914cc	-0.0490921
66	0xbc9e0293	-0.019288337
67	0xbd1ff3f1	-0.039051
68	0xbcc22ed8	-0.023703977
69	0xbd927605	-0.07151417
70	0x3dae5cf4	0.08513823
71	0xbc319f47	-0.010841197
72	0x3d227896	0.03966578
73	0x3d11cad8	0.035593837
74	0x3ca305de	0.019900259
75	0x3d598980	0.053109646
76	0xbd67fe95	-0.056639273
77	0xbd49a403	-0.04922868
78	0xbd04e75b	-0.0324472
79	0x3cb248df	0.021763263
80	0x3d7fe986	0.062478565
81	0x3d2970ab	0.041367214
82	0x3ca1ad02	0.019735817
83	0x3dd86e20	0.1056788
84	0x3bd5741e	0.0065140864
85	0x3d99a526	0.07502203
86	0x3eb5d8f6	0.3551709
87	0x3ca718a1	0.020397486
88	0x3d3e2109	0.046418224
89	0x3a4299ae	0.0007423413
90	0x3d03b3e2	0.03215397
91	0x3d96bdb9	0.073604055
92	0xbe16d451	-0.1472943
93	0x3cb8faff	0.022580622
94	0x3e2df647	0.16988479
95	0x3cac12bd	0.021005029
96	0xbd012f36	-0.031539164
97	0xbcdabeff	-0.026702402
98	0xbe5cbade	-0.21555659
99	0xbd73d137	-0.059525695
100	0x3d265e21	0.040617112
101	0x3d45d98b	0.04830317
102	0x3db57969	0.08861048
103	0x3d81f741	0.06345988
104	0xbd1dbb4c	-0.0385087
105	0xbc87fa79	-0.016598927
106	0x3db68831	0.08912695
107	0xbcb353d3	-0.021890556
108	0x3d933640	0.07188082
109	0x3d85bd71	0.06530274
110	0xbe6bc6f5	-0.23025115
111	0x3d821f28	0.06353599
112	0xbca4a509	-0.020098226
113	0x3d13d129	0.036088143
114	0xbd24e214	-0.040254667
115	0x3e28cf7f	0.16485403
116	0x3e2b8d5d	0.16753145
117	0x3abfb009	0.0014624606
118	0xbe1b2f6d	-0.1515481
119	0x3d8314cd	0.06400452
120	0x3dc75e5b	0.09734794
121	0x3caaa85f	0.020832239
122	0x3bded0d0	0.0067997947
123	0x3d996c1c	0.07491323
124	0x3e191a04	0.1495133
125	0x3d85c9b7	0.06532615
126	0xbc201d3e	-0.009772597
127	0xbd515be7	-0.051113036
128	0x3d8eb784	0.069685966
129	0x3cc5b6a7	0.024134947
130	0x3d045a50	0.03231269
131	0xbd99dd67	-0.07512932
132	0x3b9ed342	0.0048469612
133	0x3e492477	0.19642816
134	0x3c8028c7	0.015644444
135	0x3d62433b	0.055239897
136	0xbcc81e26	-0.024428438
137	0xbdb1b8ac	-0.086778015
138	0xbd223a01	-0.039606098
139	0x3da1d609	0.07902152
140	0xbcb39324	-0.021920748
141	0xbd1961ae	-0.03744667
142	0x3d060eec	0.032729074
143	0x3c3017b5	0.01074784
144	0x3def857e	0.116953835
145	0x3dbeaa9c	0.09309885
146	0xbd691296	-0.05690249
147	0x3d8baeb1	0.06820429
148	0x3ce5447d	0.02798676
149	0x3d746d15	0.05967434
150	0x3d0a065c	0.03369747
151	0x3d43d060	0.047806144
152	0x3bbe1939	0.0058013466
153	0x3d3ad906	0.045617126
154	0x3c29faad	0.010374707
155	0x3d4a4afd	0.04938792
156	0x3e00e0cb	0.12585752
157	0xbd9fc062	-0.07800366
158	0x3c67c9c3	0.014147225
159	0xbe291bf9	-0.16514577
160	0x3caa8937	0.020817382
161	0xbcd7460b	-0.026278516
162	0x3d9f198d	0.07768545
163	0x3dd2cc8a	0.10292919
164	0x3c869999	0.016430663
165	0x3de5f373	0.11228075
166	0x3dc8df83	0.098082565
167	0xbca0aee2	-0.01961464
168	0x3d5eab03	0.05436231
169	0xbc2d65d1	-0.010583357
170	0x3e5096d4	0.20370036
171	0xbc5ef46c	-0.013608079
172	0xbce86617	-0.028368993
173	0xbb38b9ff	-0.0028187034
174	0x3cca0624	0.024661131
175	0x3dd05b1c	0.10173628
176	0x3ca030e7	0.019554568
177	0xbcac6998	-0.021046445
178	0x3ed72079	0.42016962
179	0xbca70cca	-0.02039184
180	0xbd09b2ac	-0.03361766
181	0x3d9e29c8	0.07722813
182	0x3debfcca	0.11522825
183	0xbe812097	-0.25220177
184	0xbd3c396f	-0.04595321
185	0x3d8d8e63	0.06911924
186	0x3dd291a4	0.10281685
187	0x3d20fbe8	0.039302737
188	0x3e32ae83	0.17449383
189	0x3e3e1851	0.18563963
190	0x3d329064	0.043594733
191	0x3d433dd2	0.04766638
192	0x3d4b186b	0.049583834
193	0x3cd9170d	0.02650025
194	0xbd884d3f	-0.066553585
195	0x3d247200	0.04014778
196	0xbc352e44	-0.011058394
197	0x3be8986a	0.0070982473
198	0x3e0b6435	0.13612445
199	0xbc2b3a71	-0.010450945
200	0xbce5db19	-0.028058575
201	0xbcb96051	-0.022628935
202	0xbcaae187	-0.020859493
203	0x3e1356da	0.143886
204	0xbc3302cf	-0.010925963
205	0x3d83a0b0	0.06427133
206	0x3da0ccb2	0.078515425
207	0x3ddacaa7	0.10683184
208	0xbd360180	-0.044435024
209	0x3c20d00a	0.009815225
210	0xbd0ccd4f	-0.034375485
211	0xbb40b4ca	-0.0029404634
212	0xbc3ae182	-0.011406304
213	0xbd37c593	-0.044866156
214	0x3d228b42	0.039683588
215	0x3d5d343d	0.054004896
216	0x3d04cb83	0.032420646
217	0x3c326ab2	0.010889696
218	0x3c8e8ac4	0.017400153
219	0x3d5c3e6d	0.05377047
220	0x3db15fb5	0.08660833
221	0xbd064bea	-0.03278724
222	0x3de28171	0.11059845
223	0x3d4406bc	0.047857985
224	0x3d3aaba8	0.04557386
225	0x3e3accaa	0.18242136
226	0xbb97442e	-0.004616282
227	0x3b10dfc5	0.0022106033
228	0x3d826f34	0.063688666
229	0x3d38d5b9	0.045125697
230	0x3c75ebd2	0.015009837
231	0xbe4a2675	-0.19741233
232	0x3cd134ee	0.025537934
233	0xbcb59999	-0.022167968
234	0xbd7a6fdd	-0.061141837
235	0xbd0eb625	-0.034841675
236	0xbce135a1	-0.027491393
237	0x3c48eaec	0.012263041
238	0x3e829ed3	0.25511798
239	0xbd115ed6	-0.035490833
240	0x3dbd0d67	0.09231072
241	0xbc0019b9	-0.007818633
242	0x3d69cc2a	0.05707947
243	0x3cffc0c7	0.031219853
244	0x3d261a58	0.040552467
245	0x3e0aa3ee	0.13539097
246	0xbc48e914	-0.012262601
247	0x3e0b2d01	0.13591386
248	0x3c81101f	0.015754757
249	0x3dd105b4	0.10206166
250	0x3d866a77	0.06563275
251	0x3de08cae	0.109643325
252	0x3df725a2	0.12067725
253	0x3d8afff7	0.06787103
254	0x3dc82790	0.09773171
255	0xbc7c2a64	-0.015390966

network.2.bias f4 [256]
0	0xbd355faa	-0.044280685
1	0xbd1ceb25	-0.03831019
2	0x3ac06b3e	0.0014680398
3	0x3ca8042d	0.020509804
4	0x3d2a0beb	0.041515272
5	0x3cf44b14	0.029820956
6	0xbd2b81b8	-0.041871756
7	0x3da83a96	0.082142994
8	0xba6e4aa3	-0.0009090101
9	0xbcf4fdc9	-0.02990617
10	0x39af9255	0.00033487627
11	0x3d9a5849	0.0753637
12	0x3ba7a37b	0.005115924
13	0xbb1b0bf8	-0.0023658257
14	0x3cf556aa	0.029948551
15	0x3d718b75	0.058970887
16	0x3d3ec4c5	0.046574373
17	0xbb4a6383	-0.0030882068
18	0xbd02bde9	-0.031919394
19	0xbb988820	-0.0046548992
20	0x3dbabac0	0.09117651
21	0xbc628296	-0.013825079
22	0xbd876b2d	-0.06612239
23	0x3dac15a3	0.084025644
24	0x3c395d4c	0.011313748
25	0x3c065e4b	0.008201192
26	0xbc3e6d76	-0.011622777
27	0x3bf729fa	0.007542846
28	0x3d3ddf5e	0.046355598
29	0x3d6b93f4	0.057514146
30	0xbbf97dee	-0.007613889
31	0x3d5bf1fa	0.053697564
32	0xb8028a90	-3.112346e-05
33	0xbd3439db	-0.044000488
34	0xbcb40ebd	-0.021979684
35	0xbcdd9640	-0.027049184
36	0xbc9eabf4	-0.019369103
37	0xbd782216	-0.060579382
38	0x3d447e19	0.04797182
39	0x3bc3a68f	0.005970783
40	0xbd21c924	-0.039498463
41	0x3d078dfe	0.0330944
42	0xbcd5d5f7	-0.026103003
43	0xbc344bd8	-0.011004411
44	0x3cf34f9a	0.029701043
45	0x3cac2adc	0.02101653
46	0xbd5712af	-0.052508052
47	0xbd60f57f	-0.054921623
48	0x3d9b906b	0.07595905
49	0x3c53f27a	0.012936229
50	0x3ca846cf	0.020541577
51	0xba45ec85	-0.0007550198
52	0x3c1714b8	0.009221248
53	0x3cb28581	0.021792175
54	0x3da634dc	0.08115551
55	0x3d94be42	0.07262851
56	0x3d27b965	0.04094829
57	0xbd3d2f2f	-0.046187576
58	0xbcc20180	-0.023682356
59	0xbd29930e	-0.041400008
60	0x3d09629c	0.033541307
61	0x3cef5532	0.029215429
62	0x3cbdb5d1	0.023157986
63	0x3d63b7c2	0.055595167
64	0x3c152a52	0.009104328
65	0xbcba6ed4	-0.022757925
66	0x3db06c9e	0.08614467
67	0xbcfa51a8	-0.030556515
68	0xbd2f9ccf	-0.042874154
69	0xbd293896	-0.04131373
70	0x3d277f01	0.040892605
71	0xbb47a7d2	-0.003046502
72	0x3d63067e	0.055426113
73	0x3d3b10e0	0.04567039
74	0xbd18b9b2	-0.037286468
75	0x3d2bad79	0.041913483
76	0x3ca05895	0.01957349
77	0x3dac5ebb	0.08416506
78	0x3d64924f	0.055803593
79	0x3ceb3de6	0.028716039
80	0x3d710e31	0.058851425
81	0xbd5eb9c8	-0.054376394
82	0xbadd95e3	-0.0016905632
83	0xbcf0a7a8	-0.02937682
84	0xbd27701b	-0.040878396
85	0x3d2ed7a3	0.042686116
86	0x3ca9af82	0.020713571
87	0xbc9e13ae	-0.019296493
88	0x3d6b937d	0.057513703
89	0xbc89236f	-0.016740529
90	0xbc852a57	-0.01625554
91	0xbca3d3ae	-0.019998398
92	0x3ccc402c	0.024932943
93	0xbd325d99	-0.043546293
94	0x3cd8d20c	0.026467346
95	0xbd287647	-0.041128423
96	0x3cdd5ab7	0.027020795
97	0x3db39adb	0.08769771
98	0xbd60613e	-0.054780237
99	0x3d21898c	0.039437816
100	0xbcf6bf26	-0.030120444
101	0xbbb1c100	-0.0054246187
102	0x3cd3659f	0.025805293
103	0x3d90045b	0.07032081
104	0x3d6d79b5	0.057977397
105	0x3c4fee0a	0.01269103
106	0x3cfe8cb6	0.031072956
107	0x3c073ca7	0.008254207
108	0xbceae986	-0.028675806
109	0x3d159bca	0.036525525
110	0xbd2fd474	-0.04292722
111	0xbbf3220c	-0.00741983
112	0x3c1d41df	0.009598224
113	0x3d2fa7e7	0.042884734
114	0xbd52bec5	-0.051451463
115	0xbd3d75d6	-0.046254955
116	0x3c94f03e	0.018180963
117	0x3c7ab794	0.0153025575
118	0xbc0f8810	-0.008760467
119	0x3d3a0b3a	0.045420863
120	0x3cd0e143	0.025498038
121	0x3e14ab6f	0.14518522
122	0x3cdcd817	0.026958508
123	0x3c832e59	0.016013311
124	0xbc5dc9c9	-0.013536879
125	0x3d27c6d8	0.040961117
126	0xbd16f385	-0.036853332
127	0x3c1575b1	0.009122298
128	0xbd1425ac	-0.03616874
129	0x3c5f0635	0.01361232
130	0x3d6d512b	0.057938736
131	0x3d9a5d87	0.0753737
132	0xbd65ca01	-0.05610085
133	0xbc2caaa0	-0.010538727
134	0xbd707f11	-0.05871493
135	0x3d560411	0.05224997
136	0x3d147894	0.036247805
137	0x3d9d2564	0.07673147
138	0x3c42b879	0.011884802
139	0x3cd34275	0.025788525
140	0x3d40282f	0.046913322
141	0x3cf2be9c	0.029631905
142	0x3ba7bdb0	0.005119048
143	0xbb5ecb79	-0.003399579
144	0x3b781d8f	0.0037859415
145	0x3d4bc569	0.049748812
146	0x3affca00	0.0019515157
147	0xbd0b5362	-0.034015067
148	0x3bbf762a	0.0058429437
149	0x3d668d03	0.056286823
150	0xbd281dd0	-0.041044056
151	0x3c0409b9	0.008058959
152	0xbd0a4bc4	-0.033763662
153	0x3d7d2dff	0.061811443
154	0x3cb405af	0.021975366
155	0x3cbc43b1	0.022981497
156	0x3bf57e30	0.0074918494
157	0xbd0c72be	-0.034289114
158	0xbc31ddd4	-0.010856111
159	0xbb5e4484	-0.003391535
160	0x3ca7c340	0.020478845
161	0xbd49c959	-0.049264286
162	0x3dafd1ac	0.085849136
163	0x3d2c1285	0.04200985
164	0x3c810218	0.015748069
165	0xbc461a3c	-0.012091216
166	0xbd14f743	-0.03636862
167	0x3d1ae2ef	0.037814077
168	0x3d482b72	0.048869558
169	0x3d973d26	0.0738471
170	0x3d305eb8	0.04305908
171	0xbd5e4d09	-0.054272685
172	0x3c605865	0.01369295
173	0x3daaecee	0.08345972
174	0xbd002cac	-0.031292602
175	0xbd1bf1a2	-0.038072236
176	0xbd06a8af	-0.032875713
177	0xbc4ce820	-0.012506515
178	0x3c924c6a	0.017858703
179	0x3c824164	0.015900321
180	0x3d6dab45	0.058024663
181	0x3c148f26	0.009067332
182	0xbd1cce09	-0.038282428
183	0x3cc3ddf8	0.023909554
184	0xbd34ed8e	-0.044171862
185	0x3d0b0ae2	0.033945926
186	0x39569084	0.00020462467
187	0x3d8ad8fb	0.06779667
188	0xbd6758f5	-0.05648132
189	0x3c5abf62	0.013351293
190	0x3cd2e6ae	0.025744762
191	0x3d7a3bf2	0.061092325
192	0xbd383368	-0.0449709
193	0x3cde72fc	0.027154438
194	0x3d229222	0.039690144
195	0xbc0bad9a	-0.008525277
196	0x3ccef666	0.025263976
197	0x3ce45982	0.027874712
198	0x3dc7ddaf	0.0975908
199	0xbcfc53ea	-0.030801732
200	0x3d316015	0.04330452
201	0x3d6b33e7	0.057422545
202	0x3d650d15	0.05592068
203	0xbc70cfce	-0.014697982
204	0xbd519333	-0.05116577
205	0x3cd0f533	0.025507545
206	0x3d7faf7f	0.062423225
207	0xbd14d3a2	-0.03633464
208	0xbc2c3890	-0.010511532
209	0x3d3aab36	0.045573436
210	0x3db0ec88	0.08638865
211	0xbd3d2353	-0.046176266
212	0x3c902d76	0.017599802
213	0x3c639d49	0.01389248
214	0x3c30e55a	0.010796869
215	0x3c7cc6a7	0.015428222
216	0xbcf347c6	-0.02969731
217	0x3c0f845e	0.008759586
218	0x3d4a99d9	0.049463127
219	0xbc024909	-0.007951983
220	0x3c95343e	0.018213388
221	0x3d88de5b	0.06683036
222	0xbd6cc08f	-0.057800826
223	0x3daa0cee	0.083032474
224	0xbbc6f2b8	-0.006071415
225	0x3d502847	0.05081966
226	0xbd86ecd7	-0.06588142
227	0x3d2a53ca	0.041583814
228	0xbcf17dbe	-0.029478904
229	0x3d18e4aa	0.037327446
230	0xbd269519	-0.040669534
231	0x3c58a2c2	0.013222398
232	0xbc305ba7	-0.010764039
233	0xbd280f4b	-0.04103021
234	0xbbd1fe05	-0.0064084553
235	0x3d3c9c72	0.046047635
236	0xbc37c4ea	-0.011216382
237	0x3d2b0e9e	0.041761987
238	0x3d0ccb55	0.0343736
239	0xbd134790	-0.03595692
240	0x3d91a64f	0.07111799
241	0xbd6d47f6	-0.057929955
242	0xb9885b6f	-0.00026008065
243	0x3da549b0	0.080706954
244	0x3c0cbe3c	0.008590277
245	0xbce020bf	-0.027359365
246	0x3d8e7bb0	0.06957185
247	0xbce47a11	-0.027890237
248	0xbb91bd47	-0.0044476124
249	0x3d03ac8b	0.03214697
250	0x3d37a06c	0.044830725
251	0xbcb4d350	-0.022073418
252	0x3d17df31	0.037078086
253	0xbc8df46f	-0.01732847
254	0x3b9e69e6	0.0048344014
255	0xbc800bec	-0.015630685

network.4.weight f4 [128, 256]
0	0xbd0a79ed	-0.033807684
1	0x3d56e93d	0.052468527
2	0x3b4b3f1b	0.0031012956
3	0xbd3de94c	-0.046365067
4	0x3d93f8c4	0.07225183
5	0xbd9c307e	-0.07626437
6	0x3dfae921	0.12251497
7	0x3c7a4341	0.015274824
8	0x3dad6073	0.08465662
9	0x3d2baa8e	0.0419107
10	0x3cd6d648	0.026225224
11	0x3cd6ca75	0.026219586
12	0xbca9d370	-0.020730704
13	0xbce9f328	-0.028558329
14	0x3c563176	0.013073316
15	0xbd275eab	-0.040861767
16	0xbd62241d	-0.05521022
17	0x3bd991c5	0.0066396915
18	0x3d405a29	0.046960983
19	0x3d4c5261	0.04988325
20	0x3d477e2d	0.048704315
21	0x3da4e4ae	0.0805143
22	0x3d9cf772	0.07664384
23	0xbce57d75	-0.028013924
24	0x3cbfd43a	0.023416627
25	0xba601972	-0.00085487135
26	0xbd453029	-0.048141632
27	0x3d4cdf84	0.05001785
28	0xbd0f5ac8	-0.034998685
29	0xbcef74d7	-0.029230518
30	0x3d3f30e3	0.04667748
31	0x3d42472b	0.047431152
32	0xbd4cd229	-0.05000511
33	0xbda77963	-0.081774496
34	0x3ca7ed86	0.020499002
35	0xbd44754a	-0.047963418
36	0xbd77416c	-0.060365126
37	0x3d79a3e1	0.060947303
38	0xbd60a10a	-0.05484108
39	0xbd9a8f06	-0.07546811
40	0x3b3b3641	0.0028566273
41	0xbe17160e	-0.14754507
42	0xbcffe2c2	-0.031236056
43	0xbdb9ba87	-0.090687804
44	0x3cdd2740	0.026996255
45	0x3d1363f3	0.03598399
46	0xbc72b8c5	-0.01481456
47	0xbc8d9b65	-0.017286012
48	0xbd195075	-0.037430245
49	0x3c091dec	0.00836895
50	0x3d39a02c	0.045318767
51	0x3d6d3f16	0.05792149
52	0x3d3cbf8b	0.046081107
53	0x3d2bc743	0.041938078
54	0x3d3ed1bf	0.04658675
55	0x3b6ffd8e	0.0036619636
56	0xbcd9d44e	-0.026590493
57	0xbd7a8413	-0.061161112
58	0x3d79015a	0.060792305
59	0x3d911671	0.070843585
60	0x3d02dbd1	0.031947915
61	0x3c9d7b5b	0.01922386
62	0xbbdf78cf	-0.0068198214
63	0x3dc1b728	0.094587624
64	0xbd5250d0	-0.0513466
65	0xbc0aa891	-0.008463041
66	0xbcee4fa4	-0.02909071
67	0xbd1a41c0	-0.03766036
68	0x3de652b3	0.112462424
69	0x3db09f72	0.08624162
70	0x3d4ca1df	0.04995906
71	0xbbff7de2	-0.007796989
72	0x3cfb1dcf	0.030653862
73	0xbd239d78	-0.039945096
74	0xbcce9848	-0.025219098
75	0xbcf29cc3	-0.029615765
76	0x3d88c865	0.06678847
77	0xbc8bb07b	-0.017051926
78	0x3c870ff5	0.016487101
79	0x3c439a37	0.011938623
80	0xbd86b047	-0.06576591
81	0xbad91820	-0.0016562976
82	0xbd4ae213	-0.049532007
83	0xbccc8472	-0.024965499
84	0x3da69dc3	0.081355594
85	0xbc43ae9a	-0.011943484
86	0x3cb65234	0.022255994
87	0xbd120776	-0.035651647
88	0x3d17ec27	0.037090447
89	0x3d07a257	0.033113804
90	0x3cecd5ce	0.028910544
91	0xbcb516eb	-0.022105655
92	0x3dae8e1d	0.085232
93	0x3d66691b	0.05625258
94	0x3d62a6b1	0.05533475
95	0x3d3c3d17	0.045956697
96	0x3cbbb682	0.022914175
97	0xbdc11615	-0.0942804
98	0x3d83fe71	0.06445015
99	0x3ca49079	0.020088421
100	0xbd119062	-0.035538085
101	0x3d48b85b	0.04900394
102	0xbd1f1841	-0.03884149
103	0x3d20b0ed	0.03923123
104	0x3d79a258	0.06094584
105	0xbbd29fae	-0.0064277267
106	0xbd8c408d	-0.068482496
107	0x3dad849c	0.08472559
108	0xbbe78537	-0.007065441
109	0xbd2f57e9	-0.042808447
110	0xbb757d47	-0.0037458704
111	0x3d2151dd	0.03938471
112	0xb9e537f9	-0.00043719987
113	0xbc9eb683	-0.019374138
114	0xbcc6cc2a	-0.024267275
115	0xbd8ad56c	-0.06778988
116	0x3d1ba203	0.037996303
117	0x3db4309a	0.087983325
118	0xbda0b9c5	-0.07847933
119	0x3d57b8e3	0.052666556
120	0x39fe7de7	0.0004854046
121	0x3c4f5ac7	0.01265592
122	0x3c2184ec	0.009858351
123	0xbc857465	-0.016290853
124	0xbc7675ad	-0.0150427045
125	0xbc50db2d	-0.012747568
126	0xbd9b85f5	-0.0759391
127	0xbd17eb16	-0.03708943
128	0x3dc5a73f	0.0965104
129	0xbdb158cc	-0.08659515
130	0xbd6ab9fb	-0.05730627
131	0xbd03d346	-0.032183908
132	0xbd340276	-0.04394766
133	0x3d15a84d	0.036537457
134	0x3cb9593e	0.022625562
135	0xbc6028bd	-0.013681588
136	0xbd53009f	-0.051514264
137	0xbc360be8	-0.011111237
138	0xbdbf2ab1	-0.093343146
139	0xbcf75c30	-0.030195326
140	0x3d66e498	0.056370348
141	0x3bc25d8c	0.005931562
142	0x3b1de10d	0.002409044
143	0xbd8b8902	-0.068132415
144	0xbd42f8d7	-0.047600593
145	0x3d453ff1	0.048156682
146	0xbd129745	-0.035788793
147	0x3d3340b6	0.043762885
148	0x3ddc68d5	0.107621826
149	0x3d68822d	0.05676477
150	0x3cb1f30e	0.021722343
151	0xbd233cdf	-0.039852973
152	0x3d66420f	0.056215342
153	0xbca8211e	-0.020523604
154	0x3d239a78	0.039942235
155	0xbd0fd38f	-0.035113867
156	0xbc98ab48	-0.01863636
157	0x3d3aff3e	0.045653574
158	0xbccb14a7	-0.024790121
159	0xbe38dada	-0.18052235
160	0x3cf9305d	0.03041857
161	0xbccf65cf	-0.0253171
162	0x3d0281ba	0.031862
163	0x3ba03e6f	0.004890255
164	0xbdac31b7	-0.0840792
165	0xbd3150a6	-0.043289803
166	0x398156ef	0.00024669568
167	0x3c24c2ef	0.010056241
168	0xbd3534a4	-0.044239655
169	0xbc91e0b5	-0.017807344
170	0x3d2c066d	0.041998316
171	0xbcbe8c61	-0.023260297
172	0x3c8db35c	0.01729744
173	0x3c99bc86	0.018766653
174	0x3d06c757	0.03290495
175	0x3d561135	0.052262504
176	0x3d123bbc	0.0357015
177	0x3c842e33	0.01613531
178	0x3acc892e	0.0015604848
179	0xbcaddb46	-0.021222722
180	0xbc7e2899	-0.015512609
181	0x3c1f635e	0.009728281
182	0xbc87fead	-0.016600931
183	0xbd45de56	-0.04830774
184	0x3abc690f	0.0014374572
185	0xbc727a02	-0.014799597
186	0x3d19fc8f	0.037594374
187	0xbd4ab0ce	-0.04948502
188	0xbd1c285f	-0.03812444
189	0xba12105e	-0.0005571897
190	0xbbff3f92	-0.0077895606
191	0xbd52e9fd	-0.05149268
192	0xbc9760c1	-0.018478753
193	0xbd2358c3	-0.03987957
194	0x3b9f8183	0.004867734
195	0xbcf6aacb	-0.030110737
196	0xbd395c7c	-0.045254216
197	0xbd4fd555	-0.05074056
198	0xbd134278	-0.03595206
199	0xbda94486	-0.08265023
200	0xbc90e68d	-0.01768806
201	0xbd1f4519	-0.038884256
202	0xbc551e53	-0.013007718
203	0x3d84a730	0.06477201
204	0x3d2d95f3	0.04237933
205	0xbd26283d	-0.040565718
206	0xbcae37ac	-0.02126678
207	0x3ced313f	0.028954146
208	0x3d44d202	0.04805184
209	0xbd25e98e	-0.04050594
210	0xbda7fe61	-0.08202816
211	0x3c69c9ff	0.014269351
212	0xbcdfc3c9	-0.027315037
213	0x3d886973	0.06660738
214	0x3d863d5f	0.06554674
215	0x3c12846a	0.008942703
216	0x3b6a6fbe	0.003577217
217	0x3d539ba5	0.051662106
218	0xbd3ddc40	-0.046352625
219	0xbd033dee	-0.032041483
220	0x3d7e4423	0.0620767
221	0xbd22e345	-0.039767522
222	0xbd5192d0	-0.051165402
223	0xbd86d2a7	-0.065831475
224	0x3ccfee4a	0.02538218
225	0xbd2b5bc9	-0.04183558
226	0x3d51df48	0.05123833
227	0xbc4bf933	-0.01244955
228	0x3bd4c108	0.0064927377
229	0xbca76a12	-0.02043632
230	0x398fd4ea	0.0002743372
231	0x3c8b0f6a	0.016975123
232	0x3d18798a	0.037225284
233	0xbd6d26c3	-0.057898294
234	0x3d86ab0f	0.065755956
235	0x3c17ff8e	0.009277238
236	0xbd24e797	-0.040259924
237	0x3b1f8077	0.0024338046
238	0xbdd9b104	-0.10629466
239	0xbcee8f8a	-0.02912118
240	0xbd2c5ed3	-0.04208262
241	0x3cd9da6e	0.026593413
242	0x3c13f22f	0.009029909
243	0xbbe9cddf	-0.0071351374
244	0x3d777f2f	0.060424026
245	0xbcb4dd8c	-0.022078298
246	0x3d03a72e	0.032141857
247	0xbd3494b9	-0.044087145
248	0x3c8af051	0.016960295
249	0x3c7ddef0	0.015495047
250	0xbcb9b97e	-0.022671457
251	0xbb0e75d8	-0.002173772
252	0xbc09da42	-0.008413853
253	0xbd291cf9	-0.041287396
254	0x3ccf5319	0.025308179
255	0xbd807146	-0.06271605

network.4.bias f4 [128]
0	0x3d381428	0.044941097
1	0x3b546109	0.003240647
2	0x3d1532d1	0.036425415
3	0x3ca17765	0.019710252
4	0x3c9885a2	0.018618409
5	0x3d8443b4	0.06458226
6	0x3d4ce3ee	0.05002206
7	0x3dac5675	0.08414928
8	0x3d2042e2	0.039126284
9	0x3e04101d	0.12896772
10	0x3d192f26	0.03739848
11	0x3d8b25df	0.06794333
12	0xbd703479	-0.05864379
13	0xbc91cdc6	-0.017798316
14	0xbd4884d9	-0.04895482
15	0xbc786b06	-0.015162235
16	0x3c99f05d	0.018791372
17	0x3b7fb699	0.0039018749
18	0x3d79cfda	0.06098924
19	0x3cfc074f	0.030765204
20	0xbce1d1fc	-0.027565949
21	0x3c37e547	0.011224098
22	0x3b81c7c3	0.003960581
23	0x3d4613fe	0.04835891
24	0xbb717291	-0.0036841969
25	0x3d0ce162	0.03439463
26	0x3d5b1b1f	0.05349266
27	0xbc8f8fc6	-0.017524611
28	0xbc2eec67	-0.01067648
29	0x3d402fae	0.04692047
30	0xbd32ab26	-0.04362025
31	0x3d4da3f2	0.05020518
32	0x3d5a1959	0.05324683
33	0xbd57b17f	-0.052659508
34	0xbd1fc716	-0.039008223
35	0x3cc805fe	0.02441692
36	0x3c077d14	0.008269567
37	0x3d581791	0.05275685
38	0x3bae5053	0.005319634
39	0x3d6e890b	0.058236163
40	0xbd5a9917	-0.053368654
41	0xbcf51d43	-0.02992118
42	0x3a413584	0.000737034
43	0xbc5af22d	-0.013363403
44	0xbd21ff73	-0.039550256
45	0xbd5d70bf	-0.0540626
46	0xbca45853	-0.020061648
47	0x3d5878ff	0.052849766
48	0xbd1faef1	-0.038985197
49	0xbd2d7e81	-0.04235697
50	0x3cd0c0e0	0.025482595
51	0xbc496885	-0.012292986
52	0xbd55487a	-0.052071072
53	0x3d8c97b1	0.0686487
54	0x3d58a03b	0.052887183
55	0xbcb34458	-0.021883175
56	0x3cb0ee48	0.021597996
57	0xbcdb5997	-0.026776118
58	0x3b46e33f	0.0030347852
59	0x3c231aab	0.009955089
60	0xbd3d4fa3	-0.046218526
61	0xbd0e80fa	-0.03479097
62	0x3c91abfe	0.017782208
63	0xbbe0ad3f	-0.00685659
64	0xbcc659ac	-0.02421268
65	0x3d32eb5f	0.0436815
66	0xbd686e33	-0.05674572
67	0x3d2e834e	0.04260569
68	0xbd389de2	-0.045072444
69	0x3d0b629a	0.03402958
70	0x3cb31b81	0.0218637
71	0xbccb0ca6	-0.024786305
72	0x3cb5f10c	0.022209667
73	0x3d7926f0	0.06082815
74	0x3d205cc2	0.03915096
75	0x3c961de8	0.018324807
76	0xbc7ce724	-0.015435968
77	0x3cfa9675	0.030589322
78	0x3df543bd	0.11975811
79	0xbccebc0a	-0.025236148
80	0xbbd0e169	-0.0063745272
81	0x3d3da0df	0.046295997
82	0x3d52646d	0.051365305
83	0x3d5413ba	0.051776625
84	0x3d5e7860	0.054314017
85	0xbbae0f18	-0.005311858
86	0x3d541174	0.051774457
87	0xbd278ab3	-0.04090376
88	0x3cf148fa	0.029453743
89	0x3dc588b0	0.09645212
90	0xb9c20a2c	-0.00037010142
91	0x3d51d8a9	0.051232014
92	0xbd33150c	-0.043721244
93	0x3d0f9460	0.03505361
94	0xbc450932	-0.012026118
95	0xbc0647d2	-0.008195834
96	0x3dac8ed3	0.08425679
97	0x3ccb9157	0.024849577
98	0x3dad4980	0.08461285
99	0x3cfaef34	0.030631639
100	0xbba7fdec	-0.0051267054
101	0xbd78402d	-0.060608078
102	0x3bc83d22	0.006110803
103	0x3ca242e2	0.019807283
104	0xbca76dac	-0.020438038
105	0x3c7466f1	0.014917121
106	0x3b9ee370	0.00484889
107	0x3c0bab46	0.0085247215
108	0x3d4e7aba	0.05041001
109	0x3d74ef57	0.059798565
110	0x3d4c2df1	0.0498485
111	0x3ce38aec	0.027776204
112	0x3c66f709	0.014096984
113	0xbd3e2c37	-0.046428885
114	0xbc977b44	-0.018491395
115	0x3dd36b94	0.10323253
116	0x3c846a1e	0.016163882
117	0x3d9cd145	0.076571025
118	0xbd7b29f7	-0.061319318
119	0x3ae2f30e	0.0017314868
120	0xbc8565db	-0.01628392
121	0x3d57f7c3	0.05272652
122	0xbd030b7e	-0.03199338
123	0x3ccbdd4d	0.024885798
124	0xbcf5a200	-0.029984474
125	0x3deac9d8	0.1146428
126	0x3d5e9b57	0.054347362
127	0x3b2d7869	0.0026469475

network.6.weight f4 [5, 128]
0	0x3dc85313	0.0978147
1	0xbe52efe5	-0.20599325
2	0x3d03e825	0.032203812
3	0xbd00768e	-0.031363063
4	0xbdf18549	-0.11793
5	0xbe1b6f49	-0.1517917
6	0xbe3fcc69	-0.1873032
7	0x3e558b3b	0.20853893
8	0x3d88336a	0.066504315
9	0x3e2b0304	0.16700369
10	0xbdbb1863	-0.09135511
11	0xbddee207	-0.10882955
12	0x3bc06c88	0.005872313
13	0xbe2c7d4a	-0.16844669
14	0xbe260ae9	-0.162151
15	0x3dc8a0e8	0.097963154
16	0x3b1d0ed8	0.0023965146
17	0xbca8e01f	-0.020614682
18	0xbe1273e5	-0.14302023
19	0xbd642a05	-0.055704135
20	0xbdf6168d	-0.1201602
21	0xbe18795c	-0.14890045
22	0xbb859a78	-0.004077252
23	0xbc6d050a	-0.014466533
24	0xbe2ccd7f	-0.16875266
25	0xbc3717c5	-0.011175101
26	0x3ca7903b	0.020454517
27	0xbda73e1c	-0.08166143
28	0xbd7e443b	-0.06207679
29	0xbe0235c7	-0.12715827
30	0xbd93c4da	-0.07215281
31	0x3e24dfdd	0.16101022
32	0xbe277d48	-0.16356385
33	0x3cd74b92	0.026281152
34	0xbd885c83	-0.0665827
35	0xbb0cca6d	-0.002148296
36	0xbe13d3f0	-0.14436316
37	0x3e1bdf3b	0.15221874
38	0xbe1f83d3	-0.1557763
39	0x3d466338	0.048434466
40	0xbe1b305d	-0.15155168
41	0xbd240fe2	-0.04005421
42	0xbe1f9429	-0.15583862
43	0xbe254226	-0.16138515
44	0xbdf911b8	-0.12161583
45	0x3c39d405	0.011342053
46	0xbc21a735	-0.009866525
47	0xbdd595e7	-0.10428982
48	0x3d992246	0.0747724
49	0xbc4b8726	-0.012422359
50	0xbe080892	-0.1328452
51	0xbe097914	-0.13425094
52	0xbbe222f7	-0.006901141
53	0x3dc2ddf8	0.095149934
54	0xbe05bee1	-0.13061096
55	0x3d0a0e0e	0.03370481
56	0x3ca13e69	0.01968308
57	0x3d1a77ec	0.037712023
58	0xbdb0171c	-0.08598158
59	0xbd50ccbf	-0.05097651
60	0x3e350b45	0.1768008
61	0xbe09dde1	-0.13463546
62	0xbd05b11b	-0.032639604
63	0xbc012131	-0.007881449
64	0xbe322166	-0.17395553
65	0x3ce662b7	0.028123243
66	0xbd6bed02	-0.057599075
67	0xbe449e78	-0.19201076
68	0xbe478ca9	-0.19487251
69	0xbd2967fb	-0.04135893
70	0xbddcc924	-0.10780552
71	0xbc8dee5d	-0.017325575
72	0xbcdd1c83	-0.026991135
73	0xbe05ccdc	-0.13066429
74	0x3d0c928e	0.034319453
75	0xbe2df68a	-0.16988578
76	0xbe375c8d	-0.17906399
77	0xbd8ca498	-0.06867331
78	0x3e352e5f	0.1769347
79	0x3d2a5f33	0.041594695
80	0xbdbea4cd	-0.09308777
81	0xbe2d12dd	-0.16901727
82	0x3e50b12b	0.20380084
83	0xbce9efb1	-0.028556677
84	0x3dd6ec0a	0.1049424
85	0xbe3f4f89	-0.18682684
86	0x3cede9ec	0.029042207
87	0xbe063302	-0.13105395
88	0xbdc78a0d	-0.09743128
89	0x3e6c4034	0.23071367
90	0xbe387fd1	-0.18017508
91	0x3dde7292	0.10861696
92	0x3cdf7a4a	0.027279992
93	0x3bdec5b3	0.00679847
94	0x3d0623a5	0.032748837
95	0xbdaa2794	-0.0830833
96	0x3db5cdc0	0.08877134
97	0xbe2ab1f4	-0.16669446
98	0x3e36534b	0.17805211
99	0x3d2ad8bb	0.041710597
100	0x3d914d89	0.07094867
101	0xbe3fc9bd	-0.18729301
102	0xbe38613d	-0.18005843
103	0xbce6a376	-0.028154116
104	0xbe030fde	-0.12799022
105	0x3d8c1211	0.068393834
106	0xbdfc7254	-0.12326494
107	0xbe08fffd	-0.13378902
108	0xbe144dc5	-0.14482792
109	0xbdc3fce8	-0.095697224
110	0xbe134c3e	-0.14384553
111	0xbdabd987	-0.083910994
112	0x3e808668	0.25102544
113	0x3d6bb35a	0.05754409
114	0xbd3cc7f5	-0.04608913
115	0x3e009cbb	0.12559788
116	0xbdecd1aa	-0.11563428
117	0x3e2c140e	0.16804525
118	0xbd6c28a6	-0.057655953
119	0xbdfb9f80	-0.122862816
120	0xbd792a56	-0.06083139
121	0xbe230f23	-0.15923743
122	0xbb8bead1	-0.0042699357
123	0xbe3a7816	-0.18209872
124	0xbe1aac62	-0.15104821
125	0x3e4013f0	0.18757606
126	0x3d1a66e1	0.03769577
127	0xbe4545b5	-0.19264872
128	0x3dee0239	0.11621518
129	0xbcdef8b3	-0.027218198
130	0x3ca4fff8	0.020141587
131	0xbe08eb5d	-0.13371034
132	0x3d10a02d	0.035309006
133	0xbdae2490	-0.085030675
134	0xbd687550	-0.056752503
135	0x3b41ffa1	0.002960183
136	0xbc80ecd6	-0.015737932
137	0x3e721847	0.23642074
138	0xbe2cf65e	-0.16890857
139	0xbe4fb393	-0.20283346
140	0x3ce04ef6	0.027381402
141	0xbdd4466b	-0.10364994
142	0xbe247e10	-0.16063714
143	0x3e638a91	0.22220828
144	0xbd7117e0	-0.05886066
145	0xbe151fa3	-0.1456285
146	0xbd890cb5	-0.06691877
147	0xbdb0f119	-0.08639736
148	0xbdb13233	-0.08652153
149	0xbe1aa37c	-0.15101427
150	0xbcfb49aa	-0.030674774
151	0xbe3a7eca	-0.18212429
152	0xbe069094	-0.1314109
153	0xbd896c52	-0.067101136
154	0x3d79b367	0.060962107
155	0x3daa9ba7	0.083304696
156	0x3d883861	0.066513784
157	0xbe468aac	-0.19388837
158	0x3e2b6d67	0.16740952
159	0x3da27e1f	0.07934212
160	0xbe09a854	-0.13443118
161	0x3e8330b4	0.25623095
162	0x3d0da54e	0.034581475
163	0x3d1fdad5	0.039027054
164	0xbe36525c	-0.17804855
165	0x3dfc85be	0.12330197
166	0xbd216e3e	-0.039411776
167	0x3d453985	0.048150558
168	0xbe5c586a	-0.21518102
169	0x3b73ab25	0.0037180868
170	0xbdf640db	-0.12024089
171	0xbe34722e	-0.17621681
172	0xbe2cb7ff	-0.16867064
173	0x3da81e11	0.0820886
174	0x3cc7b822	0.024379794
175	0xbe19f91a	-0.15036431
176	0xbdafed31	-0.085901625
177	0xbc1772b6	-0.009243658
178	0xbe1f8842	-0.15579322
179	0xbd99a38b	-0.075018965
180	0x3e7a190e	0.2442362
181	0x3e1356b0	0.14388537
182	0xbe510926	-0.20413646
183	0x3cb96d04	0.02263499
184	0x3ede9f3e	0.43480867
185	0x3cb30308	0.021852031
186	0xbe2541f7	-0.16138445
187	0xbe24e0e0	-0.16101408
188	0x3e50cef3	0.20391445
189	0xbd51d784	-0.051230922
190	0x3d9f3265	0.07773284
191	0x3d7b6dac	0.061383888
192	0xbe0e43d0	-0.13893056
193	0x3d9ed158	0.07754773
194	0xbdaa624e	-0.083195314
195	0xbde88c05	-0.113548316
196	0xbdd137d3	-0.10215726
197	0xbd83b834	-0.06431618
198	0xbe1fe2df	-0.15613888
199	0x3e60ec4e	0.21965143
200	0xbe237920	-0.15964174
201	0xbddf9305	-0.109167136
202	0x3cfcf729	0.030879574
203	0xbd249465	-0.040180583
204	0xbe4bae1b	-0.19890635
205	0xbe4bf772	-0.19918612
206	0x3e3896ba	0.18026248
207	0xbb3f452e	-0.0029185521
208	0xbe37b789	-0.17941107
209	0xbdd9bfc9	-0.10632283
210	0x3e8a06fa	0.26958448
211	0xbda984dd	-0.08277295
212	0x3d96f6c9	0.07371289
213	0xbe58ba3a	-0.2116479
214	0x3d785b95	0.060634214
215	0xbe0df90b	-0.13864534
216	0xbe295ad4	-0.16538554
217	0x3e1f4a67	0.15555726
218	0xbdb37e53	-0.08764329
219	0x3de2fdf5	0.11083595
220	0x3d972bd8	0.073814094
221	0x3dc91162	0.09817769
222	0x3d99ddb8	0.075129926
223	0xbe052f96	-0.13006434
224	0x3ce6ccd8	0.028173849
225	0x3dbc7460	0.09201884
226	0x3e71ad66	0.23601303
227	0xbc02bf11	-0.007980124
228	0xbd8b4293	-0.067998074
229	0xbe44adb8	-0.19206893
230	0xbe1c8026	-0.1528326
231	0xbd6a8b3d	-0.057261694
232	0xbe4ddc96	-0.20103678
233	0xbea71677	-0.32634327
234	0xbe13d1c4	-0.14435488
235	0xbce97d59	-0.028502153
236	0xbd1a3c5b	-0.037655216
237	0xbdb2e2b6	-0.08734648
238	0xbdbe59ef	-0.09294497
239	0xbe3febcd	-0.18742295
240	0x3e60b84a	0.219453
241	0xbd3fe88f	-0.046852645
242	0xbe0c3909	-0.13693632
243	0x3e908376	0.28225297
244	0xbdbed69f	-0.093182795
245	0x3e197a9c	0.14988178
246	0xbe4a82f8	-0.19776523
247	0xbdd88408	-0.10572058
248	0x3bbd5db2	0.0057789916
249	0xbdf7b4af	-0.120950095
250	0xbccc29ab	-0.024922213
251	0xbdb496a5	-0.08817796
252	0xbe412264	-0.18860775
253	0x3e5f981f	0.21835373
254	0x3de047d3	0.109511994
255	0xbe198153	-0.1499074

network.6.bias f4 [5]
0	0xbb8a2287	-0.0042155418
1	0x3d1fdcdb	0.039028984
2	0x3b28029b	0.0025636319
3	0xbce479ff	-0.027890204
4	0xbd389259	-0.045061443
